lstm_ckpts/lstm-epoch=01-train_loss=1.40.ckpt (torch, 336478 bytes, 33 tensors)

embedding.weight f4 [20, 128]
000000 37 6b db 3e 13 43 52 bf b9 de 8f bf 36 ef 8a 3d
       0.42855236 -0.821336 -1.1239845 0.06783907
000010 6a 3f ac 3f 0f 7a 72 bf 63 b3 e2 3e cf f7 21 3f
       1.3456852 -0.94717497 0.44277486 0.6326875
000020 b2 e9 91 be ba ce d0 be 0f 81 bc be e2 3f 2d 3f
       -0.28498608 -0.4078272 -0.36817214 0.676756
000030 dd 99 12 3f 6c 79 80 3f 05 6d 4d 3e d5 d3 54 3f
       0.57266027 1.0037055 0.20061119 0.8313573
000040 ef a4 0c be 2d ac ea 3f 10 50 cb bf f8 8c d3 3d
       -0.13734792 1.8333794 -1.5883808 0.10329622
000050 5f 5f c5 bf d5 c4 f9 3f b6 da 8a 3f 92 92 78 3e
       -1.541973 1.9513193 1.0847995 0.24274662
000060 a1 21 c1 bf 86 96 e0 bc 93 d6 06 bf 38 53 55 3f
       -1.5088388 -0.027415525 -0.52671164 0.83330107
000070 0a 6c 5d be c6 d2 d2 be e6 52 87 bf 01 a2 ec bf
       -0.21623245 -0.41176432 -1.0572174 -1.848694
000080 be 29 64 3d 2c 86 cd 3e 71 1c 31 3f 96 7a 80 3d
       0.05570387 0.40141428 0.69184023 0.062733814
000090 fd 76 b5 3f 5c da f3 be 70 f2 11 be ce 2a b4 bf
       1.4176937 -0.47627532 -0.14252639 -1.4075563
0000a0 30 58 a7 be 76 ef 01 3f 8c ca a7 3f a0 a0 d7 be
       -0.3268447 0.50756013 1.3108687 -0.42114735
0000b0 bf 05 26 bf ce 43 72 3f 0d 9a 19 40 d5 ff 29 3e
       -0.6485252 0.9463471 2.4000275 0.16601498
0000c0 2c 40 37 3f 7d 59 c0 be 4b 95 b3 be 17 8e 49 3f
       0.71582294 -0.37568274 -0.3507484 0.78732437
0000d0 8e 15 2b c0 75 ca 8d 3f 5b 37 4d bf da 9f a0 3f
       -2.6731906 1.107741 -0.8016259 1.2548783
0000e0 ed 87 90 3c 64 b0 7f 3f c6 f1 f0 be 6b 74 33 bf
       0.01764294 0.99878526 -0.47059458 -0.70099515
0000f0 4f 40 b5 be 79 35 8a bf 7c 64 b7 3f a4 a4 02 c0
       -0.35400626 -1.0797569 1.432754 -2.0412989
000100 ee 62 1e 3e 53 2a 97 bf 28 7a b3 be 63 ba 9a 3f
       0.15467426 -1.1809791 -0.35054135 1.2088131
000110 ef 0c 60 bd c9 38 eb bb fe ba d3 be 5c 20 73 3f
       -0.054699834 -0.0071784 -0.413536 0.9497125
000120 bc 1a fc 3e 15 95 a5 bd f2 5d d6 3e e6 54 a9 3d
       0.49239147 -0.08085076 0.4186855 0.08268146
000130 0c 88 db 3d 29 6a 17 3f 5f d1 02 40 0e cc 81 3d
       0.10719308 0.5914636 2.044029 0.063377485
000140 32 e4 42 3e 6d 79 85 bf 15 3f 6a 3f 45 08 6c 3f
       0.19032362 -1.0427681 0.91502506 0.9220012
000150 7a 2f aa bf 01 be ea bc 52 61 05 3f 5f e3 e2 be
       -1.3295739 -0.028655054 0.52101624 -0.44314095
000160 c7 1a 0d 3f 28 fd 44 3f 4e d8 72 3f 68 0b 43 3f
       0.55118984 0.76948786 0.94861305 0.7618928
000170 29 c1 aa 3f 40 8f 00 40 46 d0 ca 3f 0f c7 9e 3f
       1.3340198 2.0087433 1.584481 1.2404498
000180 05 6b cf be 74 cb 97 be 4f b5 a2 bf f6 6a 28 bc
       -0.40511337 -0.2964741 -1.2711581 -0.010279408
000190 22 2e 51 bf d7 85 62 3d 75 ba fe 3f e3 8b 15 40
       -0.8171102 0.05530342 1.9900652 2.336663
0001a0 e8 23 0b bf 4d c0 f5 be 7d 72 a7 bf 4e fd 81 3e
       -0.54351664 -0.47998276 -1.3081814 0.2538857
0001b0 6c f7 22 bc 15 1e 1d 3f 1d 7b 86 be d5 cc 35 3e
       -0.009946685 0.61374027 -0.26265803 0.17753918
0001c0 75 7d 70 3d 87 bd 0e c0 d5 eb ce bf ef 31 e4 3f
       0.058713395 -2.2303178 -1.616572 1.7827739
0001d0 7d 02 c4 3e 51 ca f7 bd 72 0a c5 3e 1a 8b b7 3e
       0.38283148 -0.12099136 0.38484532 0.35848314
0001e0 f7 d8 94 be 2c 9e 62 3f 4f 9e 6c bd f4 80 bb be
       -0.2907178 0.885226 -0.057768162 -0.3662182
0001f0 af 78 6c bf ed 4d e2 3e a7 6d af be 47 26 f9 bf
       -0.9237165 0.44200078 -0.34263346 -1.9464806
000200 d4 3e 02 bd 00 a2 09 3f a1 32 0d 3f ae 2f 46 bf
       -0.0317982 0.5376282 0.5515538 -0.77416503
000210 1e a2 9b be 14 d8 a0 3f 05 73 6b 3f 92 48 f5 bd
       -0.30397123 1.2565942 0.9197238 -0.11976732
000220 e3 ec cd bf f2 a6 ac be b9 fe a5 bf 5e fe 5a 3f
       -1.6087917 -0.3372112 -1.296836 0.85544384
000230 77 1f a0 bd f3 5b cf bf 9b 17 9a 3e c0 3f e9 3e
       -0.078185014 -1.6199936 0.30096135 0.4555645
000240 bb 06 a6 3f 55 5a 4d 40 ac 41 de be 79 76 63 3f
       1.2970804 3.2086384 -0.4340948 0.8885265
000250 2a 6e c0 3e ea 94 aa bf 4d 12 a1 bf e9 78 29 3f
       0.37584049 -1.3326695 -1.258371 0.6620012
000260 2c 34 b6 3e 4b 99 5f 3f cb fb fb be dd 4d c3 3e
       0.3558668 0.8734328 -0.4921554 0.38145342
000270 06 0f 40 3f 64 19 92 3f 48 38 93 3e f8 68 4b 3e
       0.75022924 1.1413999 0.28753877 0.19864261
000280 15 75 d3 bd 38 4b 31 3d 18 5b 2f 3d 8a 9a 8c 3f
       -0.10325066 0.043284625 0.042811483 1.0984662
000290 5a 95 cc bf 73 cf f5 3e 09 3a 98 3d d7 d9 14 bf
       -1.5983078 0.48009834 0.07432944 -0.581449
0002a0 52 ce 95 3e ee 67 2b 3e 9c bb d8 3e 09 b1 a1 bf
       0.29258972 0.16738865 0.42330635 -1.2632152
0002b0 f0 f3 a8 3e b2 34 1a bf 85 1e b3 bd da 87 0d 3d
       0.3299861 -0.60236657 -0.087460555 0.034553386
0002c0 40 05 df be 2e ca 11 3f 2a 8f fb be 71 a2 5e bf
       -0.43558693 0.56949127 -0.49132663 -0.86966616
0002d0 d4 cf 07 c0 62 26 cf 3d d9 b8 26 be 79 36 5b 3e
       -2.1220598 0.10114743 -0.16281451 0.21407498
0002e0 c5 3e cc 3f a7 7b 28 be 20 47 b9 be aa ba 91 bd
       1.5956656 -0.1645342 -0.36187077 -0.071156815
0002f0 9c 20 39 be 00 0d 48 bf 6e a1 98 bf 61 31 bb 3e
       -0.18078846 -0.78144836 -1.1924264 0.3656111
000300 17 20 4b 3d a2 c3 d3 bf fa 5b 68 bd cd f9 87 3f
       0.04959115 -1.6544077 -0.05672834 1.0623108
000310 ea a7 09 c0 16 3e aa 3f 2c d1 ef 3d ba d2 55 3e
       -2.1508737 1.3300197 0.11709818 0.20881167
000320 3e 16 52 3f bc 1e f7 bd c5 7b 77 3f d3 ad 26 bf
       0.8206519 -0.12066409 0.9667323 -0.65108985
000330 a7 c7 7a 3f b2 68 6d 3f 40 31 b7 bf 63 d3 53 3f
       0.97960895 0.9273788 -1.4311905 0.82744426
000340 31 6a ba 3f bb d0 ef 3f 6d 05 80 3e b1 9d de 3e
       1.4563657 1.8735574 0.2500414 0.43479684
000350 ff 80 3f 3f ca 22 92 3f 54 e9 80 3e 0d 73 03 3e
       0.7480621 1.1416867 0.25178015 0.12836857
000360 df 56 ea 3f 3d e1 62 3f 7a a5 8c 3d e3 6c 71 bf
       1.8307761 0.88624936 0.068675 -0.9430677
000370 43 46 30 bf 98 f6 8c bf b8 b8 36 3f af 90 71 be
       -0.6885721 -1.1012754 0.7137561 -0.23590349
000380 8e 1e 8a bf 2e b7 97 bf 42 1d 7e 3f 81 72 01 3e
       -1.0790575 -1.1852777 0.99263394 0.12641336
000390 b0 1d 28 bf 74 dd 9f 3e 9b 92 f3 3f 3b bb 3e be
       -0.656703 0.31223643 1.9029115 -0.1862611
0003a0 d5 c8 fd bd 84 bb d7 3e 85 94 01 bf 3f 05 10 bf
       -0.12391821 0.4213525 -0.5061725 -0.56258005
0003b0 da 1f 62 bf 3c 38 85 bf 48 75 1f 40 7d ac ce be
       -0.8832985 -1.0407786 2.4915333 -0.40365973
0003c0 39 73 1f c0 77 3c 49 3f 53 fc 10 be e8 72 0a 3f
       -2.4914076 0.7860789 -0.14158754 0.54081583
0003d0 85 0f d9 be 82 dd 9f bf 67 da 39 bf a4 d0 6a 3e
       -0.42394653 -1.2489474 -0.7259888 0.22931153
0003e0 cc 0c b3 3f 14 03 85 3f 27 71 66 bf 35 63 07 bd
       1.398828 1.0391564 -0.90016407 -0.033053596
0003f0 4a 1a 2f bf 00 0b 8b bf f2 10 3e 40 36 0e cc bf
       -0.6839949 -1.0862732 2.9697843 -1.5941837

encoder_lstm.weight_ih_l0 f4 [128, 128]
000000 e8 07 c4 bc f9 2b 09 3e cc 0e 13 3e c4 59 39 3d
       -0.023929551 0.1339568 0.14361113 0.045251623
000010 58 4c 6a 3d a0 95 69 be 06 67 7a 3d e4 ec 18 be
       0.057201713 -0.22810984 0.061133407 -0.14934117
000020 f3 9d 37 3e 1c 4d 52 3e 1f 16 44 be 78 00 88 3d
       0.17931347 0.20537227 -0.19149064 0.066407144
000030 b4 e1 81 3d 3d 69 21 be 63 f8 ff bd e4 5b 11 bd
       0.063418776 -0.15762801 -0.12498548 -0.035488024
000040 89 a2 0b bd 52 ee 41 3d 3d da a7 3d 37 25 b3 3d
       -0.034090552 0.04734642 0.081959225 0.087473325
000050 4f 78 af 3d 13 19 0a 3c ea 2e e0 bc 62 d5 aa bd
       0.08567869 0.00842883 -0.02736612 -0.08341481
000060 3a 8d e7 bd 06 d1 44 bd d8 c3 81 bd 25 27 4f be
       -0.11306234 -0.048050903 -0.06336182 -0.20229776
000070 81 64 f3 3d a7 a9 34 bc eb af a5 3e 12 76 35 3e
       0.11884404 -0.011026776 0.32360777 0.17720821
000080 4d 17 18 3e ae 7d da bd 9a ec 41 3d 60 25 bd 3d
       0.14852639 -0.10668503 0.04734478 0.09235644
000090 dd f7 48 be 8a 49 d8 3c 42 b4 82 be a8 e3 26 3d
       -0.19625802 0.026402254 -0.2552815 0.040744454
0000a0 18 42 33 3e 27 f0 1a 3e d3 22 26 be 44 2c cd bd
       0.17505682 0.15130673 -0.16224222 -0.100182086
0000b0 de 03 2d be 6c ff 7d bd 94 d4 16 be 8c d9 84 3d
       -0.16896006 -0.062011167 -0.1472953 0.06486806
0000c0 bf 6b 29 be c4 c1 eb 3d f7 a3 49 be da e3 57 bc
       -0.16545008 0.11511567 -0.19691454 -0.013176883
0000d0 30 07 05 be d0 36 bb 3d 78 5f 70 3e 25 2d 28 3e
       -0.12991023 0.09141314 0.23473918 0.16423471
0000e0 2e 81 a3 3c 44 ca d7 bd 4d 1c 21 3e b8 c4 3b bd
       0.019959059 -0.10536626 0.15733452 -0.045841902
0000f0 64 b7 12 be ca 68 02 be a7 70 6f 3d 5f 6a 48 3e
       -0.1432777 -0.12735286 0.058457043 0.19571827
000100 05 e5 85 3e 5d f8 36 be cf ac 36 bd 18 e9 15 bc
       0.2615129 -0.1786818 -0.044598397 -0.009149812
000110 5d 0c 2c bc 73 e1 87 bd 7c 60 ad 3c a2 f0 bf bd
       -0.0105009945 -0.06634798 0.021164171 -0.09372069
000120 4a 9d f2 bc 4d 34 48 3e 3a 36 4e be f8 73 20 3e
       -0.029616017 0.19551201 -0.20137873 0.15669239
000130 3b 96 45 3e 70 3e f7 3d 9d 27 9b bd 3e 2e 13 3e
       0.1929559 0.12072456 -0.07575915 0.14373109
000140 02 ed fd bc b3 14 da 3d b6 3a 93 bd 93 f7 c7 bd
       -0.030996803 0.10648479 -0.071889326 -0.09764018
000150 4d 19 0b be 96 03 a4 3d 01 4f 0d bc d0 09 f1 3d
       -0.1358387 0.080084965 -0.008624793 0.1176945
000160 ea c5 8b bd 45 b9 04 be 29 0d bb 3d 39 b5 a3 3d
       -0.068248585 -0.129613 0.091333695 0.0799355
000170 b8 54 7c bd ac b8 e3 bd f9 a2 09 be c4 7a 68 bd
       -0.06160423 -0.11119208 -0.13441075 -0.056757703
000180 a9 30 93 bd 0c 67 82 bc 10 6e 0f 3e 18 d4 21 be
       -0.071870156 -0.015918277 0.1400683 -0.15803564
000190 2c c2 18 be 17 20 12 be b9 f9 94 bd 4e 76 c3 bd
       -0.1491782 -0.14270054 -0.07274193 -0.09544049
0001a0 29 43 70 3d e1 1a f9 3d ba 03 02 be 45 6d 9a 3d
       0.0586578 0.1216333 -0.12696734 0.07540373
0001b0 ce c6 08 3e 16 6a 14 3b 27 e3 85 3d e9 67 e7 bd
       0.13357088 0.002264624 0.065374665 -0.11299116
0001c0 f9 6b 85 bc 3a ad 98 bd 18 29 f8 3d f2 44 2a 3e
       -0.016286837 -0.07454915 0.12117213 0.16627863
0001d0 4c 4e 87 bd b0 86 38 3d 8a 1d 14 3e 66 bc 8e 3d
       -0.06606731 0.045050323 0.14464393 0.06969528
0001e0 3c 91 db 3d 08 b9 31 3d 78 eb 44 be 10 aa 0f be
       0.10721061 0.04338935 -0.19230449 -0.14029717
0001f0 27 3c ce bd 0e ed ea 3d 67 7f 42 3e 12 17 22 3e
       -0.10070067 0.11470996 0.18993913 0.15829113
000200 bb a7 78 3e d7 63 97 3a 2d ec 4a bd 62 7f 8a bd
       0.24282734 0.001155014 -0.04954164 -0.067625776
000210 9b 76 c1 3b c6 0c 3b 3d 83 f7 f1 3d 09 21 0f 3d
       0.0059040315 0.04566648 0.11814787 0.034943614
000220 7d 18 2f 3e d9 3d 08 be 52 51 59 be 7f be e2 bd
       0.17099185 -0.13304843 -0.21222427 -0.110714905
000230 08 fc f9 bd ac ba 97 bd db 83 f0 bd a5 4a ea 3d
       -0.12206274 -0.07408652 -0.117438994 0.114400186
000240 54 38 df bd df 99 26 bd 8d 1b 65 3d 45 cf 02 3e
       -0.108994156 -0.040674087 0.055934478 0.1277438
000250 92 9e 33 bd e3 07 92 3d cb 32 eb 3a 0d de 42 3c
       -0.043852396 0.071304105 0.0017944215 0.011893761
000260 67 97 22 3d 33 37 f0 3d 2a aa 04 3e 3f 95 c5 bc
       0.03969517 0.117292784 0.12955537 -0.024119018
000270 a0 9b 6f be 13 0b 00 bb 8f 29 1e 3e d3 3a 28 be
       -0.2339921 -0.001953785 0.15445541 -0.1642869
000280 49 59 29 be af 69 13 3e a8 ff bd 3d 8d bd b0 3d
       -0.16537966 0.14395784 0.09277278 0.08629904
000290 88 1f 38 bd d3 3c 8a 3c 06 d0 30 3e 6a f5 a9 bd
       -0.044951946 0.016874706 0.17266855 -0.08298762
0002a0 17 68 4d bd 25 c5 9f bd c1 ab 3f 3e 82 55 87 bd
       -0.050148096 -0.07801274 0.18717863 -0.06608106
0002b0 45 ac df bd a8 c7 e1 3d 67 a8 82 3e ee d8 8d 3d
       -0.1092153 0.110244095 0.25519106 0.06926142
0002c0 9c 1e bf bb 51 8d c8 3c 98 62 03 be 8d ec dd bd
       -0.0058325063 0.024481447 -0.1283058 -0.10836134
0002d0 b1 dc 1f 3b 86 ba 25 bc 1a 0e 05 3d c6 80 98 3b
       0.0024393017 -0.010115271 0.03248415 0.004654023
0002e0 07 ac ae bd 32 40 19 3c 15 59 08 be 5b 67 8e 3d
       -0.08528905 0.009353684 -0.13315232 0.06953307
0002f0 6d bf b1 3d 30 d3 16 3d 72 8f c1 bc 1c f2 04 3e
       0.0867909 0.036822498 -0.02362797 0.12982982
000300 5a 58 30 3d 0b e0 15 be 6d 6a 05 be 9e f8 e1 3d
       0.04305301 -0.14636247 -0.1302888 0.11033748
000310 d2 80 4b be ec ee 07 3e 0d a4 5f 3d a7 a7 1d be
       -0.1987336 0.13274735 0.05459981 -0.15395986
000320 6a a8 35 3e 46 8c 56 3e 46 8d 34 3d 2f b2 a9 bc
       0.17740026 0.20951948 0.04408004 -0.020714847
000330 a0 86 8d 3b 44 80 3c bc 1b 60 45 3e 81 e8 8b 3d
       0.004319027 -0.01150519 0.19274943 0.06831456
000340 ff cd 17 3e ce 71 da 3a a2 b1 a0 3d 51 87 43 3d
       0.14824675 0.0016665997 0.07846381 0.04773647
000350 20 64 fd 3d bd 6c f0 bd 30 c2 28 3e 79 b0 b0 bd
       0.12372613 -0.1173949 0.16480327 -0.086274095
000360 2a 96 91 3d 9a 70 34 bb bf 7e bc 3d c5 c1 ae 3d
       0.0710872 -0.0027532936 0.092038624 0.08533052
000370 85 84 cf 3d 4e 98 93 bd 79 1d 84 3d dd a2 db 3d
       0.10132698 -0.07206784 0.06450934 0.10724423
000380 27 3d c5 3d 71 44 f8 bd 67 f2 7f bd f5 27 57 3d
       0.096308045 -0.12122429 -0.062487032 0.05252834
000390 21 9d 17 bb 70 a4 b6 3d 9d b2 2f 3e 61 95 c3 bc
       -0.0023134428 0.08918083 0.1715798 -0.02387494
0003a0 ee 88 cf bc 6b 43 79 bd 95 c9 e9 bd e7 55 1f 3e
       -0.025333848 -0.06085531 -0.11415402 0.15560113
0003b0 56 58 89 bd 47 d1 e2 3d a7 4f a4 3d 7a 0f 0a be
       -0.06706302 0.11075073 0.08023005 -0.13482466
0003c0 41 c5 0a 3e 29 53 9d 3c 66 7a 31 3d bd d8 c0 3c
       0.13551809 0.019204693 0.04332962 0.023540849
0003d0 66 46 66 3d b4 c3 eb bd 7e fa 97 bd 8f 1e 2f 3e
       0.05621948 -0.11511937 -0.074208245 0.17101501
0003e0 56 19 20 3e 6e 65 ed bd 7e 8e 7a 3d 9c b9 38 be
       0.15634665 -0.11591612 0.061171047 -0.18039554
0003f0 81 19 03 be 11 24 31 be d1 7d df bd 5b 2f 28 be
       -0.12802698 -0.17298914 -0.109126695 -0.16424315

encoder_lstm.weight_hh_l0 f4 [128, 32]
000000 74 d8 70 3d 31 6f dc bd 73 09 96 3d 88 6a 7a 3e
       0.058800176 -0.107633956 0.07326021 0.24454701
000010 fb 85 e0 3b c6 6e c2 3d dd d3 bd bc 9f 16 ef bb
       0.006851909 0.094937846 -0.023172313 -0.007296398
000020 e9 89 15 3e 87 f5 3c bd 6c 9f 28 be 80 c0 42 be
       0.1460339 -0.04613259 -0.16467065 -0.19018745
000030 aa 22 b4 bd a6 71 b6 3d f1 af 78 3d 67 dc 96 3e
       -0.08795674 0.089083955 0.060714666 0.2946503
000040 26 58 5e bd 21 04 85 3e dd 4e e0 bd 6c 6e b4 3d
       -0.054283284 0.25979713 -0.10952542 0.08810124
000050 16 71 0b 3e 22 7d c4 3c f9 68 79 3c 27 a3 8f 3d
       0.13617358 0.02398545 0.015222781 0.07013541
000060 6e d4 8d bc f5 9a 86 3e fb 33 1b bd a8 37 d9 bb
       -0.017313208 0.26290098 -0.03789137 -0.006628949
000070 28 a3 16 3e be 2f 1e bd 09 32 16 bc c8 fe 8b bd
       0.14710677 -0.03861975 -0.009167203 -0.06835705
000080 6d d6 b5 bd b6 46 3f 3e 11 7c 1a 3e 4a 80 a1 3d
       -0.08878789 0.18679318 0.1508639 0.07885797
000090 06 92 f0 3c d4 a7 7e be 84 dc f0 3d 2d 2f 40 be
       0.029366504 -0.24868709 0.1176081 -0.18767996
0000a0 05 b7 7a be c0 47 de bb 48 25 ed 3c 78 b5 88 bd
       -0.24483879 -0.0067834556 0.028948441 -0.066752374
0000b0 e3 70 93 3d aa c2 9f bd ba 99 6a bd 36 6a 11 be
       0.07199266 -0.07800801 -0.05727551 -0.14200673
0000c0 b5 04 db 3d df 37 7a 3d 4a 06 2e be 16 2b d5 bd
       0.10694257 0.06108844 -0.16994587 -0.104086086
0000d0 15 a9 d2 3c 6f 02 a7 bd c3 0d 43 be 53 4d 87 bd
       0.02571539 -0.08154761 -0.19048218 -0.06606545
0000e0 7d 0a 95 3d 11 0a cb 3c 5f a9 1b be 4f e4 91 3e
       0.07277391 0.024785073 -0.15201329 0.28494498
0000f0 ab ad 1b 3d 2e 1f 81 3d 45 6b 4d bd ee 7a b4 3d
       0.03800742 0.06304775 -0.05015113 0.088125095
000100 4f ba 72 3e 43 1d 1e be be 7e a2 3d db c4 0c b9
       0.23703884 -0.1544085 0.079343304 -0.00013424775
000110 0d bd d9 bd d8 80 39 be 8e 2f 73 bd ef e8 0f 3c
       -0.10631762 -0.18115556 -0.059371524 0.008783563
000120 56 2b 61 be ab 5f a8 3d 4c 06 55 3e 33 c5 09 bd
       -0.21989188 0.08221372 0.20803183 -0.03363533
000130 1e 5d 02 bd 9e 4a 0f be 23 2b 63 bd 0a 4a 8f bd
       -0.031827085 -0.13993308 -0.05546106 -0.06996544
000140 be 18 a1 3e 2e 94 73 be 64 43 2c bd 94 c4 3e bd
       0.3146419 -0.23786995 -0.042056456 -0.04657419
000150 58 e2 e4 3d 08 a8 df 3d b2 57 01 3d 57 7c bb bd
       0.11175984 0.10920721 0.031577773 -0.09154575
000160 c4 de c8 3d 25 84 5e bc 2d 39 2a bd 06 e5 05 3e
       0.09808114 -0.01358131 -0.041558433 0.13075647
000170 7c 3f ca bc 8a 42 42 3e d6 ee 16 3e 26 ef 11 3e
       -0.024688475 0.18970695 0.14739546 0.14251384
000180 4d 31 5e 3d 4d 5f bf 3d ff d2 a1 3e a9 ee d9 bd
       0.054246236 0.09344349 0.3160629 -0.10641224
000190 b0 5d 88 3d 98 22 62 be 48 f4 4e 3e 9a 1e ac be
       0.066584945 -0.22083509 0.20210373 -0.33617097
0001a0 17 92 07 3c e2 e8 a3 3d e9 d0 54 3d f3 94 00 be
       0.008274577 0.08003403 0.051957045 -0.1255682
0001b0 76 8b 50 be 1f 6a 17 be e6 9e fe 3d 51 bc 4e bd
       -0.203657 -0.14786576 0.12432651 -0.05047256
0001c0 01 ed 10 be e9 cf 60 3e 6b 33 be bd c2 15 b2 ba
       -0.1415291 0.21954311 -0.09287151 -0.0013586807
0001d0 65 89 6a 3e 24 fd 23 be 27 48 39 be e2 f9 a8 3d
       0.22903974 -0.16014534 -0.1809393 0.08250786
0001e0 be c6 90 3e 72 00 09 be 96 f6 82 be b6 3a 96 3e
       0.28276628 -0.13379076 -0.25578755 0.29341668
0001f0 3d 5e d1 3c 73 cb 77 bd 49 fd de 3d 47 20 4f 3e
       0.025557632 -0.06049676 0.10888154 0.20227157
000200 bd 4e 58 3e 72 e9 a9 3e ac e9 46 3e a6 4c 8f 3d
       0.21123786 0.33185917 0.19425076 0.069970414
000210 2e 05 fa 3d 6c 0e fb bd 1b 03 5f 3e de 43 9b 3c
       0.12208019 -0.1225861 0.21778528 0.01895326
000220 2d 5d aa 3d 03 0b 11 bd db 4a e5 3d a0 7e 34 3d
       0.08318553 -0.035410892 0.11195918 0.04406607
000230 fd 67 68 bc f6 07 b9 3d b6 b4 65 bd 48 30 cb 3b
       -0.014184949 0.090347216 -0.056080543 0.006200824
000240 6d a3 b5 3a 04 ba 02 3e ec ff 96 3d ee bd d5 bd
       0.0013857909 0.12766272 0.07373032 -0.10436617
000250 5e a7 09 3e d5 3e e2 bd 9c d3 01 be 8a ac 52 be
       0.13442752 -0.110471405 -0.12678379 -0.20573631
000260 ee be 97 be 22 9b 09 be d9 5a 98 be 1e 70 5a 3d
       -0.29637855 -0.13438085 -0.2975681 0.05332958
000270 e9 47 fc 3d 60 2b a5 3d 37 79 0d 3e 3f 84 90 3e
       0.12318403 0.08064914 0.13815771 0.28225896
000280 60 bc 5b 3e 68 8c 00 3e df f9 f9 3d 28 67 07 be
       0.21458578 0.1255356 0.12205862 -0.13222945
000290 37 69 d4 3d cb ed 0b bc 22 7d 00 be 7d cb 42 be
       0.10371631 -0.008540581 -0.12547734 -0.19022937
0002a0 34 9a 14 bd 76 4a e7 3d 47 11 52 3d af ae 2e 3d
       -0.036279872 0.11293499 0.05128601 0.04264706
0002b0 f4 66 35 be aa 85 6c bd 84 38 b1 3d c1 0e 5c 3c
       -0.17715055 -0.05774466 0.086533576 0.013431252
0002c0 1c b4 8a 3e a4 1e a0 3d b2 b2 c2 bd 71 db 0f be
       0.27090538 0.07818344 -0.0950674 -0.14048554
0002d0 7a 84 ab bd d7 ac 22 3d bb 51 eb bc c9 ef 9c bd
       -0.08374877 0.039715614 -0.028725496 -0.07662923
0002e0 bc 4c 21 3e d8 bb b7 bd 01 a1 da bc ea cb 4e 3e
       0.15751928 -0.08971375 -0.0266881 0.20194975
0002f0 50 9c 56 3e 0b 92 1e 3d f9 8d d5 3d 55 40 25 3e
       0.20958066 0.038713496 0.1042747 0.16137822
000300 82 f0 22 3e 6d 41 b5 bd 4c 5d d6 3c b7 73 08 3e
       0.15912059 -0.088503696 0.026167534 0.13325392
000310 f0 b7 ca bd 34 89 40 bd e6 91 3f 3e 1b 22 07 be
       -0.098983645 -0.047005847 0.18708 -0.13196604
000320 4a c8 e0 bd ce cd 07 3e 8e fa 94 3b d7 f1 0c 3e
       -0.10975702 0.13262102 0.00454647 0.1376413
000330 6f 17 de bd f3 e3 8d be 0b c2 cc 3c d6 9a 29 3c
       -0.10844313 -0.27712974 0.02499487 0.010351857
000340 ca d1 f9 bc fb 98 6f bc cf bd 41 bd 8b 79 97 3d
       -0.030495543 -0.014623876 -0.047300156 0.07396229
000350 84 52 8b 3c 3a 61 86 be 82 1c dd bc e4 a3 40 bd
       0.01700712 -0.26246053 -0.026991133 -0.0470313
000360 b7 4d 36 3e dd 0f 83 3d c2 09 64 be f6 c0 fe 3d
       0.17803083 0.0639951 -0.22269347 0.12439148
000370 4f ef 02 3d 0f 7a 5f bd cb 11 7d bc 9c c3 a6 3d
       0.031966504 -0.054559764 -0.015446137 0.08142778
000380 c3 52 42 3e 50 db 56 3d a9 20 b6 bd 38 7b 40 3e
       0.18976884 0.052455246 -0.08892948 0.18797004
000390 51 2c 6c 3e fb dc 11 3e 2e cb 98 bd bb 95 c7 3d
       0.2306378 0.14244454 -0.074606284 0.09745356
0003a0 75 10 27 3a 94 58 07 be a7 5a 89 bd e6 91 10 3e
       0.0006372997 -0.13217384 -0.06706744 0.14118156
0003b0 1e 45 08 bd 2b 68 07 3d 5a 5d 86 3e 7b 0c c6 bd
       -0.03326904 0.033058327 0.26243097 -0.09670349
0003c0 0b 82 96 be d3 b4 46 3e 61 85 11 be 36 fb e5 3c
       -0.2939609 0.19404916 -0.14211036 0.028073888
0003d0 7f 2f f3 bd ce 2e a7 bd 66 b4 95 bd bb 27 9b 3d
       -0.118742935 -0.08163224 -0.07309799 0.07575937
0003e0 1b 75 d0 3c 89 21 1c be 34 d4 bd 3c cb ca c5 3d
       0.025446465 -0.15247168 0.023172475 0.0965782
0003f0 11 96 59 3c 8b ac 24 3d e5 f5 60 be 4d c2 4d 3e
       0.0132804075 0.040203612 -0.21968801 0.20093651

encoder_lstm.bias_ih_l0 f4 [128]
000000 56 dc bd 3d f0 0e a5 3d 50 cd 51 3e cb 5c 7c 3e
       0.09270541 0.0805949 0.20488477 0.24644773
000010 62 ef 01 3e 0c ae f0 3c 89 30 05 3e 2c 0a 50 3e
       0.12688974 0.029379867 0.13006796 0.2031638
000020 f3 0c dd 3d cc a0 fd 3d ac 81 a0 3e b3 7b 52 3e
       0.107934855 0.12384185 0.31348932 0.20555
000030 7c d4 a5 3c 24 cc 37 3e 94 ce 47 3e ca bf 61 3b
       0.020242922 0.17948967 0.19512397 0.003444659
000040 81 72 5e 3e 7c a6 a6 3c ee af 92 3e f1 89 80 3e
       0.21723367 0.020343058 0.2864985 0.2510524
000050 a1 56 5c bd 3e ba 8f 3e 50 cd 34 3e ad 35 ae bd
       -0.053793553 0.2807178 0.17656446 -0.085063316
000060 53 e0 23 3e 5d c0 40 3e 33 7f af 3d d7 98 a2 3d
       0.16003542 0.18823381 0.08569183 0.07939308
000070 f5 35 3c bd 83 fb f8 3a 04 21 9d bd ba 1b 3f 3e
       -0.045949895 0.0018995855 -0.07672313 0.1866292
000080 38 b6 c7 3d d3 d7 65 3e 80 fc 07 3e bd 15 1a 3e
       0.09751552 0.22445612 0.13279915 0.15047355
000090 76 9c ee bd d8 4b 4e ba e0 c7 12 3e 66 2a d9 b9
       -0.11650936 -0.0007869578 0.14334059 -0.00041421055
0000a0 c7 52 27 3e d0 ed ce bc d2 1d ee bb ce bf 78 3e
       0.16340171 -0.025259882 -0.0072667385 0.24291918
0000b0 c8 73 17 bd 7e 1e e8 3d 14 59 12 3e c2 5b 71 bd
       -0.036975652 0.11333941 0.14291793 -0.058925398
0000c0 7b c2 24 3e 28 76 ab 3d 4d 30 22 bd ef 78 ab 3d
       0.16089813 0.08372146 -0.039596844 0.083726756
0000d0 33 bd 68 3d 94 ce 64 bd 94 2a fb bc 2a 30 2c 3d
       0.05682106 -0.05586107 -0.030659951 0.04203812
0000e0 15 c3 45 bd c3 c4 8e 3d d5 a8 15 3e e3 58 72 3d
       -0.048281748 0.06971123 0.14615186 0.0591668
0000f0 b4 be ad 3d fc 89 eb bd 4f 22 b4 3c ae d3 2f 3e
       0.08483639 -0.11500928 0.021989016 0.17170593
000100 d6 d1 4e 3e 17 8f 16 3e cb 9e be 3d f2 2d 72 3d
       0.20197234 0.14703022 0.09307631 0.059125848
000110 46 d7 a2 3d e9 df 3e be fe d9 6f bd 2d 2a 17 be
       0.079512164 -0.18640102 -0.058557503 -0.14762183
000120 25 f0 dd bd f7 93 10 be 26 30 82 3d cd a8 00 be
       -0.108368196 -0.14118944 0.0635684 -0.12564392
000130 07 b2 10 3e be 7e 16 be 6c cc b3 3d a1 f9 53 bb
       0.14130412 -0.14696786 0.08779225 -0.0032344835
000140 d1 3a c1 3d 5f 4f 18 be 87 7b b7 3d 6f 6a 30 be
       0.094350465 -0.14874028 0.08959108 -0.17228101
000150 d9 fd f9 3c 28 74 20 be 75 b1 67 3d 32 58 0b be
       0.030516552 -0.1566931 0.05656572 -0.13607863
000160 86 1e c1 b8 05 12 00 be ee e0 94 bd 7f 47 24 3e
       -9.2086426e-05 -0.12506874 -0.072694644 0.16042899
000170 e3 ed d2 37 c4 b7 c9 bd c7 b4 6d 3d fc a0 f9 3d
       2.5144725e-05 -0.09849504 0.05803373 0.121889085
000180 a6 32 0f 3e 63 4e a2 3d c9 a2 84 3e 5d 11 22 3d
       0.13984165 0.07925107 0.25905445 0.03956734
000190 dc a6 7b 3c e6 0e c5 bd f2 a7 ac bd bb 55 89 3c
       0.015359607 -0.09621982 -0.084304705 0.016764512
0001a0 ff 44 f2 bb 28 f3 8d bd 8a b2 ac 3c b1 22 4b 3d
       -0.007393479 -0.06931144 0.021081228 0.04959363
0001b0 3b 01 e2 bc 81 fa 12 3d 89 9d 52 3d de 30 df 3d
       -0.027588477 0.03588343 0.05141977 0.108979926
0001c0 e9 64 97 3e 37 60 55 3e 14 6d 3a 3e 54 81 68 3d
       0.29569176 0.20837484 0.18205673 0.056763962
0001d0 41 90 0c bc af 90 ac 3d 58 53 5f 3d 4e 74 7b 3d
       -0.008579315 0.08426034 0.054522842 0.061390214
0001e0 0f 06 a1 3e 1e 01 c2 3d 90 34 99 3d 0b 24 56 3e
       0.31449935 0.09472869 0.074807286 0.20912187
0001f0 72 65 40 3e c8 30 0f 3e 0f 0e 50 3e b8 b6 a2 3d
       0.18788698 0.13983452 0.20317863 0.07945007

encoder_lstm.bias_hh_l0 f4 [128]
000000 0f 2a bb 3c 7c ae 35 bc 60 ed 39 3e a8 10 cc 3d
       0.022847204 -0.011088964 0.18156958 0.099641144
000010 1a 5f 26 3e cb 70 4d 3e a7 21 0f 3e e4 fe c3 bc
       0.16247216 0.20062558 0.13977681 -0.023925252
000020 6c 2d 83 3e 61 0a 5a 3e 9c 5a ae bb 58 95 6a 3e
       0.25620592 0.21293022 -0.00532086 0.22908533
000030 25 26 b1 3c 55 61 62 3d cc cc 0e be 2e 4f 56 3d
       0.021624634 0.055268604 -0.13945311 0.052321605
000040 cf ea 52 bd 4b 09 1d 3e 52 39 8c 3c 4d c1 80 3d
       -0.051493462 0.15335576 0.017117176 0.06286869
000050 a2 1d fb bd d5 e4 b3 3d de 37 60 3e 51 26 56 3d
       -0.122615114 0.087838806 0.21896312 0.052282635
000060 54 37 8e 3e f7 7b 81 3e 9d 48 0f be 56 70 a0 bd
       0.27776587 0.2528989 -0.13992544 -0.078339264
000070 ae c2 e1 3d c5 07 68 bd 35 ab 80 bc e0 88 80 bd
       0.1102346 -0.056648035 -0.015706638 -0.06276107
000080 72 9a fb 3b 7e 33 90 bd 32 ba 79 bd df 72 b8 bd
       0.0076783234 -0.07041071 -0.060968585 -0.09006285
000090 9c 0e 18 bd b6 b2 41 3e ae 81 47 3d 7b ca ba 3c
       -0.037123308 0.18915829 0.048707657 0.022801628
0000a0 9e 62 8c 3d 74 d7 97 bc 5a 93 9e 3d 82 10 7c 3e
       0.06854747 -0.018535353 0.07742949 0.24615672
0000b0 5f e8 9f 3d 6e 87 0f bc 1b 93 58 3e 90 b3 42 3e
       0.07807993 -0.008760316 0.21149866 0.1901381
0000c0 90 24 a6 3d 42 1f 0b be 8e 87 9b 3d 0f bf ad bd
       0.081124425 -0.13586143 0.075942144 -0.08483707
0000d0 37 86 4e 3e 7c fe 44 3e dc 7f 3b 3e 43 f3 d3 3d
       0.20168386 0.19237703 0.18310493 0.10349133
0000e0 39 26 78 bd f5 7b b1 bd 85 4d 13 3e 7e 6f b3 bd
       -0.060583327 -0.08666221 0.1438504 -0.087615
0000f0 92 fd 87 3c f2 e9 c8 bd 5f a0 e3 bd e6 cf 92 3d
       0.016600404 -0.098102465 -0.11114573 0.0716856
000100 56 bc e2 bd 76 90 19 3e e7 68 28 3e 13 43 cf bd
       -0.110710785 0.14996514 0.16446267 -0.10120215
000110 c9 25 2c 3e cb c3 c2 3d 95 14 e9 3d 2f 95 86 bd
       0.16811289 0.09510001 0.11380879 -0.06571423
000120 0a c5 9a 3d 20 01 c0 bd 83 9c 87 bd 61 23 bd bd
       0.075571135 -0.093752146 -0.06621649 -0.092352636
000130 83 b4 3c be e7 73 02 bd d3 63 9b bd 2c 4d d3 3d
       -0.18428235 -0.031848814 -0.07587399 0.10317454
000140 98 c8 f1 3d 62 a7 4c bd 45 23 c0 bd ef af 2f be
       0.11805838 -0.049964316 -0.09381727 -0.17156957
000150 ea aa 40 bd d1 f0 1c be 18 f9 54 3d ab ac af bc
       -0.047037996 -0.15326239 0.051995367 -0.02144464
000160 2e 21 05 be 7d 39 32 3e 6e e3 ac 3b d5 06 a1 3d
       -0.13000938 0.17404743 0.005276135 0.07862631
000170 2c 6d 3e bd ad 5e 4b 3d 63 eb 8d bd d2 de 16 3e
       -0.046490833 0.049650837 -0.06929662 0.14733437
000180 31 db 11 3e 24 72 5d bd 3d 25 73 bd 8d 17 82 bd
       0.14243771 -0.05406393 -0.059361685 -0.06352148
000190 a5 87 7d bd 1f 25 70 3e 95 f3 c4 3d 5b af eb 3d
       -0.06189694 0.2345166 0.09616772 0.11508056
0001a0 7b 07 0d 3e c8 22 2e 3e 67 44 c7 3d 2a 34 80 3d
       0.13772385 0.17005455 0.097298436 0.062599495
0001b0 52 bd d9 bb 7a 8b fd 3c 4a 5d fe 3d 0c 78 1b 3e
       -0.006644883 0.030950297 0.12420137 0.15182513
0001c0 c2 85 2e 3d 61 62 db 3d 9e 61 bb bb 93 24 2a bd
       0.04260803 0.10712124 -0.005718424 -0.041538786
0001d0 e0 24 31 bd 32 86 8f 3d 84 c7 b3 3d f8 ff 43 3e
       -0.043248057 0.070080176 0.08778289 0.19140613
0001e0 65 12 20 3e 88 2a f1 bc 11 f1 cf bd 1e 75 e1 bd
       0.15632017 -0.029439226 -0.10153402 -0.110086665
0001f0 b3 a6 8d 3d f1 9a e6 bd e7 a0 af 3c 5d a4 1c bd
       0.06916561 -0.112600215 0.021439029 -0.038242687

decoder_lstm.weight_ih_l0 f4 [64, 32]
000000 05 a2 97 3c 48 60 05 3e 6e 46 70 3e 0d 43 60 3e
       0.018509874 0.1302501 0.23464367 0.21900578
000010 1f 85 f7 bc 79 9b 65 be c1 bd f7 3d a7 2d d0 bd
       -0.030214844 -0.2242259 0.120967396 -0.101649575
000020 fc 69 94 be 16 6c 86 bd f4 20 7a 3c ae d9 50 be
       -0.2898711 -0.065635845 0.015266646 -0.20395538
000030 d2 86 54 be e0 d3 0b be be 75 72 3e 12 0d 2f 3e
       -0.20754555 -0.13655043 0.23677728 0.1709483
000040 82 6c 8a be d5 1a 13 be 08 cc ae bd 39 82 2c 3e
       -0.2703591 -0.14365704 -0.085350096 0.16846551
000050 eb 89 cf 3d 60 eb 97 3e 06 40 3e be 91 04 23 bd
       0.10133728 0.29671764 -0.1857911 -0.039799277
000060 df c8 19 3d 63 b4 69 3e 78 cc 66 3c 0f 57 26 3d
       0.03754508 0.22822718 0.014086835 0.04061037
000070 c8 be e8 3c 2f 4b 23 3e 6f c7 55 3e 62 c4 a1 3e
       0.028411284 0.15946649 0.20876859 0.3159514
000080 a9 e3 81 3e f1 3b 41 3d e3 9d f1 3c 1d 09 11 bd
       0.25369003 0.047176305 0.029494232 -0.03540908
000090 9e ec c0 bd 70 85 b0 3d 29 eb 3a 3e 8c 71 98 be
       -0.09420131 0.08619201 0.18253769 -0.2977413
0000a0 fa 4f bd bd e0 b8 93 3d 74 35 c8 3d e2 b7 37 3e
       -0.0924377 0.072129965 0.097758204 0.1794124
0000b0 92 8c b3 bd 17 dc 1d 3e 12 be 32 be 38 db 29 be
       -0.08767046 0.15415989 -0.17455319 -0.16587532
0000c0 df 3b 0f 3d c4 bc 9b 3e 16 81 45 3e 6a 0a 5b bd
       0.034969207 0.30417454 0.19287524 -0.05347673
0000d0 39 ff 92 3e f8 ec 2e 3e df 4b 02 3d 76 b4 13 3d
       0.28710344 0.17082584 0.031810638 0.036060773
0000e0 3e 38 94 3d 98 4a be 3d 8a 42 8c 3d f0 8f 0a 3e
       0.0723729 0.092915714 0.06848629 0.1353147
0000f0 9b 74 6c 3e a6 8b ef 3d 60 91 05 be 38 ba 5d 3d
       0.23091356 0.11696558 -0.13043737 0.05413267
000100 eb e0 39 be 24 d8 d4 bd 77 45 9a 3e 2f 0d e0 3e
       -0.18152206 -0.10392788 0.30131122 0.43760058
000110 6b 33 f0 bd 24 b3 be be 66 2f c2 3e df ac 55 be
       -0.11728557 -0.37246048 0.37926787 -0.20866726
000120 9a be 58 be 49 f5 93 3e c0 ca 63 bd cc 89 40 3e
       -0.21166459 0.28898075 -0.05561328 0.18802565
000130 11 ef 97 be 0e a0 28 be 2d 86 94 3e c9 f8 81 3e
       -0.2967458 -0.16467306 0.29008618 0.2538512
000140 6f 1b 80 be e7 37 a2 3e 47 8c c1 3d 1e 14 47 3e
       -0.2502093 0.31683275 0.09450584 0.19441268
000150 25 56 0a 3f 69 2f 74 3d 63 03 ee be 7f 10 eb be
       0.54037696 0.059615526 -0.4648696 -0.45911023
000160 36 ec b1 3d 64 28 57 bd 1c a9 d9 be 37 f9 9a 3c
       0.08687632 -0.052528754 -0.42511833 0.018917663
000170 4d b7 f6 3e e5 a9 9f 3e de 36 c2 3d 88 f0 93 3e
       0.48186722 0.31184307 0.09483121 0.28894448
000180 34 ba 41 3d a8 12 3b bd 0b cf e5 3e d8 76 9f bc
       0.047296718 -0.04567209 0.44884524 -0.019465849
000190 77 01 bb 3e 50 a7 f9 bc 73 42 c1 3d cd 11 92 be
       0.36524555 -0.030475289 0.09436502 -0.28529206
0001a0 f6 b1 a6 be 71 16 45 be ad a3 c8 3e 8f 2c 18 be
       -0.32557648 -0.19246842 0.39187375 -0.14860748
0001b0 23 84 d9 3c 2c 4c ac be 6f 35 51 bd 07 dc ac bc
       0.026552266 -0.33651865 -0.05107635 -0.021101011
0001c0 83 1f 07 3e bf 31 b7 3e f8 42 de be 9c f9 91 be
       0.13195615 0.3578014 -0.43410468 -0.2851075
0001d0 93 08 a0 3e b0 2f 53 3e f8 9b 7c be dc 7f 0f 3e
       0.31256542 0.2062366 -0.24668872 0.14013618
0001e0 18 ac a9 3e 27 9e 23 be 26 bd c0 be 7d f6 01 bc
       0.3313911 -0.15978299 -0.3764431 -0.007932303
0001f0 bd 91 1d 3e 0a 94 d9 3e 33 74 3f bd 91 f5 7f 3e
       0.15387626 0.42495757 -0.046741676 0.2499602
000200 19 89 45 3e a8 71 46 3e 7f cf b0 bd 2b f2 1f be
       0.1929058 0.19379294 -0.08633327 -0.15619723
000210 35 21 17 3e 43 d2 29 3d 96 d7 f5 3c 8a 06 ec 3c
       0.14758761 0.041460287 0.030010026 0.028811712
000220 17 62 90 be d1 54 02 3e 8b 4c 96 3d bb f1 0c 3e
       -0.28199837 0.12727667 0.07338818 0.13764088
000230 91 d6 66 be 9f c0 e6 bd fb ee f2 bd 77 43 6c 3e
       -0.22542788 -0.11267208 -0.11861988 0.23072611
000240 27 56 00 3d fb 13 6e 3e 20 d0 8c be ca 15 95 be
       0.03133216 0.2324981 -0.27502537 -0.29118186
000250 62 9c 33 bd 08 e7 60 be 90 dc c7 bb 7f 6b 0d 3e
       -0.04385031 -0.21963131 -0.006099291 0.13810538
000260 c8 18 a0 bd 77 66 c3 3d 95 1e 10 be 16 4d 97 3d
       -0.07817227 0.09541028 -0.14074166 0.0738775
000270 a6 08 88 3e ad 23 2d be e2 87 96 3d b1 01 19 3e
       0.26569098 -0.1690814 0.07350136 0.14942051
000280 5a 6c 89 3e 78 55 e0 3e f3 d0 02 3f 65 ed 9c 3d
       0.26840478 0.43815207 0.5110008 0.07662467
000290 59 df 95 3e 11 45 57 be 01 e7 f4 3d 06 b6 ec be
       0.29271963 -0.2102244 0.11958123 -0.46232623
0002a0 06 1c 34 bd 24 86 0d bd 58 47 f1 bc ed fb 1c bb
       -0.043972038 -0.034551755 -0.029452965 -0.002395387
0002b0 17 9f 8c be 19 74 9f be 4f 0b f2 3d 7a 37 de 3e
       -0.27465126 -0.31143263 0.11818563 0.434017
0002c0 0b 72 cf 3e b5 05 dd 3e 39 e3 39 3e 51 72 0d be
       0.40516695 0.43168417 0.18153085 -0.1381314
0002d0 60 56 5f 3e 95 fd 61 be 88 16 d3 3d f1 80 a6 3e
       0.21810293 -0.2206939 0.10307032 0.3252025
0002e0 7e 42 d3 3e 56 d7 fa 3c a3 ba 97 3c 4f e3 6a 3e
       0.41261667 0.030620258 0.018521613 0.22938274
0002f0 07 2a 0c 3e eb d5 29 bc 7e b3 63 bd 2e 9b df bd
       0.13687907 -0.010365943 -0.0555911 -0.1091827
000300 d6 22 03 be b5 39 29 3e 3c 8b 1a 3e 99 f6 04 3e
       -0.12806258 0.1652592 0.15092176 0.12984695
000310 76 b1 13 3d 2d cd e8 3d e1 0a fb 3d 54 ab 88 3d
       0.03605791 0.11367259 0.12257934 0.06673303
000320 8e 60 02 be b6 eb ce 3d bb dd 8d be f6 a0 58 be
       -0.12732145 0.10103552 -0.2770823 -0.21155152
000330 f4 bd 04 3e b8 ff 7e be e3 62 3a 3e 30 5a 34 be
       0.12963086 -0.24902236 0.18201785 -0.17612529
000340 21 21 c7 bd f3 6e 52 3e 50 23 9d be fb 92 17 be
       -0.09723116 0.20550136 -0.30691004 -0.14802162
000350 61 ff 92 3d f8 21 06 3c 2f 15 bf 3d a6 bb 28 bb
       0.07177616 0.00818681 0.09330212 -0.0025746613
000360 3e 08 02 be 96 ab 1b 3e 4c dd b2 3d ea 76 3b 3d
       -0.12698457 0.15202174 0.08733615 0.045767702
000370 19 be 30 3e 03 51 54 3e f9 5b 42 3e dd da 5d 3e
       0.17260017 0.20734029 0.18980397 0.21665521
000380 a0 59 c9 bc 46 73 9f 3e 3b 19 0c 3e c8 02 1f 3e
       -0.02457887 0.31142634 0.136815 0.15528405
000390 ee af 14 3f 96 91 01 bf 83 61 35 3e 08 f6 0a 3c
       0.5808095 -0.5061277 0.17712979 0.00848151
0003a0 80 c8 44 3d 92 02 77 3d ff 7c b0 be 65 82 87 be
       0.048042774 0.060305186 -0.34470364 -0.2646667
0003b0 95 9f c6 bd da 8a 6a bd cb ba de 3e 14 a3 9b 3e
       -0.096984066 -0.057261325 0.43501887 0.30397856
0003c0 25 2c 9d bd 1a b9 1e 3e 5a 30 8c bc ed 22 82 3e
       -0.076744355 0.15500298 -0.0171129 0.2541727
0003d0 1e f5 d4 3e 8d 2c 89 be 12 b7 d1 be 04 79 24 3d
       0.4159326 -0.26791802 -0.40959984 0.040154472
0003e0 ab c9 cd 3e f6 d2 82 3e a4 90 8e bd c9 f5 0b 3e
       0.40192923 0.25551575 -0.06961182 0.13667978
0003f0 d8 c7 d5 3e 31 88 03 3e a1 48 b0 be 76 14 31 3d
       0.4175403 0.12844922 -0.3443041 0.043232404

decoder_lstm.weight_hh_l0 f4 [64, 16]
000000 01 03 fb bd 1b 54 63 3e 46 4d b5 3d 05 b8 a9 3e
       -0.12256432 0.22200052 0.08852629 0.33148208
000010 d8 b5 d5 be 37 59 ef 3c 37 89 94 3d 55 2b 9d bd
       -0.41740298 0.029217346 0.07252734 -0.076742806
000020 c8 6e f4 bd 7a bc 6b 3e 8f 9b 70 3e 65 1d b4 bd
       -0.11935192 0.23021117 0.23496841 -0.08794669
000030 58 53 a0 be 6f 24 8c 3d ed 07 6e 3e cb 05 89 be
       -0.31313586 0.06842887 0.23245211 -0.26762232
000040 38 e3 e9 3c 81 34 94 3e 42 a2 92 3e 8e 71 78 bd
       0.02855073 0.28946307 0.28639418 -0.06065517
000050 f6 9d 30 be 50 0f 0b 3e 02 a0 33 3d 8f c3 4a be
       -0.17247757 0.1358006 0.043853767 -0.19801162
000060 e2 66 58 be d6 05 1d be 87 c7 0c bd f4 64 82 3e
       -0.21132997 -0.15334257 -0.03436997 0.25467646
000070 5c 90 8f be 7c 97 9b be 90 5f 5b 3e e3 ab 5d be
       -0.28039825 -0.3038901 0.21423173 -0.21647601
000080 32 41 17 be 08 79 9d 3e 99 19 d1 bb 8c 65 5a 3d
       -0.14770964 0.30756402 -0.0063812253 0.0533195
000090 df 34 2c 3d 11 90 3a be 00 c8 af be 25 fc ed bd
       0.04204261 -0.1821902 -0.34332275 -0.116203584
0000a0 1d d2 ce bd be 34 43 3e 30 0f c7 bd 18 bd e0 bc
       -0.1009867 0.19063088 -0.09719694 -0.027433917
0000b0 0c 58 5a be fe ad 5e 3e 2f 88 a1 be 67 93 56 bc
       -0.2132265 0.2174606 -0.31549212 -0.013096667
0000c0 e8 df 5f be b4 19 5d 3e bd ce 82 3e 21 1c f9 bd
       -0.21862757 0.21591836 0.25548354 -0.12163568
0000d0 81 4c c5 bd e5 93 2a be ee eb 21 bd e9 e5 85 3d
       -0.096337326 -0.1665798 -0.03953164 0.065379925
0000e0 5b 69 ae bd f2 70 d6 3c d1 ef 48 be 26 c0 bc 3e
       -0.08516189 0.026176903 -0.19622733 0.36865348
0000f0 ad 08 65 be 10 5b 33 bd 78 73 26 3e 47 1a ae be
       -0.22366591 -0.043788016 0.16254985 -0.34004423
000100 ee 6d 16 be 49 fb bd bd 13 8d dc 3d c5 d6 8d 3e
       -0.14690372 -0.092764445 0.10769095 0.2770292
000110 94 88 33 bd aa b3 d5 3d 59 4b df 3d 90 a1 95 be
       -0.043831423 0.10434659 0.10903043 -0.29224825
000120 00 b6 b8 3d 5c 6b 62 3e 14 68 51 bd fa c1 58 bd
       0.09019089 0.22111267 -0.051124647 -0.052919365
000130 16 f1 00 be 46 67 4f bd 76 46 dd 3a 1f b1 9f be
       -0.12591967 -0.0506356 0.0016881961 -0.3118982
000140 41 d6 04 3e 40 c6 a0 3e ec 68 1d bc 00 58 2f be
       0.12972356 0.31401253 -0.009607535 -0.17123413
000150 61 07 9a be 43 22 f3 bc eb df 04 be eb f6 18 be
       -0.30083755 -0.029679423 -0.12976043 -0.14937942
000160 47 c3 16 3d 34 b7 e0 3d d5 66 f1 bd 0f e3 45 3e
       0.036807325 0.10972443 -0.11787192 0.19324897
000170 91 5e e3 3d 3b d6 db be 9a f2 ca 3e ef d4 83 be
       0.111020215 -0.42936882 0.39638215 -0.25748393
000180 d9 45 4f 3e 85 c5 75 3d 36 5e c9 3d 89 cf 55 3d
       0.20241489 0.060002822 0.098324224 0.052199874
000190 58 88 cf 3d 7c 77 8d be 8f 99 dc 3c 63 76 82 be
       0.101334274 -0.27630222 0.026928691 -0.25480947
0001a0 b4 7e 3f bd 6d f3 6a 3e 55 13 18 3e 8b 53 30 3e
       -0.046751693 0.22944422 0.14851125 0.17219369
0001b0 36 72 6e be 75 c3 de 3d 73 51 51 bd a6 98 22 be
       -0.23285756 0.10877124 -0.051103067 -0.15878543
0001c0 02 55 1a 3e 44 49 90 3e 6d 02 54 3c 8d 81 5c 3d
       0.1507149 0.28180897 0.0129400315 0.053834487
0001d0 71 82 7a be 81 7c c1 3d 04 4d 12 be b0 7d a0 be
       -0.24463822 0.09447575 -0.14287192 -0.31345892
0001e0 96 13 bd bd ca f9 15 be 5a 10 32 be d0 6a e1 3d
       -0.09232251 -0.14646068 -0.1738905 0.11006701
0001f0 cb 7b f4 bc 85 b3 ba be af 04 c3 3e ef 7f e0 3d
       -0.029844185 -0.36465088 0.3808951 0.109619014
000200 c4 63 65 be fd a7 53 3c 4f 82 91 3e 01 87 6d 3e
       -0.22401339 0.0129184695 0.2841973 0.23196031
000210 d3 f4 f5 bd e6 bf 2d be 78 a1 fc bd 89 b0 10 be
       -0.12009587 -0.16967735 -0.12335485 -0.14129843
000220 83 c2 96 3d 2a b0 0f 3e 83 aa 39 3d 40 74 d5 3e
       0.07361319 0.14032045 0.04532863 0.41690254
000230 b2 5b 38 be 3c 52 47 3e 74 70 5d be 2e 1e f8 bd
       -0.18003729 0.19464964 -0.21624929 -0.12115131
000240 e2 24 36 3e 88 2f f8 3e a0 21 53 3e 2a 16 22 bd
       0.17787507 0.48473763 0.20618296 -0.03957192
000250 a3 2e b2 be d8 45 93 bd ce 91 87 be 11 a4 8c be
       -0.34801206 -0.07191056 -0.26478428 -0.27468923
000260 9f fc 2f be 4b f3 08 be 0f 09 c7 bd de cb 63 3d
       -0.17186211 -0.13374059 -0.09718525 0.055614345
000270 93 d7 3f be dc d5 66 be 75 55 07 3e 46 9b 64 be
       -0.18734579 -0.22542518 0.13216193 -0.22324857
000280 66 f6 40 3d a6 d7 93 3d fa 2d 55 bd d2 ba 90 3d
       0.047109984 0.07218866 -0.0520458 0.07066883
000290 e7 51 ad be 8a 92 22 be 70 b9 73 be 8d d1 12 be
       -0.3385155 -0.15876213 -0.23801208 -0.1433775
0002a0 a3 e9 dc bc 30 c2 46 3e 50 bb 82 3d e9 c7 60 bc
       -0.026966875 0.19410014 0.06383383 -0.013719537
0002b0 ef 24 7c be 37 04 8a be e6 61 58 3e d3 0a ab be
       -0.24623464 -0.2695634 0.21131095 -0.33406696
0002c0 c5 b9 fc bd 15 31 79 3d 7e c7 ac bd 5e 76 b5 3b
       -0.1234012 0.060837824 -0.084364876 0.005537792
0002d0 5c c8 3a be 9c 1a b8 be 17 08 73 be 87 cb a0 be
       -0.18240494 -0.359578 -0.23733555 -0.3140528
0002e0 85 d2 e8 3d 92 83 df 3e 59 3f 06 be f9 12 87 bc
       0.113682784 0.43655068 -0.13110103 -0.016488539
0002f0 1e 51 40 be 19 a4 14 be e6 fd d9 3c 81 ca 93 be
       -0.18780944 -0.14515723 0.026610326 -0.28865436
000300 43 3b a3 bd c1 92 18 3d 6a c9 56 3e d9 48 76 bc
       -0.07970288 0.03724933 0.20975271 -0.015032017
000310 8d 30 b8 bd 25 a8 19 be 37 c0 f1 bd d0 f4 05 3e
       -0.08993635 -0.15005548 -0.1180424 0.1308167
000320 82 b2 3a 3e 39 a2 fe bd f3 af 0a 3d de 17 92 3d
       0.18232158 -0.12433285 0.033859205 0.071334586
000330 08 d3 5a 3d df 2c 21 ba 4b e1 bf bd 7d d5 0f 3e
       0.05342391 -0.0006148349 -0.09369143 0.14046283
000340 86 7f 75 3d c8 bf 79 3d b7 af 80 3e 4f 16 18 be
       0.05993607 0.060973912 0.2513406 -0.1485226
000350 38 30 23 be 5d e4 00 be 0a 3a 08 bf df ac c2 be
       -0.15936363 -0.12587114 -0.5321356 -0.38022515
000360 f7 ba 42 3e ac dc b9 3e 98 61 c3 bd cd 27 13 3f
       0.19016634 0.36301172 -0.09540099 0.57482606
000370 03 85 99 be 21 cb b3 bd a7 30 29 be c0 98 cc be
       -0.29984292 -0.08778978 -0.16522466 -0.3996029
000380 7b e8 99 be c6 97 b8 3e 79 f4 9d bd b1 35 92 bd
       -0.3006018 0.36053294 -0.07712645 -0.07139147
000390 bc 85 d9 3c 6b 14 cc 3d 1d 93 7b be e2 7c 8a bc
       0.026553027 0.09964832 -0.24567838 -0.016905252
0003a0 10 c3 89 bd 0d d3 1d be a1 e2 b9 be 21 21 a5 3e
       -0.06726658 -0.1541254 -0.36305717 0.32251838
0003b0 6d 57 46 bc d2 ae d0 bc ef 13 8a be a9 9f 97 be
       -0.012105805 -0.025473986 -0.26968333 -0.29614
0003c0 80 7b 12 3e 08 af be 3e 1f 41 69 3e 91 83 05 be
       0.14304924 0.37242913 0.22778748 -0.1303847
0003d0 e3 11 f9 be 74 ba c4 3e 22 5b 9b be 1a af dd be
       -0.4864646 0.38423502 -0.30342966 -0.43297654
0003e0 26 09 4f be 58 16 8c bc 2f 81 64 be 4f f3 9c 3e
       -0.20218334 -0.017100498 -0.22314905 0.3065438
0003f0 25 5d c6 bc af a7 fe be 3b 08 6f 3e b5 88 34 bc
       -0.024214337 -0.49737307 0.23342983 -0.011018922

decoder_lstm.bias_ih_l0 f4 [64]
000000 51 cb 8b 3e 89 74 9b bd 6a 19 b5 3e 76 9d 8f 3e
       0.27303556 -0.07590587 0.35370952 0.2804982
000010 13 5e b1 bd f7 8c 08 3e 7e 42 41 3e 47 0f fc 3c
       -0.08660521 0.13335024 0.18873021 0.030769004
000020 77 28 d0 3c 57 5f bf bd f0 8a 85 3c a7 f1 95 3e
       0.02540992 -0.093443565 0.016301602 0.2928593
000030 3b 10 53 3e e9 53 de 3e 37 59 66 3e 84 5f 66 3e
       0.2061166 0.43423393 0.2249497 0.22497374
000040 b5 d9 3b 3e 43 3e 8f 3d 97 c1 37 3d c1 ec 93 3d
       0.18344767 0.06994297 0.044862356 0.072228916
000050 4d 01 11 be 03 50 cb 3d 44 81 74 3d 16 a2 ce 3d
       -0.14160652 0.099273704 0.05969359 0.10089509
000060 b7 cb 0d be e8 ef a3 bd 45 81 10 3d 21 3c a5 bd
       -0.13847242 -0.08004743 0.03527953 -0.08068109
000070 a7 41 fe bd ef ac a2 be d7 81 d9 bd 48 46 1e be
       -0.12414866 -0.31772563 -0.10620468 -0.15456498
000080 b1 da e2 bd c1 59 48 3e fd 1a 42 3e 07 f6 c7 bd
       -0.11076868 0.19565488 0.18955608 -0.09763723
000090 ee 36 8f be 4e 96 41 be 4b 39 60 3d 36 0a b9 3d
       -0.27971596 -0.18904993 0.05474214 0.09035151
0000a0 b6 57 96 3b 9c 48 09 3e b7 9d 89 bc ce ef 40 3e
       0.0045880927 0.13406605 -0.016798837 0.18841478
0000b0 1d ba f4 bd 54 a1 03 be 32 80 45 3e 2d 48 93 3b
       -0.11949561 -0.1285451 0.19287184 0.004494688
0000c0 b9 43 0b 3d ea 09 ec 3d 9e bc 99 3e 4d 4b 9b 3e
       0.034000132 0.115253285 0.30026716 0.30330887
0000d0 2e 64 d0 bd a4 a4 e3 3e 57 5e b5 bb f3 de cb 3e
       -0.10175358 0.44461548 -0.005534928 0.39818534
0000e0 2b 52 3b 3e d1 64 d4 3e 81 fa cd 3e 9c e1 35 3e
       0.18293063 0.41483167 0.40230182 0.17761844
0000f0 a4 17 54 3d be 2b a0 3e e0 9c 32 3e 87 34 3d 3d
       0.051780358 0.31283373 0.17442656 0.046192672

decoder_lstm.bias_hh_l0 f4 [64]
000000 47 41 c0 3d 49 b6 56 3d 2b 86 5b 3d 46 9e 79 3e
       0.09387451 0.052419934 0.05359475 0.24376783
000010 04 d9 1c 3d 41 8c 93 3e 19 48 11 3e fc f8 8d 3e
       0.0382929 0.28817943 0.1418766 0.27729023
000020 d7 29 00 3e 67 7c a2 bd 99 e1 47 3e d3 ad 83 3d
       0.1251596 -0.07933884 0.19519652 0.06429639
000030 75 0c 57 3e 2e 5d 8d 3e 70 b3 8f 3e b1 a8 c3 3e
       0.21000846 0.27610153 0.28066587 0.3821464
000040 1c 9a f1 bd 14 32 8d 3e b0 e9 69 3d 45 33 f2 bd
       -0.11796972 0.2757727 0.057107627 -0.11826185
000050 d1 64 ee 3c 26 08 84 3e c0 dc 71 bd 34 d3 7d 3e
       0.029100807 0.25787467 -0.059048414 0.24787599
000060 3f f1 30 3d 14 9a 1a 3e 2d 4e 60 3d 31 ad a5 bd
       0.04319882 0.15097839 0.054762054 -0.08089674
000070 83 1e 39 3e bf ed 98 be 2e 66 33 be 29 61 45 be
       0.18078046 -0.29868886 -0.17519447 -0.19275345
000080 0f ca bc 3d 6f 2f 58 3e f0 3c 4d bd 4f d9 49 3e
       0.09218227 0.21111844 -0.050106943 0.19711803
000090 b2 f7 1d be 30 4a 2e 3e 82 17 0a be 80 c8 d0 3d
       -0.1542652 0.17020488 -0.1348553 0.10194492
0000a0 b5 88 3d 3e 8b 3a 53 bd 6d 2e 0a 3e c9 de c2 bc
       0.18509181 -0.051569503 0.13494273 -0.023787873
0000b0 75 66 90 be dc f1 00 be 8f 38 81 3e e9 15 fc 3d
       -0.2820317 -0.12592262 0.25238463 0.123088665
0000c0 47 1f 4b 3e 0d 59 c0 3b 64 ca e8 3e 39 7c 72 3d
       0.1983615 0.0058699907 0.45466912 0.0592005
0000d0 c9 14 85 3e 59 e0 82 3e 7b 57 ac 3d 36 e0 14 3c
       0.2599242 0.2556179 0.08415123 0.009086659
0000e0 ef e8 f5 bd 1a 34 d6 3e d9 6e 24 bd c6 44 c6 3e
       -0.12007319 0.41836625 -0.040144775 0.38724345
0000f0 fa 23 46 3e 9c 31 b7 3e 2d 19 c3 3e 41 e5 03 3e
       0.19349661 0.35780036 0.38105145 0.12880422
