lstm_ckpts/lstm-epoch=02-train_loss=0.96.ckpt (torch, 337176 bytes, 33 tensors)

embedding.weight f4 [20, 128]
0	0x3fa67313	1.3003868
1	0xc00a5959	-2.1617033
2	0xbb68fff9	-0.0035552962
3	0xbe4d4378	-0.20045269
4	0x3fbd9585	1.4811255
5	0xbeb08ab7	-0.3448083
6	0x3f4b60d1	0.79444605
7	0x3dcb9a11	0.09941495
8	0x3f5a67f5	0.85314876
9	0xbfc9e09e	-1.5771673
10	0xbdd16add	-0.10225461
11	0xbfea6c3a	-1.8314278
12	0xbfe922aa	-1.8213704
13	0xc0143c6d	-2.316188
14	0xbee9b480	-0.45645523
15	0x3f62c279	0.8857799
16	0xbf36b80f	-0.713746
17	0x3e2851bd	0.1643743
18	0xbfabf580	-1.3434296
19	0xbee4d481	-0.44693378
20	0x3dd10677	0.10206311
21	0x4017e5cd	2.373401
22	0xbe1e45d0	-0.15456319
23	0x3f2b9224	0.6701987
24	0x3e1935f4	0.14961988
25	0x3fbd8589	1.4806377
26	0xbec24a80	-0.37947464
27	0xbeaa4297	-0.3325393
28	0xbf8f31d9	-1.1187087
29	0x3f2bdfe1	0.6713849
30	0x3f51022c	0.8164394
31	0xbd66faf9	-0.05639169
32	0x3f47d638	0.78061247
33	0xbfd2249a	-1.641742
34	0xbda8a3d7	-0.08234375
35	0xbe616208	-0.22010052
36	0xbd96e052	-0.073670045
37	0x401b227c	2.4239798
38	0x3f884729	1.0646716
39	0x3feddb12	1.858248
40	0x3f671200	0.9026184
41	0x3f8147a5	1.0099989
42	0xbe8700ef	-0.263679
43	0xbf1154d5	-0.5677007
44	0x3f312dff	0.6921081
45	0x3f93dcc3	1.1551746
46	0xbf037838	-0.51355314
47	0x3eff32a7	0.49843332
48	0x3f87cd09	1.0609447
49	0xbf320636	-0.6954073
50	0x3f1155be	0.5677146
51	0xbfd9c8bf	-1.7014388
52	0x3f913617	1.1344632
53	0xbebe50b6	-0.37170953
54	0x3fca858b	1.5822004
55	0xbfb786f3	-1.4338058
56	0x3ec2870a	0.37993652
57	0xbec7ef26	-0.39049643
58	0x3e6ff69a	0.23433915
59	0xbfae4b53	-1.3616737
60	0xbee3ec48	-0.44516206
61	0xbf2708f4	-0.65248036
62	0x3e9ca805	0.3059694
63	0x3ed633b7	0.4183633
64	0xc0005286	-2.0050368
65	0x3f4a3113	0.7898113
66	0x3d8966a6	0.06709032
67	0xbf88e059	-1.0693465
68	0x404317fe	3.0483394
69	0xbeca1168	-0.39466405
70	0x3ff0ef4e	1.882303
71	0xbf779bb8	-0.9672198
72	0xbf494477	-0.78620094
73	0xbe13cbf3	-0.14433269
74	0xbf62e273	-0.88626784
75	0xbfe9fb86	-1.8279884
76	0x3f69bccd	0.9130371
77	0xbf9022ad	-1.1260582
78	0xc0146c6d	-2.3191178
79	0x3efae0d6	0.4899966
80	0xbfb33063	-1.3999141
81	0xbfeef90f	-1.8669757
82	0x3f5865db	0.8453042
83	0xbd3c9180	-0.046037197
84	0x3f07fa2b	0.531161
85	0xbcb8689c	-0.02251082
86	0x4027920f	2.6182897
87	0xbf87329b	-1.0562319
88	0x3f8c1601	1.0944215
89	0xbd47f204	-0.04881479
90	0x3f404ee2	0.75120366
91	0xbf9c0124	-1.2187848
92	0xbe94d858	-0.29071307
93	0xbf6cacac	-0.92450976
94	0xbf9e75ee	-1.2379739
95	0x3f4ba0c5	0.7954219
96	0x3fdb8357	1.7149457
97	0x3fcda553	1.6066078
98	0xbf99c84f	-1.2014254
99	0xbe2761a9	-0.16345848
100	0xbf1b526d	-0.60672647
101	0xc01521b5	-2.3301823
102	0xbf53537b	-0.82549256
103	0xbfbbb2af	-1.4663905
104	0xbfc1f7a5	-1.51537
105	0xc037bc42	-2.8708653
106	0x3fd66ca0	1.67519
107	0xc02bb6bd	-2.6830285
108	0xbf286804	-0.65783715
109	0x3db5fac0	0.088857174
110	0x3fad744f	1.355112
111	0x3ef1fe3c	0.47264278
112	0x3f9b6dfa	1.2142937
113	0xbee0e9f0	-0.4392848
114	0x3cf39a42	0.029736642
115	0xbe4a1355	-0.19733937
116	0xbffe797e	-1.9880826
117	0xbf45ea2d	-0.7731045
118	0xbba106c4	-0.0049141366
119	0x3f3b0866	0.7305969
120	0xbfac18a0	-1.3445015
121	0x4007d4a4	2.1223536
122	0x3f5a6d2f	0.8532285
123	0x3f7bdb70	0.9838171
124	0xbf2df507	-0.6795201
125	0xbfd28f91	-1.6450063
126	0x3fb19559	1.3873702
127	0xbeba6665	-0.36406246
128	0x3feec564	1.8653989
129	0x4020e51b	2.5139835
130	0xbff16fcd	-1.8862244
131	0x3f36ecc2	0.71455014
132	0xbdc68297	-0.09692877
133	0xbf802c67	-1.001355
134	0xbe800128	-0.25000882
135	0xbf473b4d	-0.7782486
136	0xbf125b86	-0.57170904
137	0x3c3ff131	0.011715219
138	0xbf701d76	-0.93794954
139	0xbe2536aa	-0.16134134
140	0xbed6a041	-0.4191914
141	0xbf8bb9f2	-1.0916121
142	0x3f8f41cf	1.1191958
143	0x3f7e54e5	0.9934829
144	0x3f50db06	0.81584203
145	0x3f8bd9b3	1.0925812
146	0xbfd30436	-1.648566
147	0x3f96387e	1.173599
148	0x3fcc8733	1.597876
149	0xbfa69bd4	-1.3016305
150	0x3f07a882	0.529915
151	0x3ef1c46a	0.47220165
152	0x3ec78e93	0.38975963
153	0x3fb90583	1.4454807
154	0x3f81562b	1.0104421
155	0xbff8a24a	-1.9424527
156	0xbe856a17	-0.26057503
157	0x401d0e05	2.4539807
158	0xbf11ca8a	-0.56949675
159	0xbfd80c64	-1.6878781
160	0x3f86479c	1.0490603
161	0xbf769591	-0.9632197
162	0x3fbf8d55	1.4965006
163	0x3ee8b958	0.45453906
164	0xbfcc7b33	-1.5975097
165	0xbfc0e495	-1.5069758
166	0x3f9e4216	1.2363918
167	0x3fb48425	1.4102827
168	0x3f216c83	0.630562
169	0xbe270cce	-0.16313478
170	0x3e8df0ab	0.27722678
171	0xbeb78908	-0.35846734
172	0xbf642ab8	-0.89127684
173	0xbf4b7085	-0.79468566
174	0x3e324e10	0.17412591
175	0x3e984982	0.29743582
176	0x3fa415b1	1.281912
177	0x3f415b86	0.7553028
178	0x3f13aebc	0.576885
179	0x401f7911	2.4917643
180	0x3fe366da	1.7765763
181	0xbfb6ce10	-1.4281635
182	0x3f385cd4	0.72016644
183	0xbd8b6f9e	-0.06808399
184	0x3e7848e6	0.24246559
185	0xbfae224f	-1.360422
186	0x3f1b1592	0.6057979
187	0x3ce3f1ee	0.027825322
188	0x3ef066f5	0.4695355
189	0xbe805b95	-0.25069872
190	0xbf1be781	-0.6090012
191	0xbf1733c0	-0.5906334
192	0x3ecf802e	0.4052748
193	0xbd7b104f	-0.06129485
194	0xbe69bdaf	-0.22826265
195	0x3d934138	0.07190174
196	0xbe81b996	-0.25336903
197	0xbec4c98c	-0.38435018
198	0x3f8db69f	1.1071357
199	0x3d4e1b3c	0.05031894
200	0x3e93bbdd	0.28854266
201	0xbf876893	-1.0578789
202	0x400689fd	2.1021721
203	0x3e9e6ac2	0.30940825
204	0x3daf9cf2	0.08574857
205	0xbe8d43bd	-0.27590743
206	0x3ec57831	0.3856826
207	0xc02863f5	-2.631101
208	0xbe76d056	-0.24102911
209	0x3f13b90d	0.5770424
210	0xbfc8b645	-1.5680624
211	0x3fe8d6d6	1.8190563
212	0xbe2d812f	-0.16943811
213	0xbee3589e	-0.44403547
214	0x3e8b9189	0.27259472
215	0x3f44ba47	0.76846737
216	0xbe3b67b9	-0.18301286
217	0x3f4b3ec7	0.79392666
218	0xbfa6ab42	-1.3021014
219	0xbfcf6deb	-1.6205419
220	0x3f0e0e99	0.55491024
221	0x3f6411b3	0.89089507
222	0xbfedc9f0	-1.8577251
223	0xbf876bf1	-1.0579816
224	0x3f50f666	0.81625974
225	0x3f31f861	0.6951962
226	0x3f9cb81a	1.2243683
227	0x3f28dfd0	0.6596651
228	0x3f83268c	1.0246139
229	0x3e2ee60b	0.17079942
230	0x3f83928d	1.0279099
231	0xbeaac85c	-0.33355987
232	0xc00b7469	-2.17898
233	0xbf1723d6	-0.59039056
234	0x3f13bf2a	0.5771357
235	0x4016ac23	2.3542564
236	0x3f057742	0.521351
237	0xbed6f1e3	-0.4198142
238	0xbfa867d2	-1.3156683
239	0xbee1d7f6	-0.44110078
240	0xc003267d	-2.0492241
241	0x3e77825a	0.24170819
242	0xbf3b7691	-0.7322779
243	0xbf0e486a	-0.55579245
244	0xbe16e54c	-0.14735907
245	0x3d8da5c3	0.06916382
246	0x3e3bae2e	0.18328163
247	0xbed9c8ca	-0.42536002
248	0x3f1e0680	0.6172867
249	0x3f700139	0.93751866
250	0xbf8507ff	-1.0393065
251	0x3f6bb1bc	0.92068076
252	0xc02c8dcc	-2.6961546
253	0x3f12d8ad	0.5736187
254	0xbbe1d3ba	-0.006891695
255	0xbf418c84	-0.75605035

encoder_lstm.weight_ih_l0 f4 [128, 128]
0	0x3d9214fc	0.07132909
1	0xbdbc0982	-0.09181501
2	0x3c168c67	0.009188748
3	0xbe061652	-0.13094452
4	0x3e948f2c	0.2901548
5	0xbe1bccaa	-0.15214792
6	0x3c348902	0.011018993
7	0x3c5e6370	0.013573512
8	0xbb9c311a	-0.0047665955
9	0x3d8c6c0d	0.068565466
10	0xbdbaf5ab	-0.09128889
11	0xbd13e018	-0.036102384
12	0xbe854d6a	-0.26035625
13	0xbd85b22e	-0.06528126
14	0xbd9a6595	-0.075389065
15	0x3e4965e5	0.19667776
16	0x3e192216	0.14954409
17	0x3d01072a	0.031500973
18	0xbdaa0e32	-0.08303489
19	0x3ca3b527	0.019983841
20	0xbd889205	-0.06668476
21	0xbbf31129	-0.007417817
22	0x3d9472ad	0.07248435
23	0xbe457c50	-0.19285703
24	0x3dd946ba	0.10609193
25	0x3de6328b	0.11240109
26	0x3e34b40b	0.17646806
27	0xbded30ff	-0.11581611
28	0x3e011f08	0.12609494
29	0xbccf12f1	-0.025277587
30	0xbe2d9c83	-0.16954236
31	0x3e4e070e	0.20119879
32	0x3df9f8cc	0.12205657
33	0xbdd5ae68	-0.10433656
34	0x3d9e176b	0.077193104
35	0xbd1470c6	-0.03624036
36	0x3c5ae591	0.013360397
37	0x3daa8246	0.08325629
38	0x3d262c34	0.0405695
39	0xbcef3af8	-0.029202923
40	0xbcad56d1	-0.021159561
41	0xbd64291d	-0.05570327
42	0xbd13d8cc	-0.036095425
43	0xbeb69e0a	-0.3566745
44	0xbe4fba17	-0.20285831
45	0xbb8b14a7	-0.0042444053
46	0xbcc1924f	-0.023629336
47	0x3d626371	0.055270616
48	0xbd88c9f7	-0.06679147
49	0x3e205315	0.15656693
50	0x3e61ea38	0.22062004
51	0xbcf5440b	-0.029939672
52	0xbe1dd87f	-0.15414618
53	0xbd81de0f	-0.063411824
54	0x3dec1572	0.11527528
55	0xbe3b5105	-0.18292625
56	0x3e3bbaf3	0.18333034
57	0x3d2371ba	0.03990338
58	0x3cdef51f	0.027216492
59	0xbc43ffdf	-0.01196286
60	0x3dd79136	0.10525744
61	0x3e387cb1	0.18016316
62	0x3df7afd4	0.120940834
63	0xbe7e8904	-0.24856955
64	0xbdd5bbb9	-0.10436196
65	0xbd64385d	-0.055717815
66	0xbe25f450	-0.16206479
67	0x3e02494f	0.12723278
68	0xbd2419bf	-0.040063616
69	0x3c2d8e15	0.010592957
70	0xbc28059f	-0.010255246
71	0x3da28ab4	0.07936612
72	0x3dc61706	0.0967236
73	0xbcebb715	-0.028773824
74	0xbe8491ba	-0.2589243
75	0x3e2f2135	0.17102511
76	0x3de588d4	0.112077385
77	0x3e0d91d2	0.13825157
78	0x3a0999dd	0.00052490627
79	0x3d00da1f	0.031458016
80	0xbd4cee1e	-0.050031774
81	0x3e0f5c08	0.13999951
82	0xbd6ff03b	-0.05857871
83	0x3c2d8efd	0.010593173
84	0xbcb9d8e1	-0.022686424
85	0x3d48932e	0.048968486
86	0x3dafd9f5	0.08586494
87	0xbdbef546	-0.09324126
88	0xbe5049d0	-0.20340657
89	0xbcfbc08f	-0.030731468
90	0xbe47be3d	-0.19506164
91	0x3baeceed	0.005334726
92	0xbdd01735	-0.101606764
93	0xbcfc85d8	-0.03082554
94	0x3d755fe5	0.059905905
95	0xbdf7019a	-0.12060852
96	0x3c580791	0.013185398
97	0xbda05c86	-0.078301474
98	0xbecd3d14	-0.4008566
99	0x3df8dbfa	0.12151332
100	0xbdb4f9d8	-0.088367164
101	0xbe13412c	-0.1438033
102	0x3e24b53c	0.1608476
103	0xbe506011	-0.20349146
104	0xbe38c38c	-0.18043345
105	0xbd8af772	-0.06785478
106	0xbdc2e5c7	-0.09516483
107	0x3dac1e36	0.084042
108	0xbd91fec7	-0.07128673
109	0xbdb49f21	-0.08819414
110	0xbd121ae3	-0.035670172
111	0xbd2daa94	-0.042399004
112	0xbcbf049a	-0.023317624
113	0x3d8e06bf	0.069348805
114	0xbd0282f1	-0.031863157
115	0x3c4aba00	0.012373447
116	0x3d59b7cd	0.0531538
117	0x3e16899d	0.14700933
118	0xbe2aef14	-0.16692764
119	0xbd576b7c	-0.05259274
120	0x3d2302fd	0.03979777
121	0x3e3b4caa	0.18290964
122	0x3e3bd69f	0.1834359
123	0xbd7a6ab0	-0.0611369
124	0xbd82ecb2	-0.06392802
125	0x3dd48148	0.10376221
126	0xbd222c99	-0.039593313
127	0xbdd2399a	-0.10264893
128	0x3de3633b	0.11102911
129	0xbd34bc9b	-0.04412518
130	0xbdfbe56c	-0.12299618
131	0x3d2f2b4e	0.042765908
132	0xbdff6c03	-0.124717735
133	0xbd897ee8	-0.067136586
134	0x3e42fcc0	0.19041729
135	0xbd16cb22	-0.036814816
136	0xbd18d2c6	-0.037310384
137	0xbe298a2f	-0.16556619
138	0xbdf7a8d9	-0.12092752
139	0xbd191b27	-0.03737941
140	0xbd605bdb	-0.0547751
141	0xbe5f5c5b	-0.21812575
142	0xbe01929f	-0.12653588
143	0x3e400643	0.18752389
144	0xbcc7fa32	-0.024411295
145	0x3de64e02	0.112453476
146	0x3d89354f	0.06699621
147	0x3ddcfca6	0.10790376
148	0x3e57606c	0.21032876
149	0x3e11c3be	0.14234826
150	0xbe2360c2	-0.15954879
151	0x3e30b578	0.17256725
152	0x3d011564	0.03151454
153	0xbcc67690	-0.024226457
154	0xbd940de4	-0.07229212
155	0xbe2dbd77	-0.16966806
156	0xbe11d916	-0.14242968
157	0x3d90df83	0.070738815
158	0x3e504e77	0.20342432
159	0x3e41e0b4	0.18933374
160	0x3dd30c32	0.103050604
161	0xbdf60aa1	-0.12013746
162	0xbe029147	-0.12750731
163	0x3e4716bf	0.1944227
164	0x3b0cf4c4	0.0021508196
165	0xbcb14050	-0.021637112
166	0x3e33e35f	0.17567204
167	0xbce480e6	-0.027893495
168	0xbe243776	-0.16036782
169	0xbd2fed79	-0.04295108
170	0xbe06cb99	-0.13163604
171	0x3d8cb046	0.06869559
172	0xbd92bf78	-0.07165426
173	0xbc941593	-0.018076694
174	0x3dce14ef	0.100625865
175	0xbd9411de	-0.072299704
176	0xbe0c97e4	-0.13729817
177	0xbdd74ecd	-0.10513077
178	0x3d988fc4	0.07449296
179	0x3d3fe72f	0.046851333
180	0x3df95f24	0.1217635
181	0xbd82a07b	-0.063782655
182	0x3de33be6	0.11095409
183	0xbe12dcfd	-0.14342113
184	0xbd1ad485	-0.03780033
185	0xbe1cd42b	-0.1531531
186	0x3e3ccbdf	0.18437146
187	0x3d642c55	0.05570634
188	0x3d41db30	0.047328174
189	0xbde90c0b	-0.1137925
190	0x3d38018f	0.04492336
191	0x3df47989	0.119372435
192	0xbdc8b036	-0.097992346
193	0x3d889eec	0.06670937
194	0x3d31aab2	0.04337568
195	0xbdf79a91	-0.12090028
196	0xbdea6356	-0.11444728
197	0xbe22fd36	-0.15916905
198	0x3dc18d4b	0.094507776
199	0x3de4e26a	0.111759976
200	0x3d5a7da0	0.05334246
201	0xbc77e637	-0.015130571
202	0x3cfcbfcc	0.030853175
203	0x3db64827	0.08900481
204	0xbda7878b	-0.0818015
205	0x3e1689db	0.14701025
206	0xbe1c0ba5	-0.15238817
207	0xbd7fe3d3	-0.06247313
208	0xbe2408bd	-0.16018958
209	0xbeadd6e0	-0.33953
210	0xbe1df0e7	-0.15423928
211	0x3dc25341	0.09488536
212	0xbd430acc	-0.04761772
213	0x3d85fab1	0.06541956
214	0x3e15040f	0.1455233
215	0x3b8ddc0c	0.00432921
216	0x3e311c2d	0.17295904
217	0x3df9712c	0.12179789
218	0xbd636c60	-0.055523276
219	0xbc540ab9	-0.01294201
220	0x3e5bef3f	0.21477984
221	0xbe32e1de	-0.17468974
222	0x3d5d9e32	0.054105945
223	0xbe185a89	-0.14878286
224	0x3b8860a1	0.0041619097
225	0x3aad73b5	0.0013233336
226	0x3e126fb8	0.1430043
227	0x3e02d475	0.12776358
228	0xbe11677d	-0.14199634
229	0x3d098134	0.033570483
230	0x3bc7053b	0.0060736216
231	0xbda91fd9	-0.082580276
232	0xbe03dd8a	-0.12877479
233	0x3dcbfdaa	0.09960492
234	0xbdb81dff	-0.08990096
235	0xbdba8d7d	-0.09109018
236	0x3d494b7f	0.049144264
237	0x3e0b43c2	0.13600066
238	0x3da7c1c0	0.08191252
239	0x3e28f8ef	0.1650121
240	0xbddd3b9e	-0.10802387
241	0xbd29ea71	-0.041483346
242	0x3ddfa120	0.10919404
243	0xbd9bd27d	-0.07608507
244	0x3db001fa	0.08594127
245	0x3d1d666e	0.038427763
246	0xbbf91273	-0.0076010763
247	0x3e3efc91	0.18651034
248	0xbe1fd2cb	-0.15607755
249	0x3b7da4ce	0.0038702968
250	0xbd9e8b5e	-0.07741426
251	0x3d677858	0.056511253
252	0x3dd15a0b	0.102222525
253	0x3dc66711	0.09687627
254	0x3e8d3e3c	0.27586544
255	0x3e3ab36d	0.18232508

encoder_lstm.weight_hh_l0 f4 [128, 32]
0	0xbcbd95f8	-0.0231428
1	0x3e7eb23d	0.2487268
2	0xbeac31f6	-0.33631867
3	0xbdcc93ce	-0.09989129
4	0xbe2b8a23	-0.16751914
5	0x3e79483b	0.2434396
6	0xbda9848c	-0.082772344
7	0x3e09f14e	0.13470957
8	0xbeb56654	-0.35429633
9	0x3dee3dd7	0.11632889
10	0x3e692a50	0.22770047
11	0xbf023b23	-0.50871485
12	0x3cf0d4e5	0.029398391
13	0x3d72444a	0.059147157
14	0x3e5b8dbe	0.21440789
15	0x3d7b1623	0.061300408
16	0x3d574af4	0.052561715
17	0x3e4c4caa	0.1995112
18	0x3e83d7f7	0.25750706
19	0xbba39e5c	-0.004993243
20	0x3d3bbc61	0.04583395
21	0xbe77c6be	-0.24196908
22	0xbef69f12	-0.48168236
23	0x3dcd4599	0.1002304
24	0xbe68b0eb	-0.22723739
25	0xbeeb8034	-0.4599625
26	0x3e1c66c5	0.15273578
27	0x3d80d860	0.0629127
28	0x3e87efa1	0.2655001
29	0x3e6b8424	0.22999626
30	0x3d8107ac	0.063002914
31	0x39d452cb	0.00040497477
32	0xbd8487cd	-0.064712144
33	0xbe848201	-0.25880435
34	0xbe77602b	-0.24157779
35	0x3d4a0e9f	0.04933035
36	0x3b806a4d	0.003918922
37	0x3e81b787	0.25335333
38	0x3d77f2db	0.06053434
39	0x3e96f60d	0.29484597
40	0xbc906d90	-0.017630368
41	0x3e4cb0c7	0.1998931
42	0x3d1b9f63	0.0379938
43	0xbe975dcb	-0.29563746
44	0xbc952b92	-0.018209253
45	0x3e0471b2	0.12933996
46	0xbd8d726b	-0.06906589
47	0x3ac8d978	0.00153236
48	0x3e9aa112	0.30201012
49	0x3e16fea7	0.1474558
50	0x3e9b45e7	0.3032677
51	0xbdd63fc4	-0.10461381
52	0x3e509113	0.20367841
53	0xbdeb7f3a	-0.11498876
54	0xbe1c7b51	-0.15281416
55	0x3e28ef02	0.16497424
56	0x3da3113d	0.07962272
57	0xbe509ca4	-0.20372254
58	0xbe5f2cab	-0.21794383
59	0x3e5349af	0.20633577
60	0xbe0e84c7	-0.13917838
61	0x3ecbe8fe	0.39826196
62	0xbcea5545	-0.028605113
63	0x3d0509a0	0.032479882
64	0xbe24f7ce	-0.16110155
65	0xbdfc472c	-0.123182625
66	0xbc6212b1	-0.013798402
67	0x3dd35e32	0.10320701
68	0x3e28ba44	0.16477305
69	0xbe017005	-0.12640388
70	0xbdd650e1	-0.10464645
71	0xbd27ddd4	-0.040983036
72	0xbe03e2b8	-0.12879455
73	0x3da793ca	0.081824854
74	0xbdf6c443	-0.12049153
75	0x3d12ad74	0.03580995
76	0x3d988a37	0.074482374
77	0x3dd715be	0.10502194
78	0xbd67b81d	-0.05657207
79	0x3c4170ee	0.01180671
80	0x3d0eb7b4	0.03484316
81	0x3c77f056	0.015132984
82	0xbdc7a454	-0.0974814
83	0x3dd3c4d7	0.103402786
84	0xbd414ac3	-0.04719044
85	0x3e5af1c1	0.21381284
86	0xbd7b71f4	-0.06138797
87	0x3e05b41b	0.13056986
88	0xbdc3953e	-0.0954995
89	0xbe4262cc	-0.18983
90	0x3ddb71c9	0.10715062
91	0x3e4cb25e	0.19989917
92	0xbd23c93e	-0.03998684
93	0xbd579d02	-0.05263997
94	0x3e536715	0.20644791
95	0x3d0e18b5	0.03469153
96	0xbd673c35	-0.056453902
97	0xbe5fbbee	-0.21849033
98	0x3c933205	0.017968187
99	0xbdb85d0c	-0.09002122
100	0xbc9f972c	-0.019481264
101	0xbeb18b92	-0.34676796
102	0x3dd7120d	0.1050149
103	0x3eb4626a	0.35231334
104	0x3d821e3e	0.063534245
105	0x3d8dd6fe	0.06925772
106	0x3ea1e837	0.31622478
107	0xbce0b241	-0.027428748
108	0xbdcfb5e2	-0.10142113
109	0xbd4591ae	-0.048234634
110	0xbcfe063d	-0.031008834
111	0x3e9fe057	0.31225845
112	0x3ecef44b	0.40420756
113	0x3cbb1ed5	0.02284185
114	0x3e9aabc7	0.3020918
115	0xbd0cc71b	-0.03436957
116	0xbe9bf0f0	-0.30457258
117	0x3d4e92db	0.05043302
118	0x3e0ea60f	0.13930534
119	0xbebbd464	-0.3668548
120	0x3db1e398	0.08685988
121	0xbf0a836d	-0.5410679
122	0xbdb148dd	-0.08656476
123	0x3e7221c4	0.23645693
124	0x3dcfe7b7	0.10151618
125	0xbdb20ad8	-0.086934745
126	0x3eb74aec	0.35799348
127	0xbdd4449c	-0.10364649
128	0xbe72199a	-0.23642579
129	0xbceb278b	-0.028705379
130	0xbd0f8dc3	-0.035047304
131	0x3e1a7cce	0.15086672
132	0xbe379a37	-0.17929922
133	0x3dff8cdc	0.12478039
134	0x3e1d61ff	0.15369414
135	0x3ea322c8	0.31862473
136	0xbcdd5ff0	-0.027023286
137	0x3dbccb3d	0.09218452
138	0x3e9b9951	0.3039041
139	0xbdfa4f08	-0.12222105
140	0xbe6b29ca	-0.2296516
141	0xbc02b5ef	-0.007977947
142	0xbc85bf56	-0.016326588
143	0x3e0663c7	0.13124
144	0x3d838291	0.06421388
145	0xbe2a91d5	-0.16657193
146	0x3ca298bb	0.019848218
147	0x3de2dd73	0.11077394
148	0xbdac338d	-0.0840827
149	0x3da624a2	0.08112456
150	0xbe81f363	-0.25381002
151	0x3e0f9aaf	0.14023851
152	0xbe86d017	-0.26330635
153	0x3d1db4f5	0.038502652
154	0x3da97c6d	0.082756855
155	0x3ca77dba	0.020445693
156	0x3e4bb4bf	0.19893168
157	0x3e060ed6	0.13091597
158	0x3e8211d9	0.25404242
159	0x3d8b0964	0.067889005
160	0xbe42b3b5	-0.19013865
161	0x3dccf3e8	0.10007459
162	0x3db0ef93	0.08639445
163	0x3e078426	0.13234004
164	0x3b5f4bfd	0.0034072392
165	0x3ed35a8f	0.41280028
166	0xbdb88faa	-0.09011777
167	0x3da8c7d0	0.08241236
168	0xbd82362d	-0.063579895
169	0x3e504200	0.20337677
170	0x3d27d082	0.040970333
171	0xbdb0d04c	-0.086334795
172	0xbe7ab896	-0.24484476
173	0xbe2354f0	-0.1595037
174	0xbd7abcc3	-0.061215173
175	0xbdfbfb00	-0.12303734
176	0x3cb1e5e9	0.021716075
177	0xbd43e51f	-0.04782593
178	0x3d0e9f60	0.03481996
179	0xbdc27cfe	-0.094964966
180	0xbbf84c49	-0.0075774533
181	0x3db35d2a	0.08758004
182	0x3d9dc9e5	0.07704524
183	0x3e198016	0.14990267
184	0x3c43698b	0.011927019
185	0x3da11ec5	0.07867197
186	0xbd40bb7f	-0.04705381
187	0x3d98bbd0	0.074576974
188	0x3e30cdd2	0.17266014
189	0x3df15327	0.11783438
190	0x3d36186b	0.04445688
191	0x3df9aa65	0.12190703
192	0xbda9df7e	-0.08294581
193	0xbe470151	-0.19434096
194	0xbe0b2cb8	-0.13591278
195	0x3e029659	0.12752666
196	0x3e38cd46	0.18047056
197	0x3e447126	0.19183788
198	0xbe5c5293	-0.21515875
199	0x3d0da20a	0.03457836
200	0xbd886cfe	-0.066614136
201	0x3d9cd844	0.07658437
202	0x3e303c58	0.1721052
203	0x3cf9c95c	0.030491523
204	0xbd80a341	-0.06281138
205	0x3e41fc9d	0.1894402
206	0x3e5b5576	0.2141932
207	0x3dbb7382	0.09152891
208	0x3beee82b	0.00729086
209	0x3d895749	0.067061014
210	0x3e64b77d	0.2233562
211	0xbc3c5500	-0.011494875
212	0xbde190c7	-0.11013942
213	0x3e2c8362	0.16846994
214	0xbe6dd38f	-0.23225234
215	0x3e27d4ad	0.16389723
216	0xbd60b5fb	-0.05486105
217	0x3da61234	0.08108941
218	0xbe976239	-0.29567125
219	0x3dcb7897	0.0993511
220	0x3e70c816	0.23513827
221	0x3dfed7ca	0.12443502
222	0x3e88e5d1	0.26737836
223	0xbe47b0b9	-0.19501008
224	0xbe27e187	-0.16394626
225	0xbeccb598	-0.39982295
226	0x3d0e7537	0.034779754
227	0xbda50a89	-0.0805865
228	0xbe202e13	-0.15642576
229	0xba3780ee	-0.0007000108
230	0x3dc19db9	0.09453911
231	0x3e81109f	0.25207993
232	0x3d715cd4	0.05892642
233	0xbe1a4c0a	-0.15068069
234	0x3e389822	0.18026784
235	0x3dc56f6c	0.09640393
236	0xbe65a8e7	-0.22427712
237	0x3cce5ba3	0.02519018
238	0x3d5ff082	0.054672725
239	0x3d51975f	0.05116975
240	0x3ce8555f	0.02836102
241	0xbdf8a2c1	-0.12140418
242	0xbdae6581	-0.08515454
243	0xbe6eae39	-0.23308648
244	0x3c003753	0.00782569
245	0x3c5390ba	0.0129129235
246	0xbd417df5	-0.047239263
247	0x3de6b03c	0.11264083
248	0x3de93822	0.113876596
249	0x3d25aa43	0.040445577
250	0x3d929605	0.0715752
251	0x3d62b4bc	0.055348143
252	0x3e42ff7f	0.19042777
253	0x3da0cf6b	0.07852062
254	0x3e49fc60	0.1972518
255	0xbdd20f8e	-0.10256873

encoder_lstm.bias_ih_l0 f4 [128]
0	0x3e9279a0	0.28608418
1	0x3e5bf35c	0.21479553
2	0x3d929b75	0.07158557
3	0x3d83e7bf	0.064406864
4	0xba641c1e	-0.00087016996
5	0x3df8dd2e	0.12151562
6	0x3e7daf89	0.24773993
7	0x3bf6beaa	0.007530053
8	0x3ea73db0	0.3266425
9	0x3e988145	0.29786125
10	0x3e255ada	0.16147938
11	0x3e14b4a5	0.14522035
12	0x3d44b2de	0.048022144
13	0x3e669d26	0.22520885
14	0x3e655697	0.22396313
15	0x3e1496e8	0.14510691
16	0x3d913079	0.070893236
17	0x3e87ded5	0.26537195
18	0x3d13fcc2	0.03612972
19	0x3dd3619b	0.10321351
20	0x3e0d72d0	0.13813329
21	0x3d94a501	0.072580345
22	0x3d59244a	0.053013124
23	0x3e0ede7e	0.13952062
24	0x3c87c1b8	0.016571864
25	0x3c4fccb4	0.012683082
26	0x3e0c675a	0.137113
27	0x3e4bbac5	0.19895466
28	0x3d764991	0.060128752
29	0x3d3095e8	0.04311171
30	0x3d8b39f8	0.06798166
31	0x3d5b8b1a	0.053599454
32	0xbe0b29d0	-0.13590169
33	0xbd5eb9eb	-0.054376524
34	0x3e8525da	0.2600544
35	0x3e21e29f	0.15809105
36	0x3cecfa92	0.028928075
37	0x3d8c0992	0.06837763
38	0xbd0c928b	-0.03431944
39	0x3e6187f4	0.22024518
40	0x3de41b75	0.111380495
41	0x3df51068	0.1196602
42	0x3e76535a	0.24055234
43	0x3e11f5bc	0.14253896
44	0x3de48825	0.1115878
45	0xbccb7627	-0.024836613
46	0x3e259b79	0.1617259
47	0xbd89b560	-0.06724048
48	0x3e1a0555	0.15041097
49	0x3d42db4d	0.047572423
50	0x3d609764	0.054831877
51	0x3e55e10f	0.20886634
52	0xbdd19e09	-0.10235221
53	0x3e06d8fa	0.13168707
54	0x3e7ea686	0.24868211
55	0x3d830883	0.06398108
56	0xbda36ddf	-0.079799406
57	0xbd2939bf	-0.041314837
58	0xbde9d5d5	-0.11417738
59	0x3e347a5f	0.17624806
60	0xbb3bb77b	-0.0028643298
61	0x3e192b00	0.1495781
62	0x3dabeeb2	0.08395137
63	0xbc23cc22	-0.0099973995
64	0x3df1890f	0.1179372
65	0x3c3fa77e	0.011697648
66	0xbdc652c7	-0.09683757
67	0xbcc411a1	-0.023934187
68	0x3bac32af	0.0052550654
69	0xbd952f73	-0.07284441
70	0x3cbd97a3	0.023143595
71	0x3e4d4510	0.20045877
72	0xbe2d466a	-0.16921392
73	0x3e3b4d4e	0.18291208
74	0x3e4d5aae	0.20054123
75	0xbe46b331	-0.19404294
76	0x3dd84fde	0.105621085
77	0x3e0f8880	0.14016914
78	0xbc9fe09a	-0.019516278
79	0xbc7a25cd	-0.0152678015
80	0x3e117251	0.14203764
81	0x3be9cb21	0.0071348106
82	0xbcb08cfb	-0.0215516
83	0xbe3b1011	-0.18267848
84	0x3dc4bdc6	0.09606509
85	0xbcfd373c	-0.030910127
86	0x3df90fdd	0.12161229
87	0xbdbd905f	-0.09256052
88	0x3dee2d9d	0.11629794
89	0xbe0e20b3	-0.13879661
90	0xbb6a57b1	-0.0035757835
91	0xbdbbcf15	-0.09170357
92	0x3df39781	0.118941315
93	0x3e486ddb	0.19573157
94	0x3bf3c30c	0.007439023
95	0xbd0eb5ed	-0.034841467
96	0x3e5b453e	0.21413133
97	0xbd00b5c5	-0.03142335
98	0xbd911264	-0.07083586
99	0x3d85bd49	0.06530244
100	0x3cba41c1	0.022736432
101	0x3e973e3a	0.29539663
102	0x3e875be4	0.26437294
103	0x3e22d7e2	0.15902665
104	0xbd88421a	-0.06653233
105	0x3dea752c	0.1144813
106	0x3e01d889	0.12680258
107	0x3ddc6e5e	0.10763238
108	0x3da11409	0.078651495
109	0x3e1a44ca	0.15065303
110	0x3dd8bef1	0.10583294
111	0x3ded9187	0.11600023
112	0x3cff207f	0.031143425
113	0x3e960dbe	0.2930736
114	0x3e31072d	0.17287894
115	0x3e80c29f	0.25148484
116	0x3e2fb9f4	0.17160779
117	0x3ebaf703	0.3651658
118	0x3dfb0713	0.12257209
119	0x3e6e13a9	0.23249687
120	0x3dc9213a	0.098207906
121	0x3df1cc10	0.118065
122	0x3daf3567	0.085551076
123	0x3dfd65ea	0.12372954
124	0x3d9f4607	0.077770285
125	0x3d8c1a1b	0.06840917
126	0x3d2ec76f	0.042670663
127	0x3e20a4f4	0.15687925

encoder_lstm.bias_hh_l0 f4 [128]
0	0x3e324420	0.174088
1	0x3e1b4c56	0.15165839
2	0xbd49b696	-0.049246393
3	0x3e6a6754	0.22890979
4	0x3d8c8bb1	0.068625815
5	0x3da6751e	0.08127807
6	0x3c9bab97	0.019002719
7	0x3e649722	0.22323278
8	0x3d35b06e	0.04435771
9	0x3e932116	0.2873618
10	0xbca69288	-0.020333543
11	0x3dd41fb7	0.103576116
12	0x3e049b80	0.12949944
13	0x3e97d45f	0.29654214
14	0x3da8015b	0.082033835
15	0xbdad07c2	-0.08448745
16	0x3e4d2b44	0.20036036
17	0x3e8f47c6	0.27984446
18	0x3d73cf6d	0.05952399
19	0x3dac094e	0.08400212
20	0x3e1f0128	0.15527785
21	0x3cc1e3d9	0.023668217
22	0x3ccd549a	0.025064755
23	0x3e380245	0.17969616
24	0x3e968242	0.29396254
25	0x3da3749a	0.07981224
26	0x3cf3c7e6	0.029758405
27	0xbd289182	-0.041154392
28	0x3e18fe06	0.14940652
29	0x3daae42e	0.08344303
30	0x3e67be12	0.226311
31	0x3e675f27	0.22594891
32	0x3da6c496	0.081429645
33	0x3e2d0a2d	0.16898413
34	0xbd380eae	-0.044935875
35	0x3da092c0	0.0784049
36	0xbc89c13e	-0.016815778
37	0x3e426df5	0.18987258
38	0x3dc2480f	0.094864
39	0x3dd1aa83	0.10237601
40	0xbc87e39a	-0.016588021
41	0xbd246897	-0.040138807
42	0x3d993c54	0.0748221
43	0xbe0a5636	-0.1350945
44	0xbd97d9af	-0.07414567
45	0x3e062b6c	0.13102502
46	0x3dfaa6f1	0.12238873
47	0x3da559a0	0.08073735
48	0xbbc49946	-0.005999717
49	0x3dc91cf2	0.09819974
50	0xbcef7b00	-0.029233456
51	0x3c41d7fe	0.011831282
52	0x3dedd339	0.11612553
53	0xbd2ae093	-0.041718077
54	0x3e235f29	0.1595427
55	0x3e05eb45	0.1307803
56	0x3d2a3e5f	0.041563388
57	0x3c43e8c9	0.011957356
58	0x3e16492e	0.14676353
59	0x3d99cf5e	0.07510255
60	0x3e0593b5	0.13044627
61	0x3e336b9a	0.17521515
62	0x3dfbceaa	0.122952774
63	0x3d849495	0.06473652
64	0x3dfbb9ef	0.122913234
65	0x3d8445e3	0.06458642
66	0xbd1529af	-0.036416706
67	0x3e03b052	0.1286023
68	0x3d7518bc	0.05983804
69	0x3dccea83	0.10005667
70	0x3db08d83	0.08620741
71	0xbd8f7d3a	-0.07006307
72	0x3c0b912f	0.008518501
73	0x3db926a2	0.09040572
74	0x3b6cc52e	0.003612827
75	0xbd04841e	-0.03235256
76	0xbe1d7482	-0.15376475
77	0xbe0d67ac	-0.13809079
78	0x39db09d6	0.00041778263
79	0x3e1d06f2	0.1533468
80	0x3e494853	0.19656496
81	0x3cc6423f	0.02420151
82	0x3ddc2e30	0.10750997
83	0xbd30db04	-0.04317762
84	0xbe27cd0e	-0.16386816
85	0x3c10bba3	0.008833799
86	0xbc6dbad8	-0.014509879
87	0x3d8fb300	0.070165634
88	0x3dceee84	0.10104087
89	0x3da88d4c	0.08230075
90	0xbdbf09fb	-0.093280755
91	0x3d8eca1b	0.06972142
92	0x3dc8b966	0.09800987
93	0x3e732e89	0.2374822
94	0xbc24afe9	-0.010051706
95	0xbe2ba97b	-0.1676387
96	0x3e7d1539	0.24715127
97	0x3e1e2a22	0.1544576
98	0xbc8760b8	-0.016525611
99	0xbd3a2ee3	-0.04545487
100	0x3d15befe	0.036559097
101	0x3c7f187c	0.015569802
102	0x3dfcda0a	0.12346275
103	0xbde3a78c	-0.111159414
104	0xbcc23e6a	-0.023711402
105	0x3e19f0a7	0.15033208
106	0xbdcc88a0	-0.09986997
107	0x3d48d2d2	0.04902918
108	0x3d4fe167	0.05075207
109	0x3e6c4f46	0.23077115
110	0xbd586b0b	-0.05283646
111	0x3df1e5d6	0.11811416
112	0xbd595e32	-0.053068347
113	0x3e1d197e	0.15341756
114	0xbd227bcc	-0.039668843
115	0x3e6377ec	0.22213715
116	0x3cf71683	0.030162102
117	0x3e33c2f2	0.17554834
118	0x3e1ece7b	0.15508454
119	0x3e858e3c	0.2608508
120	0x3ebcbb3c	0.36861598
121	0x3d2c3ede	0.042052142
122	0xbc8d37f6	-0.017238598
123	0xbd6d2452	-0.057895966
124	0xbdf8ed89	-0.12154681
125	0x3e6fb29a	0.23407975
126	0xbc43dbe8	-0.011954285
127	0x3d915d3c	0.07097861

decoder_lstm.weight_ih_l0 f4 [64, 32]
0	0x3d77f0da	0.06053243
1	0xbeb195e8	-0.34684682
2	0xbea23035	-0.31677404
3	0x3e311580	0.17293358
4	0xbe74ca03	-0.23905186
5	0x3ea2b0e8	0.31775594
6	0xbe1ac103	-0.1511269
7	0x3e052827	0.13003598
8	0xbe1016a4	-0.14071137
9	0x3cdd4b3e	0.027013417
10	0x3e909cac	0.2824453
11	0xbe98273a	-0.29717427
12	0xbde77f69	-0.113035984
13	0x3e4a074c	0.19729346
14	0x3f0b30c1	0.5437127
15	0x3e41622e	0.18885109
16	0xbcdebbd6	-0.027189177
17	0xbec350f4	-0.381477
18	0x3ed43f76	0.41454667
19	0x3e144b55	0.14481862
20	0xbeced289	-0.40395
21	0x3e2bc3c3	0.16773896
22	0xbddd29ee	-0.10799013
23	0x3ea1dc1a	0.31613237
24	0xbdcc060f	-0.09962093
25	0xbdfff776	-0.12498371
26	0xbda430b2	-0.080171004
27	0x3ea645bc	0.32475078
28	0x3edbe0be	0.42944902
29	0x3dc397d6	0.09550445
30	0x3ebee7a9	0.37286118
31	0xbf08b280	-0.5339737
32	0x3ddf7933	0.10911789
33	0x3d357759	0.044303272
34	0xbea48ce2	-0.32138735
35	0x3df00b32	0.11720885
36	0x3d5a5ddf	0.05331218
37	0x3e919bca	0.2843917
38	0xbe08a35a	-0.13343564
39	0x3e47ad9b	0.19499819
40	0xb9d77752	-0.00041096896
41	0x3e9186e7	0.28423235
42	0x3ea01f42	0.31273848
43	0xbe9ea7e7	-0.30987474
44	0xbcac7b39	-0.02105485
45	0x3e66cc78	0.22538936
46	0x3e7757da	0.24154606
47	0xbb409ff8	-0.0029392224
48	0xbebc6037	-0.36792156
49	0x3d6d2b21	0.05790246
50	0x3eb7fb84	0.3593408
51	0x3d93b207	0.072116904
52	0xbf1148ec	-0.56751895
53	0x3e5be656	0.21474585
54	0xbebe52d1	-0.3717256
55	0xbd51be40	-0.051206827
56	0xbb91b98b	-0.0044471673
57	0xbe86ad47	-0.26304075
58	0xbd8765fc	-0.06611249
59	0x3d968fec	0.0735167
60	0x3de665f1	0.112499125
61	0xbe915fb1	-0.2839332
62	0x3e43e992	0.19132069
63	0xbea4594e	-0.32099384
64	0xbddcb776	-0.1077718
65	0xbe163c87	-0.14671527
66	0xbd9e5e7a	-0.07732864
67	0x3dd681ae	0.10473953
68	0x3d7eb0b5	0.06218024
69	0x3e806fe0	0.25085354
70	0x3e471ba5	0.1944414
71	0xbe2d7f8f	-0.16943191
72	0xbe44618a	-0.19177833
73	0x3e52f4d2	0.20601204
74	0x3e57cec0	0.21074963
75	0x3c392ee3	0.011302683
76	0x3e0d073e	0.13772294
77	0x3c87d7ec	0.016582452
78	0x3e801c6a	0.25021678
79	0x3c53c843	0.012926164
80	0x3e7627a6	0.24038562
81	0xbdbb95b1	-0.09159411
82	0xbdae71d9	-0.085178085
83	0xbda26805	-0.079299964
84	0x3d98e8d0	0.074662805
85	0x3e59e569	0.2127892
86	0xbe973efc	-0.2954024
87	0xbd9225de	-0.07136129
88	0x3d443ec6	0.047911428
89	0xbe4f0292	-0.20215824
90	0x3d527e1b	0.051389795
91	0x3e50b1e7	0.20380364
92	0xbe114645	-0.14186962
93	0xbe5ecbc2	-0.21757415
94	0x3e440cf2	0.19145563
95	0xbda0e9b4	-0.07857075
96	0xbe1e540e	-0.15461752
97	0xbd87b0b8	-0.06625503
98	0x3db46ee5	0.08810214
99	0xbd55bfd3	-0.05218489
100	0x3e83d3dc	0.25747573
101	0x3e789617	0.24276005
102	0x3e1dfe83	0.1542912
103	0x3e97497e	0.29548258
104	0xbc27993f	-0.010229408
105	0x3e85b81b	0.26117024
106	0x3dde2cc2	0.108483806
107	0x3e5c96a7	0.21541844
108	0xbe17726d	-0.14789744
109	0xbe096c17	-0.13420139
110	0xbe21163d	-0.1573114
111	0xbe10c6f9	-0.14138402
112	0x3ba08e96	0.00489981
113	0xbd8cab49	-0.068686076
114	0xbc01483a	-0.007890755
115	0x3de5eb5f	0.11226534
116	0x3d9a4cb7	0.075341634
117	0xbdb4e078	-0.088318765
118	0x3d679320	0.056536794
119	0xbdcc7aeb	-0.09984382
120	0x3e590656	0.21193823
121	0xbe6c497a	-0.23074904
122	0x3d3c3a81	0.04595423
123	0xbb611480	-0.0034344494
124	0xbd5814c9	-0.052754197
125	0x3e7c3f44	0.24633509
126	0x3e8a720b	0.27040133
127	0x3d094e8a	0.033522166
128	0x3e2c619b	0.16834109
129	0x3e7f9a62	0.24961236
130	0x3e170d82	0.14751247
131	0x3df2dadd	0.11858151
132	0xbe14bf07	-0.14525996
133	0xbdf1c099	-0.11804313
134	0x3f0f56f5	0.5599206
135	0x3d11cd9e	0.035596482
136	0x3e84460c	0.25834692
137	0x3e8d40fe	0.27588648
138	0x3eec95f6	0.4620816
139	0x3c0d0160	0.008606285
140	0xbeb92e92	-0.36168343
141	0xbe5a1ed8	-0.21300828
142	0x3e8fd7d3	0.28094348
143	0x3e66356e	0.2248132
144	0xbe3540cd	-0.17700501
145	0xbf03fa3e	-0.51553714
146	0x3ecd7f6c	0.40136278
147	0x3e8c9866	0.2746002
148	0xbdb48d60	-0.08816028
149	0x3ec46cbb	0.38364205
150	0xbed24ef3	-0.41075858
151	0xbdb0faed	-0.0864161
152	0x3be416a5	0.0069607073
153	0xbdc30e45	-0.09524206
154	0xbe619012	-0.22027615
155	0x3e842a45	0.258135
156	0x3e6e8a2f	0.232949
157	0x3cd30748	0.025760308
158	0x3eaf0cc5	0.3418943
159	0xbef91b43	-0.48653612
160	0x3e1e2952	0.1544545
161	0xbc6fe5ec	-0.01464222
162	0xbe18612f	-0.14880823
163	0x3eec57f2	0.46160847
164	0xbed5d3c7	-0.41763136
165	0x3e715026	0.2356573
166	0x3f000fbb	0.50024
167	0x3ec440e5	0.3833076
168	0x3d707b67	0.058711436
169	0x3e0d1e24	0.13781029
170	0x3eb67ab6	0.35640496
171	0xbe6040ba	-0.21899691
172	0x3d2be1bb	0.04196332
173	0x3dd412a4	0.10355118
174	0x3e16266e	0.14663097
175	0x3ea793ba	0.32729894
176	0xbe3576fc	-0.1772117
177	0xbeffc0a9	-0.49951676
178	0x3e301b25	0.17197855
179	0x3e4c1e5e	0.19933459
180	0xbe9019a8	-0.28144574
181	0x3e3869dd	0.18009134
182	0xbeec1f9c	-0.46117866
183	0x3daa92d9	0.0832879
184	0x3e3b7b93	0.18308859
185	0xbecf66c6	-0.40508097
186	0xbe618ff3	-0.22027569
187	0x3e0d748b	0.13813989
188	0x3edd7abd	0.43257704
189	0x3d16c6a5	0.036810536
190	0x3e9e4539	0.30912188
191	0xbe8edb6d	-0.27901784
192	0xbdb42f98	-0.0879814
193	0xbe8a9d3a	-0.2707308
194	0xbe1e7f1a	-0.15478173
195	0x3e61b7b3	0.22042732
196	0xbd9cff6e	-0.07665907
197	0x3e706955	0.23477681
198	0x3e99175c	0.29900634
199	0x3ed7e8af	0.4216971
200	0xbe906e2d	-0.28209057
201	0xbcd52d75	-0.026022652
202	0x3f00d4cc	0.503247
203	0xbea78d92	-0.32725197
204	0xbc5c0aad	-0.01343028
205	0x3e688aa9	0.22709145
206	0x3ef4163b	0.4767321
207	0x3f089126	0.5334648
208	0xbd91a920	-0.07112336
209	0xbd6c19a1	-0.05764163
210	0x3f21d601	0.6321717
211	0x3e973a37	0.29536602
212	0xbe2a6f82	-0.166441
213	0x3d704cb4	0.0586669
214	0xbee8a843	-0.45440874
215	0x3d217677	0.039419618
216	0x3dc71a45	0.097218074
217	0xbf0c51cf	-0.5481233
218	0x3df54a9e	0.11977123
219	0x3ea3a987	0.31965277
220	0x3ef69c45	0.481661
221	0x3ec6a74f	0.3879952
222	0x3f166609	0.58749443
223	0xbe9617e2	-0.29315096
224	0xbe385690	-0.18001771
225	0xbe8aa5ea	-0.27079707
226	0xbe9e6999	-0.3093994
227	0x3ec3359c	0.38126838
228	0x3e056567	0.13026963
229	0xbd6cefdc	-0.057845935
230	0xbbabb7be	-0.0052404096
231	0xbac54425	-0.0015050216
232	0x3c856c4a	0.016286988
233	0x3eed3203	0.46327218
234	0x3eef24f5	0.46707883
235	0xbdc19fb3	-0.09454288
236	0xbed63da9	-0.41843918
237	0x3d8c0997	0.068377666
238	0x3f07e4ff	0.53083795
239	0x3f031da3	0.512171
240	0xbd5b8187	-0.053590324
241	0xbe903788	-0.28167367
242	0x3f011faa	0.5043894
243	0x3e05d285	0.13068588
244	0xbe19e3d3	-0.15028314
245	0x3e8e261c	0.2776345
246	0xbe92bfe6	-0.28662032
247	0x3eab473e	0.3345279
248	0x3ed18394	0.409207
249	0xbefbc328	-0.4917233
250	0xbe650431	-0.2236488
251	0x3eb71255	0.35756174
252	0x3e88f65b	0.26750454
253	0x3e91ca7e	0.28474802
254	0x3f142f59	0.57884747
255	0xbe2e3e7a	-0.1701602

decoder_lstm.weight_hh_l0 f4 [64, 16]
0	0xbeaddc59	-0.33957174
1	0xbe0856b1	-0.1331432
2	0x3e50a5af	0.20375703
3	0x3f06baeb	0.52628964
4	0xbe23f9c7	-0.16013251
5	0x3e1501a2	0.14551404
6	0x3e338790	0.17532182
7	0xbe86b979	-0.2631338
8	0x3ed2a5e3	0.41142187
9	0xbdfce3a5	-0.12348107
10	0x3da94556	0.08265178
11	0xbca8e8ca	-0.020618815
12	0xbed4b5ff	-0.41545102
13	0xbdd5c283	-0.10437491
14	0xbe9a04bc	-0.30081737
15	0x3ededbb2	0.4352699
16	0xbe92f2c0	-0.2870083
17	0xbe92ffd9	-0.2871082
18	0x3c8430df	0.016136585
19	0xbdc1def7	-0.09466355
20	0xbed306fc	-0.41216266
21	0x3e8e3ae6	0.2777931
22	0xbd666432	-0.056247897
23	0x3df8465c	0.12122795
24	0x3e7c1373	0.24616794
25	0x3d1a8c99	0.03773174
26	0xbeaa09f8	-0.3321073
27	0xbea72a6f	-0.32649562
28	0x3dddc0b5	0.108277716
29	0x3cf1d774	0.029521681
30	0xbe93f3ad	-0.28896847
31	0x3d8a1d44	0.06743863
32	0x3bba4643	0.0056846454
33	0xbe931fc4	-0.28735173
34	0x3dd9b6ce	0.1063057
35	0x3d9d2550	0.076731324
36	0xbe3cb57b	-0.18428604
37	0xbcb5820e	-0.022156741
38	0xbd95819a	-0.0730011
39	0xbc0d4b57	-0.008623919
40	0x3dddef44	0.10836652
41	0xba5a8116	-0.00083352753
42	0x3dff1c88	0.12456614
43	0xbe0fc772	-0.14040926
44	0xbcc9921e	-0.024605807
45	0x3c81528e	0.015786435
46	0x3e03ee30	0.1288383
47	0x3e0fb815	0.14035065
48	0xbd963369	-0.073340245
49	0xbab3b86b	-0.0013711577
50	0x3cac63ed	0.021043742
51	0x3db8663c	0.09003875
52	0xbcfbe7da	-0.030750204
53	0x3ec0dcbf	0.37668416
54	0xbcdfc490	-0.027315408
55	0x3e229161	0.1587577
56	0x3e9cd5d6	0.30631894
57	0xbd9fc878	-0.07801908
58	0xbdf7db15	-0.121023335
59	0xbdb7f42b	-0.08982118
60	0xbe731d5f	-0.23741673
61	0x3d8ce6e0	0.068799734
62	0x3df4ec7b	0.119591676
63	0x3ae72667	0.0017635346
64	0x3d17b358	0.03703627
65	0xbea440f3	-0.32080802
66	0x3eced5ba	0.40397435
67	0x3e723ad9	0.23655261
68	0xbe1087fa	-0.14114371
69	0x3eab41f9	0.3344877
70	0xbd677e43	-0.056516897
71	0x3eae1e95	0.34007707
72	0x3dc8bb17	0.098013096
73	0xbd52c37a	-0.051455952
74	0x3cc42cad	0.023947084
75	0x3e5f2ef2	0.21795252
76	0xbeb3b3c9	-0.35098103
77	0x3ebbbf64	0.36669457
78	0xbc1c3f07	-0.009536511
79	0x3ea09a0e	0.31367534
80	0xbe61fc2f	-0.22068857
81	0xbe77b0e3	-0.2418857
82	0x3eb4e597	0.35331413
83	0x3ee203e0	0.4414358
84	0xbebdf9dd	-0.37104693
85	0x3f0a55e9	0.5403734
86	0x3e0ab400	0.13545227
87	0x3d99eadb	0.07515498
88	0x3ebad209	0.3648837
89	0xbecff2c3	-0.406149
90	0x3e01c5d0	0.12673116
91	0xbeb577ef	-0.35443065
92	0xbeacac55	-0.3372523
93	0x3ebc93ab	0.36831412
94	0xbe985f61	-0.29760268
95	0x3e87edb7	0.2654855
96	0x3d0d1b6f	0.03444999
97	0xbf0f3bfd	-0.5595091
98	0x3e146862	0.14492944
99	0x3e85b1b5	0.26112142
100	0xbe839a92	-0.25703865
101	0xbd1d73e2	-0.038440593
102	0x3d122932	0.03568382
103	0xbeb16adf	-0.3465185
104	0x3e8765c0	0.26444817
105	0xbe273961	-0.16330482
106	0xbe1bdd51	-0.15221144
107	0x3e328d96	0.17436823
108	0xbee8cdf3	-0.45469627
109	0x3eada84b	0.3391746
110	0xbe3e9dcf	-0.18614887
111	0x3e997fea	0.29980403
112	0xbeb8dcf8	-0.36106086
113	0xbe696949	-0.2279407
114	0x3eaf8926	0.34284323
115	0x3e6dbe06	0.2321702
116	0xbdc22c9b	-0.09481164
117	0x3e2ee0ea	0.17077985
118	0xbe32eb92	-0.17472675
119	0x3e0fe0db	0.1405062
120	0x3e45e56d	0.193258
121	0xbd39c96b	-0.045358103
122	0xbe3b6988	-0.18301976
123	0xbe1a264f	-0.15053676
124	0xbd094844	-0.033516183
125	0xbd588af2	-0.052866884
126	0xbe44794f	-0.191869
127	0x3e0fab35	0.14030154
128	0xbd90e32e	-0.07074581
129	0x3d6bd873	0.05757947
130	0xbe12087a	-0.14261046
131	0x3e481a6f	0.19541334
132	0xbe8a12be	-0.26967424
133	0xbe2664eb	-0.16249435
134	0x3d128d4a	0.035779275
135	0xbd8d559c	-0.06901094
136	0x3c829457	0.015939875
137	0x3e868358	0.26272082
138	0xbe1dde71	-0.15416886
139	0x3de3623e	0.111027226
140	0xbdd39455	-0.103310265
141	0x3d873496	0.06601827
142	0xbc80f04c	-0.015739582
143	0xbc87d078	-0.016578898
144	0xbe44b3db	-0.19209234
145	0xbd8bf481	-0.06833745
146	0x3edd21b4	0.43189776
147	0x3e1620c1	0.14660932
148	0xbeb86d62	-0.36020952
149	0x3e20744e	0.15669367
150	0x3d95bf09	0.07311828
151	0x3dbdddd2	0.092708245
152	0x3ed5b8d5	0.41742578
153	0xbd1c7d2f	-0.038205322
154	0xbe87ed21	-0.26548102
155	0xbe59f95b	-0.21286528
156	0xbda32f6f	-0.079680316
157	0xbbe4faa8	-0.0069878884
158	0x3ce5d29d	0.02805453
159	0x3c36307d	0.011119959
160	0xbe7bad41	-0.2457781
161	0xbe734f6f	-0.2376077
162	0x3e61c3a7	0.22047292
163	0x3ea17da0	0.31541157
164	0x3d9b1f68	0.0757435
165	0xbe1617d6	-0.1465753
166	0xbe0b7971	-0.13620545
167	0xbe1f176a	-0.15536276
168	0x3f02febe	0.51169956
169	0x3e3a0792	0.1816695
170	0xbeadc561	-0.3393965
171	0xbdd23e62	-0.10265805
172	0xbe4deb5e	-0.20109317
173	0xbe05cad2	-0.13065651
174	0xbece9bf3	-0.40353355
175	0x3ea4d593	0.32194194
176	0xbe95e841	-0.29278758
177	0xbe0c1c3d	-0.13682647
178	0x3e6e2bd2	0.23258904
179	0x3e650d6a	0.22368398
180	0xbe04c11a	-0.12964287
181	0x3dcd3705	0.1002026
182	0x3dacafa1	0.08431936
183	0x3cd2c36a	0.025727946
184	0x3e50af60	0.203794
185	0xbe469063	-0.19391017
186	0x3e211983	0.15732388
187	0x3e3485fa	0.17629233
188	0xbea6308d	-0.32458916
189	0x3db21d0b	0.08696946
190	0xbe816fe9	-0.25280693
191	0x3edbcbad	0.4292883
192	0xbedafcc0	-0.42770958
193	0x3d3ce329	0.046115074
194	0x3ea4ac1c	0.3216256
195	0x3f034499	0.51276547
196	0xbda44257	-0.08020466
197	0x3e85b706	0.26116198
198	0x3e32fffe	0.17480466
199	0x3bc80441	0.0061040227
200	0x3d558ea3	0.052137982
201	0xbd4b538a	-0.049640216
202	0xbe0fb4e5	-0.1403385
203	0xbe5e4824	-0.21707207
204	0xbdbe3837	-0.09288066
205	0x3e7d9070	0.2476213
206	0x3d8b53ac	0.068030685
207	0x3e5c229f	0.21497582
208	0xbed01009	-0.40637234
209	0xbe9007ae	-0.2813086
210	0x3e3f03bc	0.18653768
211	0x3e6a5088	0.22882283
212	0xbe829a9a	-0.25508577
213	0x3ed0b6fc	0.40764606
214	0x3eb49e54	0.35277045
215	0xbeb56081	-0.3542519
216	0x3ec528c5	0.38507667
217	0xbe753c60	-0.23948812
218	0xbe916918	-0.28400493
219	0x3e9cc473	0.3061863
220	0xbe63efc5	-0.22259434
221	0xbead1d40	-0.33811378
222	0xbef9f83f	-0.4882221
223	0x3ea6d4b5	0.32584158
224	0x3e63b544	0.22237116
225	0xbed83b80	-0.42232895
226	0x3e9a763d	0.30168334
227	0x3ed362ea	0.41286403
228	0x3de02bda	0.10945864
229	0xbdac80ec	-0.084230274
230	0x3d2e4885	0.04254963
231	0x3da3d0c2	0.07998802
232	0x3eb3153f	0.34977147
233	0x3cd1b11b	0.025597146
234	0x3c89c4b3	0.016817426
235	0x3e9cad8d	0.3060116
236	0xbd1a6732	-0.03769607
237	0x3e4bc416	0.1989902
238	0xbd1b8824	-0.03797163
239	0x3ed05738	0.40691543
240	0xbdd78763	-0.1052387
241	0xbeae8a26	-0.34089774
242	0x3f0f13e7	0.55889744
243	0x3e1233c9	0.14277567
244	0xbea67943	-0.3251439
245	0xbd1dc7aa	-0.038520493
246	0x3e27fb64	0.16404492
247	0x3d332c51	0.043743435
248	0x3f1c4f83	0.61058825
249	0xbdd522ec	-0.104070514
250	0xbd0a0777	-0.033698525
251	0x3ec23d30	0.37937307
252	0xbec1264d	-0.37724534
253	0x3efc1609	0.4923556
254	0xbf18eaa2	-0.5973302
255	0x3ed1a5be	0.40946764

decoder_lstm.bias_ih_l0 f4 [64]
0	0x3e9182f1	0.28420213
1	0x3e0d32b5	0.13788874
2	0x3e8e22df	0.2776098
3	0xbd91c2e9	-0.07117254
4	0x3e3db43e	0.18525788
5	0x3e47d70a	0.19515625
6	0x3e8592e4	0.2608863
7	0x3e7f526b	0.24933784
8	0x3d90e19f	0.07074284
9	0xbda8b3d1	-0.08237422
10	0x3ee03d98	0.43796992
11	0x3e866c39	0.26254442
12	0x3eb50435	0.35354772
13	0x3e925f13	0.2858816
14	0x3e97955b	0.29606137
15	0x3dbe4532	0.09290542
16	0x3d31d26d	0.04341357
17	0x3e40efd4	0.18841487
18	0x3e894b6f	0.26815364
19	0x3d875a17	0.0660898
20	0x3dc0c6c6	0.09412913
21	0xbe41922e	-0.1890342
22	0xbe49e03b	-0.19714443
23	0x3e2dfb08	0.16990292
24	0x3d115c9d	0.035488714
25	0x3e840375	0.25783888
26	0xbdbd0635	-0.092296995
27	0x3dace798	0.084426105
28	0x3e2c58cf	0.16830753
29	0x3e021c57	0.12706123
30	0xbe1d7b53	-0.15379076
31	0x3d3cd17a	0.04609821
32	0x3d006afc	0.03135203
33	0xbe58983b	-0.21151821
34	0x3e6376ba	0.2221326
35	0xbd23c6a3	-0.039984357
36	0xbd17d3d0	-0.037067235
37	0xbdecaac8	-0.115560114
38	0xbe4af48a	-0.19819847
39	0x3ba4e021	0.005031601
40	0x3e2927eb	0.16519134
41	0x3e29d5cb	0.16585462
42	0x3e7d5a6b	0.24741523
43	0x3d26644f	0.040623005
44	0xbc4d0559	-0.012513482
45	0x3e44061d	0.19142957
46	0x3d0af7a0	0.03392756
47	0x3e59bf5c	0.21264404
48	0x3ef66933	0.48127136
49	0x3e30cfa1	0.17266704
50	0xbe161529	-0.1465651
51	0xbe1dc4e0	-0.15407133
52	0x3db88100	0.0900898
53	0x3daa0d90	0.08303368
54	0x3ebbf390	0.3670926
55	0x3c40cff6	0.011768332
56	0x3ddb8d78	0.107203424
57	0xbd4cc89e	-0.04999601
58	0x3dcfd20c	0.10147485
59	0x3ef5a9bb	0.47981057
60	0x3b4a5a54	0.0030876594
61	0x3cd1e31b	0.025620988
62	0x3e88345f	0.26602456
63	0x3e4a9cc8	0.1978637

decoder_lstm.bias_hh_l0 f4 [64]
0	0x3ef5e255	0.4802424
1	0x3e8ce68e	0.2751965
2	0x3de7761a	0.11301823
3	0x3de3c67b	0.111218415
4	0x3e16bddc	0.14720863
5	0x3e0429c8	0.12906563
6	0x3d865dfd	0.065608956
7	0x3ea94c63	0.3306609
8	0x3ddd4818	0.108047664
9	0x3e8c8378	0.27444053
10	0x3e05f8a0	0.13083124
11	0x3f06b278	0.5261607
12	0x3e45e185	0.1932431
13	0x3e1bd42f	0.1521766
14	0x3dd8259d	0.10554049
15	0x3e8c375d	0.2738599
16	0x3e3cf534	0.18452913
17	0xbe40520c	-0.18781298
18	0x3e0b19a3	0.13583998
19	0x3ea4ae97	0.3216445
20	0xbe691d55	-0.22765096
21	0xbd57f4ee	-0.052723818
22	0x3dfbf134	0.12301865
23	0x3caafe23	0.020873135
24	0x3eaf08bf	0.3418636
25	0x3e18db3e	0.14927384
26	0xbda037ed	-0.07823167
27	0xbdcbf304	-0.09958461
28	0xbda330cc	-0.07968292
29	0xbdd9dac6	-0.10637431
30	0x3e434ce2	0.19072297
31	0x3e441a29	0.19150604
32	0xbe721ba1	-0.23643352
33	0xbe1959eb	-0.14975707
34	0xbd332c77	-0.043743577
35	0x3db77640	0.08958101
36	0x3d86ccab	0.06582006
37	0x3e171ef0	0.14757895
38	0x3e5f19ae	0.2178714
39	0x3dd4f378	0.103980005
40	0x3d4ac66d	0.04950564
41	0xbdceaa77	-0.10091107
42	0xbe1abc34	-0.15110856
43	0xbc23659e	-0.009972958
44	0x3c16893b	0.009187992
45	0x3e20308b	0.15643518
46	0xbea1bb9f	-0.31588456
47	0x3de0c41d	0.10974906
48	0x3e0b2b7f	0.13590811
49	0xbe23d106	-0.15997705
50	0x3e57a9ba	0.2106084
51	0x3e855622	0.26042277
52	0x394408e1	0.00018695324
53	0x3e485c0e	0.19566366
54	0x3c02328b	0.007946621
55	0x3e80abde	0.25131124
56	0xbe7e1211	-0.2481158
57	0x3e9e586c	0.30926836
58	0xbcee97d7	-0.029125137
59	0x3eb7f110	0.35926104
60	0xbce9c662	-0.02853698
61	0x3d334202	0.04376412
62	0x3e8df813	0.27728328
63	0x3e3860a5	0.18005617

fc.weight f4 [20, 16]
0	0xbf710f9c	-0.94164443
1	0xbf44bfb5	-0.7685502
2	0xbf7c5618	-0.9856887
3	0xbeaf5c8c	-0.34250295
4	0xbf6969d7	-0.91177124
5	0x3f08674c	0.5328262
6	0x3ea12009	0.31469753
7	0x3f799636	0.9749483
8	0xbf16d8e3	-0.5892469
9	0x3f41ae8a	0.7565695
10	0xbec1161c	-0.3771218
11	0xbf7d0770	-0.98839474
12	0xbf68ee5d	-0.90988714
13	0xbf758010	-0.9589853
14	0x3f8ecc5a	1.1156113
15	0x3f079e09	0.5297552
16	0x3d84a228	0.06476241
17	0x3d72534f	0.05916148
18	0x3cc61fe5	0.02418513
19	0xbf06c5dc	-0.5264566
20	0x3eb28b6d	0.34871998
21	0x3e4379b6	0.19089398
22	0xbe393232	-0.18085554
23	0xbda3c36a	-0.07996257
24	0xbedd10b5	-0.4317681
25	0x3d915df5	0.07097999
26	0xbecb836f	-0.39748713
27	0x3ec29968	0.38007665
28	0xbe2d9530	-0.16951442
29	0x3d82a752	0.0637957
30	0x3d1cd950	0.038293183
31	0x3da2d906	0.0795155
32	0xbefad8a0	-0.48993397
33	0x3f257db0	0.6464491
34	0x3e8bd063	0.27307424
35	0x3e66b0e3	0.22528414
36	0xbf2d9f21	-0.67820936
37	0xbf10abb8	-0.5651202
38	0x3f11619b	0.5678956
39	0x3df4c662	0.11951901
40	0x3f063bb4	0.5243485
41	0x3eefd9ff	0.46846005
42	0xbf19ac09	-0.6002813
43	0xbe0a75b5	-0.13521464
44	0x3f55137d	0.8323286
45	0xbd79d5ce	-0.060994916
46	0xbe8f1b7f	-0.27950665
47	0xbbe12fcc	-0.006872153
48	0xbf205510	-0.62629795
49	0xbe45ac4a	-0.19304004
50	0x3e3e1db4	0.18566018
51	0x3eb30e52	0.34971863
52	0xbf39ae45	-0.7253154
53	0xbf9c1196	-1.2192867
54	0xbf4ea5fc	-0.8072202
55	0xbea950c7	-0.3306944
56	0x3e4e076f	0.20120023
57	0xbeccb6b9	-0.39983156
58	0x3ee44ec9	0.44591358
59	0x3f125e86	0.5717548
60	0xbe82351b	-0.2543114
61	0x3f0f005a	0.5585991
62	0x3e0de704	0.13857657
63	0x3edce7f8	0.43145728
64	0x3c9f4d98	0.01944618
65	0x3e322487	0.17396747
66	0xbe1be964	-0.1522575
67	0xbe2d1b69	-0.16904987
68	0x3aec049b	0.0018006744
69	0xbecf3c25	-0.40475574
70	0xbe2b87d0	-0.16751027
71	0x3df8af5f	0.121428244
72	0xbee34400	-0.44387817
73	0xbdd4e889	-0.10395915
74	0x3ddb1be8	0.10698682
75	0x3dfeea77	0.12447064
76	0x3ebef086	0.3729288
77	0x3e0320f4	0.1280554
78	0x3e87830a	0.26467162
79	0xbe824984	-0.25446713
80	0x3e7595f5	0.23982985
81	0x3e4d839b	0.20069735
82	0xbd1a98b0	-0.03774327
83	0x3df3466d	0.11878667
84	0x3d8a00b9	0.06738419
85	0xbdcb9621	-0.09940744
86	0xbe51ba89	-0.20481314
87	0xbe859be2	-0.26095492
88	0xbe67bd83	-0.22630887
89	0x3e1d495c	0.15360016
90	0x3ec21e59	0.37913778
91	0x3d9dc74f	0.07704031
92	0x3ebe76fb	0.3720015
93	0x3d27a0bb	0.04092477
94	0x3d201f6d	0.03909247
95	0xbe8348c3	-0.2564145
96	0x3f2504cc	0.64460444
97	0x3deea6ca	0.11652906
98	0xbe118b52	-0.14213303
99	0xbe84f6a1	-0.25969413
100	0x3e7b213d	0.24524398
101	0x3c2335f4	0.009961594
102	0xbe7bfb2f	-0.24607538
103	0xbf074502	-0.5283967
104	0xbe2d9afa	-0.1695365
105	0xba18bd04	-0.00058265054
106	0x3cc4802a	0.023986895
107	0x3e7e9e89	0.24865164
108	0xbe909a64	-0.2824279
109	0xbf51daaf	-0.8197431
110	0x3e9ac045	0.30224815
111	0x3e584d9f	0.2112336
112	0xbd1cae03	-0.038251888
113	0xbe1aaa63	-0.1510406
114	0x3e6a4c09	0.22880568
115	0x3ef90bd0	0.48641825
116	0x3ea62d62	0.324565
117	0xbf4c9f8d	-0.79930955
118	0x3f126c88	0.57196856
119	0xbe8df413	-0.27725276
120	0x3e092b3a	0.13395396
121	0xbec21068	-0.37903142
122	0x3e73a872	0.23794726
123	0x3ea03f2a	0.3129819
124	0x3f135d91	0.57564646
125	0x3f6bcf13	0.92112845
126	0xbe9947b5	-0.2993752
127	0xbe97a2b0	-0.29616308
128	0x3f5674f6	0.8377222
129	0xbe71d3cd	-0.23615952
130	0x3ea8e8b5	0.3299004
131	0x3f136a5b	0.5758416
132	0xbf10bae5	-0.5653518
133	0x3f1aebdb	0.60516137
134	0x3f4c0508	0.7969518
135	0x3f16ba17	0.588777
136	0x3f029fdb	0.5102517
137	0xbeedc4ac	-0.4643911
138	0x3f1fab53	0.62370795
139	0xbf0fd1ef	-0.5617971
140	0xbf065ab7	-0.5248217
141	0xbf5f6402	-0.87261975
142	0xbdf50b3b	-0.11965033
143	0xbf441ca1	-0.76606184
144	0xbeb0b631	-0.34514
145	0x3f21cbf9	0.6320186
146	0x3ed67e33	0.41893157
147	0x3f0d5009	0.5520025
148	0xbec474c7	-0.38370344
149	0x3f96e73a	1.1789315
150	0xbe65f2bc	-0.22455877
151	0x3f6f8233	0.93558043
152	0xbf81d3d0	-1.0142765
153	0x3e9bb691	0.30412725
154	0xbee036dd	-0.43791857
155	0xbeaa4537	-0.33255932
156	0x3f1b2bcc	0.60613704
157	0x3f80ac6c	1.0052619
158	0xbf119697	-0.56870407
159	0x3ed3fd92	0.41404396
160	0xbc60d4eb	-0.013722639
161	0xbe7e47f6	-0.24832138
162	0x3e38ef2a	0.18059984
163	0xbefa2adb	-0.4886082
164	0x3eafa7d2	0.34307724
165	0x3ecab638	0.39592147
166	0x3ee3ba25	0.44477955
167	0xbed9194e	-0.42402118
168	0x3e0fd623	0.1404653
169	0x3ecf49c9	0.4048598
170	0xbdd57160	-0.10422015
171	0x3e205449	0.15657152
172	0xbdeb6382	-0.11493589
173	0x3e0ba282	0.1363621
174	0xbe81d8f6	-0.2536084
175	0x3ec9c695	0.3940932
176	0x3e9ba9ef	0.30403087
177	0xbea7d2f5	-0.32778135
178	0x3d675b44	0.056483522
179	0xbf0cec4a	-0.5504805
180	0x3f6622c3	0.8989679
181	0x3f036052	0.5131885
182	0xbf283203	-0.6570131
183	0xbf103116	-0.563249
184	0xbed530ea	-0.4163888
185	0x3e0b9d45	0.13634212
186	0x3f485f94	0.7827084
187	0xbeb4a474	-0.35281718
188	0xbec9a6f5	-0.3938519
189	0xbedf5a46	-0.4362356
190	0x3f19bc41	0.6005288
191	0xbf4317a0	-0.76207924
192	0x3f18422b	0.59475964
193	0xbefa98c4	-0.48944676
194	0xbd7759ff	-0.06038856
195	0x3e1e1d74	0.15440923
196	0x3f17efb3	0.59350127
197	0x3e1c857c	0.15285295
198	0xbdf0c15c	-0.117556304
199	0xbe034e9c	-0.12822956
200	0x3ebfa7e3	0.37432775
201	0xbf096494	-0.53669095
202	0xbc215324	-0.009846482
203	0x3eab9d23	0.33518323
204	0xbecbd663	-0.39812002
205	0x3e70517d	0.23468585
206	0xbd4f4887	-0.050606277
207	0x3ebe8066	0.37207335
208	0x3f153dbd	0.5829733
209	0x3ea6bf36	0.32567757
210	0x3e0d8e52	0.13823822
211	0x3e54bc9f	0.20775078
212	0x3e40fc0b	0.18846147
213	0xbf516b07	-0.81803936
214	0xbf34be6e	-0.7060307
215	0xbed0cae2	-0.40779787
216	0xbeca4ad3	-0.3951021
217	0x3e61ccf2	0.22050837
218	0x3ca20fc6	0.019782912
219	0xbe722a28	-0.23648894
220	0xbe2f5810	-0.17123437
221	0x3ceef601	0.029170038
222	0xbeb236ef	-0.34807536
223	0x3ed718c7	0.4201109
224	0xbda9546f	-0.082680576
225	0x3efdf9ac	0.49604547
226	0xbe35a62b	-0.1773917
227	0x3da1fee2	0.07909943
228	0x3e460a5c	0.1933989
229	0xbf097159	-0.5368858
230	0x3ef32d6e	0.47495598
231	0xbedbae9f	-0.42906663
232	0x3e7e583f	0.2483835
233	0x3ee93a5b	0.45552334
234	0xbe437584	-0.19087797
235	0x3e2bda31	0.16782452
236	0xbd972f8e	-0.07382117
237	0xbc93d2d9	-0.018044876
238	0x3ddc6c67	0.107628636
239	0xbdcd52ca	-0.100255564
240	0x3eab6d91	0.3348203
241	0x3f02c906	0.5108799
242	0xbed98dff	-0.42491147
243	0xbeec6043	-0.46167192
244	0x3cf9a498	0.030473992
245	0xbe896153	-0.26832065
246	0x3bb9adae	0.005666456
247	0x3e5faabf	0.21842478
248	0xbed010e4	-0.40637887
249	0x3e509e3b	0.2037286
250	0xbd8f1d11	-0.06987966
251	0x3e3911a1	0.18073131
252	0x3e0a5991	0.1351073
253	0x3d2f0336	0.04272767
254	0x3dbe6f2c	0.09298548
255	0xbe0f3bfd	-0.13987727
