lstm_ckpts/lstm-epoch=00-train_loss=2.01.ckpt (torch, 336033 bytes, 33 tensors)

embedding.weight f4 [20, 128]
0	0x3edebb8f	0.4350247
1	0xbf5464b9	-0.8296619
2	0xbf90bc18	-1.1307402
3	0x3d5bc52a	0.053654827
4	0x3fa9acdb	1.3255876
5	0xbf7143b2	-0.9424392
6	0x3ee31a61	0.44356063
7	0x3f1f5e37	0.62253135
8	0xbe8bcdc0	-0.27305412
9	0xbebfb2ab	-0.37441
10	0xbeadec05	-0.3396913
11	0x3f2bdee2	0.6713697
12	0x3f134513	0.57527274
13	0x3f800e6c	1.0004401
14	0x3e54e063	0.20788722
15	0x3f52aeaf	0.82297796
16	0xbe1151ae	-0.14191315
17	0x3fe8fee8	1.8202791
18	0xbfc04b7a	-1.5023034
19	0x3dce9d82	0.10088636
20	0xbfbde88e	-1.4836595
21	0x3ff6818d	1.9258286
22	0x3f86fd6d	1.054609
23	0x3e5274f8	0.20552433
24	0xbfbbd322	-1.4673808
25	0xbcb4b9c8	-0.022061244
26	0xbf076d81	-0.52901465
27	0x3f54f95f	0.8319301
28	0xbe473c64	-0.19456631
29	0xbecaf00a	-0.3963626
30	0xbf8827d9	-1.063716
31	0xbfec990c	-1.8484206
32	0x3d3ce322	0.04611505
33	0x3ece7990	0.4032712
34	0x3f31fe13	0.6952831
35	0x3d9ca728	0.0764907
36	0x3fb3677d	1.4015957
37	0xbeeee309	-0.4665759
38	0xbe081c3b	-0.13292019
39	0xbfb65d3b	-1.4247202
40	0xbea613ab	-0.3243688
41	0x3efd1a7c	0.49434268
42	0x3fa83adf	1.3142966
43	0xbeda0b60	-0.42586803
44	0xbf228735	-0.6348756
45	0x3f72aafd	0.9479216
46	0x40164dfa	2.3485093
47	0x3e2b7158	0.16742456
48	0x3f3abf83	0.72948474
49	0xbea58c5e	-0.32333654
50	0xbea74a33	-0.32673797
51	0x3f467f05	0.77537566
52	0xc02c3428	-2.6906834
53	0x3f8c158f	1.0944079
54	0xbf49db05	-0.7884982
55	0x3fa0206a	1.2509892
56	0x3ce39130	0.027779192
57	0x3f81647d	1.0108792
58	0xbedfc663	-0.43706045
59	0xbf31e4c3	-0.6948969
60	0xbeaf0d13	-0.34189662
61	0xbf87ee5a	-1.0619614
62	0x3fb60ec6	1.4223258
63	0xc002d79c	-2.0444098
64	0x3e1d3db1	0.15355565
65	0xbf92ca89	-1.1468059
66	0xbeb2cd12	-0.3492208
67	0x3f99f5eb	1.2028173
68	0xbd6528b1	-0.05594701
69	0x3b66ef98	0.0035238024
70	0xbed88887	-0.42291662
71	0x3f712fa4	0.9421332
72	0x3ef5bd7d	0.4799613
73	0xbd6189ce	-0.05506306
74	0x3edd9c7a	0.43283445
75	0x3daa1a38	0.08305782
76	0x3dcd03b0	0.10010469
77	0x3f1baf9c	0.60814834
78	0x40030024	2.0468836
79	0x3dabc5b1	0.08387316
80	0x3e4bc728	0.19900191
81	0xbf850609	-1.0392467
82	0x3f659654	0.8968251
83	0x3f6e0a57	0.9298453
84	0xbfad5ad7	-1.3543347
85	0xbc92eaa5	-0.017934153
86	0x3efea7e2	0.4973746
87	0xbef4d2e7	-0.47817156
88	0x3f0e6750	0.5562639
89	0x3f433d16	0.76265085
90	0x3f682696	0.9068388
91	0x3f44b85a	0.768438
92	0x3faa9417	1.3326443
93	0x40003e2d	2.003795
94	0x3fc7cc3c	1.5609202
95	0x3f948d04	1.1605535
96	0xbed7a633	-0.42118987
97	0xbe9dade1	-0.30796722
98	0xbfa12265	-1.2588621
99	0xbc515350	-0.012776211
100	0xbf4ea3e8	-0.8071885
101	0x3d71d23b	0.059038382
102	0x3ffb06a1	1.9611398
103	0x4012d976	2.2945228
104	0xbf04101d	-0.51587087
105	0xbeecb770	-0.46233702
106	0xbfa62fd2	-1.2983344
107	0x3e82f273	0.255756
108	0xbbaecd7e	-0.005334555
109	0x3f13bfcf	0.5771455
110	0xbe8d7659	-0.27629355
111	0x3e51531e	0.20441863
112	0x3d7e5824	0.062095776
113	0xc00c89a5	-2.1959012
114	0xbfc7f60c	-1.5621963
115	0x3fe3a899	1.7785827
116	0x3ec745fe	0.38920587
117	0xbdf6724b	-0.120335184
118	0x3ec2ebee	0.38070625
119	0x3ebe4a05	0.37165847
120	0xbe94ded1	-0.29076245
121	0x3f60ded9	0.8784004
122	0xbd81db33	-0.06340637
123	0xbeb77b4c	-0.35836256
124	0xbf6b5d28	-0.9193902
125	0x3ee7ef49	0.45299748
126	0xbeb4fc29	-0.35348633
127	0xbff5dbc6	-1.9207695
128	0xbcfc08a3	-0.030765837
129	0x3f0994a2	0.5374242
130	0x3f0c45cf	0.5479402
131	0xbf43ae49	-0.76437813
132	0xbe9beff1	-0.30456498
133	0x3fa15d46	1.260659
134	0x3f6686df	0.90049547
135	0xbe025a11	-0.1272967
136	0xbfd0c944	-1.6311421
137	0xbea3095b	-0.31843075
138	0xbfa586e0	-1.2931786
139	0x3f5c5574	0.8606789
140	0xbd9e58dd	-0.07731793
141	0xbfcdb762	-1.6071589
142	0x3ea5c6ea	0.32378322
143	0x3f007913	0.50184745
144	0x3fa750ab	1.3071493
145	0x404d56a5	3.2084134
146	0xbecfc155	-0.40577188
147	0x3f65cee0	0.8976879
148	0x3eb60bf7	0.35556003
149	0xbfaa73c2	-1.3316576
150	0xbfa39129	-1.2778674
151	0x3f275592	0.65364945
152	0x3eac9ead	0.3371481
153	0x3f608c9e	0.87714565
154	0xbef98967	-0.48737642
155	0x3ec7ef43	0.3904973
156	0x3f3d700e	0.73999107
157	0x3f908f98	1.1293821
158	0x3e9628fa	0.29328138
159	0x3e54030f	0.20704292
160	0xbde801b6	-0.11328451
161	0x3d3f12f5	0.04664894
162	0x3d24cc9b	0.04023419
163	0x3f8aa733	1.0832275
164	0xbfcb7947	-1.5896386
165	0x3ef70172	0.4824329
166	0x3d1a6013	0.03768928
167	0xbf17ec77	-0.5934519
168	0x3e9649c3	0.2935315
169	0x3e35ef08	0.17766964
170	0x3ed0cc16	0.40780705
171	0xbfa09c8c	-1.2547774
172	0x3e9e5992	0.30927712
173	0xbf1f6f70	-0.62279415
174	0xbdd2ca13	-0.10292449
175	0x3cc92cfe	0.024557587
176	0xbee62523	-0.44950208
177	0x3f0f053e	0.55867374
178	0xbef4d6db	-0.47820172
179	0xbf5a979d	-0.85387594
180	0xc006c1e5	-2.1055844
181	0x3dd80716	0.105482265
182	0xbe1f9b2f	-0.15586542
183	0x3e558b07	0.20853816
184	0x3fcc8a2e	1.5979669
185	0xbe2b6abb	-0.16739933
186	0xbec05a97	-0.37569115
187	0xbd56f5d4	-0.052480534
188	0xbe2e5d4d	-0.17027779
189	0xbf45d126	-0.7727226
190	0xbf972be7	-1.1810273
191	0x3ebb6e6a	0.36607677
192	0x3d6745bd	0.056462992
193	0xbfd2bf54	-1.6464639
194	0xbda385b9	-0.0798449
195	0x3f84804e	1.0351655
196	0xc0066e22	-2.100472
197	0x3faa3fb4	1.3300691
198	0x3dea803f	0.11450242
199	0x3e3ee11f	0.18640564
200	0x3f54982b	0.8304469
201	0xbde63da4	-0.11242226
202	0x3f703a63	0.9383909
203	0xbf2bd0ea	-0.6711565
204	0x3f76c1a2	0.9638921
205	0x3f70dd58	0.94087744
206	0xbfb923f1	-1.4464093
207	0x3f51a73d	0.8189581
208	0x3fbb89b5	1.46514
209	0x3ff2ccdf	1.8968772
210	0x3e861530	0.2618804
211	0x3ed8f0bf	0.42371175
212	0x3f3f43df	0.7471294
213	0x3f9175a4	1.1364026
214	0x3e8728d0	0.26398325
215	0x3e0a28f3	0.13492183
216	0x3fea1aa7	1.8289384
217	0x3f63a0cc	0.8891723
218	0x3dc2350b	0.094827734
219	0xbf758bc9	-0.9591642
220	0xbf30a772	-0.690055
221	0xbf8d544b	-1.1041349
222	0x3f34d747	0.7064099
223	0xbe74fd73	-0.23924808
224	0xbf88b1c3	-1.0679249
225	0xbf98773c	-1.1911387
226	0x3f7ebc16	0.99505746
227	0x3e1963ec	0.14979523
228	0xbf288966	-0.65834653
229	0x3eb849ee	0.35993904
230	0x3ff3ffd1	1.9062444
231	0xbe35fcaf	-0.17772172
232	0xbe100e95	-0.14068063
233	0x3ecc18fd	0.39862815
234	0xbf05e2c3	-0.52299136
235	0xbf12d089	-0.5734945
236	0xbf5bcfaf	-0.85863775
237	0xbf82c81d	-1.021732
238	0x401fcfeb	2.4970653
239	0xbed14342	-0.40871626
240	0xc01e6eea	-2.4755197
241	0x3f5049f2	0.8136283
242	0xbe187eb5	-0.14892085
243	0x3f0ca166	0.54933774
244	0xbece3b3f	-0.40279576
245	0xbf9c2a2f	-1.2200373
246	0xbf32b0b7	-0.69800895
247	0x3e54ac35	0.20768817
248	0x3fb5a113	1.4189781
249	0x3f7f57d4	0.9974339
250	0xbf6aaca5	-0.91669685
251	0xbc9717bd	-0.018443936
252	0xbf2a0560	-0.6641445
253	0xbf8bbd1a	-1.0917084
254	0x403d0059	2.9531462
255	0xbfcacd0d	-1.5843827

encoder_lstm.weight_ih_l0 f4 [128, 128]
0	0xbcf2df2b	-0.02964743
1	0x3de15f5c	0.110045165
2	0x3d602e52	0.054731674
3	0x3da01e22	0.078182474
4	0x3dc2cbd1	0.09511531
5	0xbe4e1c01	-0.2012787
6	0x3db7b4ec	0.08970055
7	0xbe40b765	-0.1881996
8	0x3e3d92f9	0.18513097
9	0x3e32fc66	0.17479095
10	0xbe4e78c5	-0.20163257
11	0x3d2999c9	0.041406427
12	0x3d5856a5	0.052817006
13	0xbe2bbf25	-0.16772135
14	0xbe2fbe7f	-0.17162512
15	0xbdc51507	-0.09623151
16	0xbdb95429	-0.090492554
17	0x3d3852e9	0.045000944
18	0x3d88b48c	0.066750616
19	0x3db0745f	0.08615946
20	0x3d9cd7c6	0.07658343
21	0x3d69cd85	0.057080764
22	0x3bf4e1cd	0.0074732066
23	0xbe19bb2f	-0.15012811
24	0xbd6fba4a	-0.05852727
25	0xbdf95ec6	-0.1217628
26	0xbc63719b	-0.013882066
27	0xbe12d529	-0.14339127
28	0x3dd075c0	0.10178709
29	0xbdbad410	-0.09122479
30	0x3e8f41fb	0.27980027
31	0x3e1be13d	0.1522264
32	0x3e10b655	0.14132054
33	0xbd8abd43	-0.0677438
34	0x3d6592a5	0.056048054
35	0x3d6cf167	0.057847407
36	0xbe22ecd7	-0.1591066
37	0xbc07260d	-0.008248818
38	0xbe400baa	-0.1875445
39	0x3de87978	0.11351293
40	0x3e0417d4	0.12899715
41	0x3e2f2ec6	0.17107686
42	0xbe35109a	-0.17682114
43	0xbd02fb71	-0.031978074
44	0xbe35ccea	-0.1775395
45	0xbd991e7a	-0.07476516
46	0xbe0ee5e5	-0.13954885
47	0x3dae8d7d	0.085230805
48	0xbe03f26a	-0.12885442
49	0x3e023570	0.12715697
50	0xbe154bb4	-0.1457966
51	0xbd14e500	-0.036351204
52	0xbe1ac43c	-0.1511392
53	0x3d835b3f	0.06413888
54	0x3e43f68a	0.19137016
55	0x3e0f4b31	0.13993527
56	0x3d750143	0.059815656
57	0xbdcf8129	-0.10132057
58	0x3e154e59	0.14580669
59	0xbcd12c7a	-0.025533903
60	0xbe1e667d	-0.15468784
61	0xbdbef637	-0.093243055
62	0x3c8d3dfa	0.017241467
63	0x3e2ded94	0.1698516
64	0x3e6df516	0.23238024
65	0xbe3c68c5	-0.18399341
66	0x3c072b7a	0.008250112
67	0xbc42dd9f	-0.011893659
68	0xbb2e5a31	-0.0026604051
69	0xbd9e9572	-0.07743348
70	0x3c8ce98b	0.017201206
71	0xbdb4f0a2	-0.088349596
72	0xba9beee7	-0.001189676
73	0x3e0f152e	0.13972923
74	0xbe3b5719	-0.18294944
75	0x3e15044b	0.14552419
76	0x3e399b4b	0.18125646
77	0x3e02428e	0.12720701
78	0xbd3a1534	-0.045430377
79	0x3e08574b	0.1331455
80	0xbd33038a	-0.043704547
81	0x3d89dd4f	0.067316644
82	0xbd72527a	-0.059160687
83	0xbd3dbdc1	-0.04632354
84	0xbdf56410	-0.11981976
85	0x3d8a77cc	0.06761131
86	0xbd251256	-0.04030069
87	0x3db1410e	0.08654986
88	0xbdb37061	-0.08761669
89	0xbdeee779	-0.11665244
90	0x3d8f46b0	0.069959044
91	0x3d9e78ab	0.07737859
92	0xbda9fa70	-0.0829972
93	0xbdf08a91	-0.117451794
94	0xbe099908	-0.13437283
95	0xbd88d35a	-0.06680937
96	0xbdbcfc01	-0.092277534
97	0xbcf5cc31	-0.030004593
98	0x3dff5025	0.12466458
99	0xbe4233ac	-0.18965024
100	0xbe0067f3	-0.12539653
101	0xbdda7085	-0.10665993
102	0xbdb02229	-0.086002655
103	0xbddaaa94	-0.106770664
104	0x3d0f334f	0.03496104
105	0x3db25b34	0.08708802
106	0xbdd9bf4c	-0.1063219
107	0x3d88ffa0	0.066893816
108	0x3e057337	0.13032232
109	0x3d52bd68	0.051450163
110	0x3cd98dd7	0.026556892
111	0xbdd4cdf1	-0.10390843
112	0x3cf611f2	0.030037854
113	0xbd91cc17	-0.07119005
114	0x3dcbf178	0.09958166
115	0x3e01c84b	0.12674062
116	0xbd5ca478	-0.053867787
117	0x3db38883	0.08766272
118	0x3e03ad35	0.12859042
119	0x3dc1747f	0.09446048
120	0x3dcb550a	0.09928329
121	0x3d486c01	0.048931126
122	0xbe009f65	-0.12560804
123	0xbe38cde3	-0.1804729
124	0xbde1ab00	-0.11018944
125	0x3db292b9	0.087193914
126	0x3e28995e	0.16464755
127	0x3e1e8df1	0.15483834
128	0x3e6458fb	0.22299568
129	0x3cd8dfb1	0.026473852
130	0xbd04ccc3	-0.03242184
131	0xbd85127a	-0.06497665
132	0xbb9daa02	-0.0048115263
133	0x3d70072a	0.058600582
134	0x3e088aa9	0.13334145
135	0x3d423da7	0.047422078
136	0x3df9718f	0.12179863
137	0xbdfd4f6f	-0.123686664
138	0xbe3a8273	-0.18213825
139	0xbd990123	-0.0747092
140	0xbe087b90	-0.13328385
141	0xbdbbe8b4	-0.09175244
142	0xbdf6bd9f	-0.12047886
143	0x3e1abb93	0.15110616
144	0xbdb5ca00	-0.08876419
145	0xbd04deb5	-0.032438952
146	0x3cbca9e1	0.023030223
147	0x3dbb0b7c	0.0913305
148	0xbd6cacb2	-0.057781883
149	0x3d74f129	0.0598003
150	0xbce4f556	-0.027949017
151	0xbb092305	-0.0020925414
152	0x3cfa3dea	0.030547101
153	0x3e06fe39	0.13182916
154	0x3df0f427	0.11765318
155	0xbcaf8ebe	-0.02143037
156	0xbe62eec5	-0.22161396
157	0x3ce2e59f	0.027697382
158	0x3e0c4126	0.13696727
159	0xbe267ac9	-0.16257776
160	0xbe2a4a5e	-0.16629931
161	0x3e19c5d4	0.15016872
162	0x3d9cc0ae	0.07653938
163	0x3db9803e	0.090576634
164	0xbd5d8265	-0.054079432
165	0x3d42a449	0.047519956
166	0x3e183658	0.1486448
167	0xbdb93159	-0.090426154
168	0xbd60fd9b	-0.054929357
169	0xbd8da6f2	-0.06916608
170	0x3e434ea2	0.19072965
171	0xbda8d2bc	-0.082433194
172	0xbdbb345f	-0.09140848
173	0x3dc484e3	0.09595659
174	0x3e63b2c7	0.22236167
175	0x3d8be3d1	0.06830562
176	0xbc89f2af	-0.016839353
177	0x3c25e1fa	0.010124678
178	0xbdeb1e5a	-0.114803985
179	0xbdb23cfb	-0.08703037
180	0x3c2ca2ea	0.010536889
181	0xbd11bccf	-0.035580453
182	0x3d1a9dd4	0.037748173
183	0x3ac21205	0.0014806396
184	0xbddc46c8	-0.10755688
185	0x3d37285d	0.044716228
186	0xbe16ec72	-0.14738634
187	0x3d98ff4b	0.07470568
188	0x3db88f9c	0.09011766
189	0x3c747cd1	0.014922337
190	0xbd372f79	-0.044723008
191	0x3dfb76bd	0.12278507
192	0x3d95d3e0	0.073158026
193	0xbe1189c7	-0.14212714
194	0xbe1fcb5c	-0.15604919
195	0x3e05b222	0.13056234
196	0xbe3b54e9	-0.1829411
197	0x3e0a9bc7	0.13535987
198	0x3d81cd3d	0.06337974
199	0xbe0d75b2	-0.13814428
200	0x3e24250d	0.16029759
201	0x3e40e0aa	0.18835703
202	0x3cb358a0	0.021892846
203	0xbc9b037e	-0.018922564
204	0xbcf49c56	-0.029859703
205	0x3c5e2a1b	0.013559843
206	0x3e4663fb	0.19374077
207	0x3d658e32	0.05604381
208	0x3e1e64ba	0.15468112
209	0x3c99b1fd	0.01876163
210	0x3db93fbf	0.09045362
211	0x3d8edd31	0.06975783
212	0x3da37331	0.079809554
213	0xbdacdc8b	-0.08440503
214	0x3e1e162b	0.15438144
215	0xbd81dc7d	-0.06340883
216	0x3d94204e	0.07232724
217	0xbbcaba7d	-0.006186782
218	0x3d9b2b1e	0.07576583
219	0x3dcc4d44	0.09975675
220	0x3dbdad8e	0.092616186
221	0xbd912841	-0.07087756
222	0x3d8b8eac	0.06814322
223	0x3d8c50c0	0.06851339
224	0x3da4c7ea	0.08045943
225	0xbda3a3f1	-0.07990254
226	0xbd54bf8f	-0.051940497
227	0x3d6c5ae5	0.05770387
228	0x3c5a5dee	0.013328059
229	0x3de0f8d2	0.10984959
230	0x3e3897bd	0.18026634
231	0xbd4bd36d	-0.04976218
232	0xbd0f8277	-0.03503653
233	0xbd904a27	-0.070453934
234	0xbe06f8b9	-0.13180818
235	0x3e14eb21	0.1454282
236	0xbd38c98d	-0.04511409
237	0x3db41f40	0.08795023
238	0x3d95db7a	0.073172525
239	0xbe296ffe	-0.16546628
240	0x3e01a66a	0.12661138
241	0x3c4e30b4	0.012584854
242	0x3d04add3	0.032392334
243	0x3cb11882	0.021618132
244	0x3d2f1932	0.042748637
245	0xbdcd6917	-0.1002981
246	0xbda9d3e0	-0.08292365
247	0x3e39ae9e	0.18133017
248	0x3e3574b7	0.17720304
249	0xbdd940d6	-0.106080696
250	0x3d8fd0b0	0.07022226
251	0xbe2642ca	-0.16236416
252	0xbe03d776	-0.1287516
253	0xbe16963c	-0.14705747
254	0xbdbf7c10	-0.09349835
255	0xbe2182c3	-0.15772538

encoder_lstm.weight_hh_l0 f4 [128, 32]
0	0x3d83039e	0.06397174
1	0xbde8c6f6	-0.11366074
2	0x3d94d47a	0.07267089
3	0x3e0b044a	0.13575855
4	0x3c457aca	0.012053201
5	0x3df16320	0.11786485
6	0x3c150e2b	0.009097616
7	0x3b214d11	0.0024612586
8	0x3e12efaa	0.14349237
9	0xbd14f1f7	-0.03636357
10	0xbdfe36e3	-0.124128126
11	0xbe0ed275	-0.1394747
12	0xbe350ee8	-0.17681468
13	0x3dc819b5	0.09770528
14	0xbca77629	-0.020442085
15	0x3e75cd02	0.24003986
16	0x3bc87f05	0.0061186575
17	0x3e6f477b	0.23367111
18	0xbe318fcf	-0.17340015
19	0x3d3ad4cd	0.0456131
20	0x3dd290ad	0.10281501
21	0xbc1991a4	-0.009373102
22	0x3d46cc7c	0.048534855
23	0x3dee02e1	0.11621643
24	0x3d6e5e70	0.05819553
25	0x3e34929d	0.17634054
26	0x3cb8b7f5	0.022548655
27	0xba0e0b45	-0.00054185494
28	0x3dc6a5f0	0.09699619
29	0xbd96cd8c	-0.07363424
30	0x3da7264d	0.08161602
31	0xbd343c5e	-0.044002883
32	0xbdc7d439	-0.09757275
33	0x3e32bd0c	0.17454928
34	0x3e06ed83	0.13176541
35	0x3d182f7e	0.037154667
36	0x3c105464	0.008809183
37	0xbe33d380	-0.1756115
38	0x3e099148	0.13434327
39	0xbe1c16a6	-0.15243015
40	0xbe5a3576	-0.21309456
41	0xbb4b655d	-0.003103576
42	0x3d764423	0.060123574
43	0xbd70a8b5	-0.05875464
44	0x3d873ace	0.06603013
45	0xbd4896c7	-0.048971917
46	0xbdbe86bc	-0.09303042
47	0xbe304709	-0.17214598
48	0x3dda2947	0.10652404
49	0x3d1e013d	0.0385754
50	0xbe0b7e78	-0.13622463
51	0xbdb16a24	-0.08662823
52	0xbcae49f6	-0.021275502
53	0xbcaca023	-0.021072453
54	0xbe253e8c	-0.16137141
55	0xbde8ca09	-0.1136666
56	0x3d9a0d60	0.07522082
57	0x3d0190a8	0.031632096
58	0xbdfb336b	-0.122656666
59	0x3e8cbd14	0.27488005
60	0x39cf83aa	0.00039580214
61	0x3d82ae5b	0.06380912
62	0xbd954982	-0.07289411
63	0x3d8c3693	0.06846347
64	0x3e6e1acd	0.23252411
65	0xbd81ff4e	-0.06347524
66	0x3da573e3	0.08078744
67	0x3afffffe	0.0019531248
68	0xbd89a528	-0.06720954
69	0xbe17e917	-0.1483501
70	0xbcffc5db	-0.031222275
71	0x3c8e6bfa	0.017385472
72	0xbe34a83e	-0.17642304
73	0x3d999a82	0.07500173
74	0x3e1dcac4	0.1540938
75	0xbbdc66d6	-0.006726126
76	0xbd2f5da9	-0.04281393
77	0xbde0e19a	-0.1098053
78	0xbcbddb67	-0.023175908
79	0xbd091e7b	-0.033476334
80	0x3e88758c	0.2665218
81	0xbe130f94	-0.14361411
82	0x3acf3e57	0.0015811425
83	0xbc8fd88e	-0.017559316
84	0x3da9f94a	0.08299501
85	0x3d8cecc0	0.06881094
86	0xbc4d45a7	-0.012528813
87	0xbd6ec87d	-0.05829667
88	0x3da35211	0.07974637
89	0xbc85ad3b	-0.016317954
90	0x3c401ee5	0.011726116
91	0x3e14ea90	0.14542603
92	0xbd4273c4	-0.047473684
93	0x3e33272d	0.17495413
94	0x3de58324	0.11206654
95	0x3e17550f	0.14778541
96	0x3df05763	0.11735418
97	0x3d90cdda	0.07070513
98	0x3e8549f5	0.26032987
99	0xbde2b170	-0.11069
100	0x3c1ba89c	0.009500649
101	0xbe2df8e7	-0.1698948
102	0x3e143519	0.1447338
103	0xbe94e875	-0.290836
104	0xbb02218d	-0.0019856424
105	0x3cba393d	0.022732371
106	0x3d823ea3	0.06359603
107	0xbdab11be	-0.083529934
108	0xbe3d20e3	-0.18469577
109	0xbe009a0d	-0.12558766
110	0x3de2b25f	0.11069178
111	0xbd7c5845	-0.061607618
112	0xbe06248d	-0.1309988
113	0x3e4a492b	0.19754474
114	0xbd8440d7	-0.0645768
115	0x3c10c652	0.008836346
116	0x3e595b70	0.21226287
117	0xbe088616	-0.133324
118	0xbe23bec6	-0.15990743
119	0x3d5fd72b	0.05464856
120	0x3e702438	0.23451316
121	0xbe0b2205	-0.13587196
122	0xbe8726f8	-0.26396918
123	0x3e7ee5a3	0.24892287
124	0x3a0dd26c	0.00054100784
125	0xbda0ecb2	-0.07857646
126	0x3dc27a0a	0.09495933
127	0x3e271c3d	0.16319366
128	0x3e3944ab	0.18092601
129	0x3e858bbf	0.2608318
130	0x3e5a0ec7	0.212947
131	0x3c2044ac	0.009781998
132	0x3da896d2	0.08231892
133	0xbd3fcaaf	-0.046824154
134	0x3e333f6a	0.1750466
135	0x3d21f37c	0.039538845
136	0x3d8143d5	0.06311766
137	0x3d1a838a	0.0377231
138	0x3cefd1af	0.02927479
139	0x3c397f8f	0.011321916
140	0xbb9a5c34	-0.0047106985
141	0x3db8b8ef	0.09019648
142	0xbdcf7620	-0.101299524
143	0x3ca68f52	0.020332012
144	0x3db42518	0.087961376
145	0x3dd44829	0.10365326
146	0x3d98d30e	0.074621305
147	0xbd87e1c4	-0.06634858
148	0x3dbea3a6	0.09308557
149	0xbdfebb0b	-0.12438019
150	0xbdcc29f2	-0.09968938
151	0xbe328a18	-0.17435491
152	0xbe41f34e	-0.1894047
153	0xbe209c16	-0.15684542
154	0xbe7ea6e8	-0.24868357
155	0x3d111018	0.03541574
156	0x3dd120b0	0.10211313
157	0x3e0e8c49	0.13920702
158	0x3e04997b	0.12949173
159	0x3e83504f	0.25647208
160	0x3e2f5854	0.17123538
161	0x3db09ed5	0.08624045
162	0x3dabf615	0.08396546
163	0xbdb7a332	-0.08966674
164	0x3d9cd2c5	0.076573886
165	0x3ce64816	0.028110545
166	0xbdc3b5d7	-0.095561676
167	0xbe30c25b	-0.1726164
168	0xbcee0e0f	-0.029059438
169	0x3dd1b295	0.1023914
170	0x3c51e456	0.012810787
171	0x3cfad916	0.030621093
172	0xbe569688	-0.2095586
173	0xbd711bd4	-0.05886443
174	0x3e0e60a6	0.13904056
175	0xbc15bf40	-0.009139836
176	0x3e690cae	0.22758743
177	0x3c81e84d	0.01585784
178	0xbd8c660e	-0.06855403
179	0xbd889435	-0.06668893
180	0xbdce0858	-0.10060185
181	0x3db90eca	0.09036024
182	0xbd0e0e0a	-0.034681357
183	0xbdb2766e	-0.08713995
184	0x3de072ad	0.10959373
185	0xbd8953dc	-0.06705448
186	0xbd0b68db	-0.034035545
187	0x3e6ca9b1	0.23111607
188	0x3e013ed2	0.1262162
189	0x3d504df5	0.050855596
190	0x3d952a2a	0.07283433
191	0x3dda0d71	0.10647095
192	0x3df9614f	0.12176763
193	0xbd6d8d13	-0.057995867
194	0x3ccb3713	0.024806535
195	0x3debe3df	0.11518072
196	0xbd79432e	-0.060855083
197	0xbd559a88	-0.052149326
198	0x3e42636f	0.18983243
199	0xbda4f836	-0.08055155
200	0xbd1300c5	-0.035889406
201	0x3e015bee	0.12632725
202	0x3c0da032	0.008644151
203	0x3e091709	0.13387693
204	0xbdfc791a	-0.12327786
205	0xbe520ab9	-0.20511903
206	0x3aa39bea	0.0012482379
207	0xbc71b6a0	-0.014753014
208	0xbddce4dc	-0.10785839
209	0xbc4907b9	-0.012269908
210	0x3d051c3f	0.03249764
211	0x3dad79cd	0.08470497
212	0xbc7bae20	-0.015361339
213	0xbe4dd636	-0.20101246
214	0xbc65c13e	-0.014023123
215	0xbdac533f	-0.084143154
216	0x3e22c352	0.15894821
217	0x3dbfd6d3	0.09367146
218	0xbe3c80f4	-0.18408567
219	0x3df4353b	0.119242154
220	0x3c560be0	0.013064355
221	0xbd9c426c	-0.076298565
222	0xbd8779f5	-0.06615058
223	0x3d43e7cd	0.047828484
224	0x3e4aae57	0.19793068
225	0x3c255bfb	0.010092731
226	0xbdd3aad3	-0.103353165
227	0x3e129a8c	0.14316767
228	0x3e4c4391	0.1994765
229	0x3dfef2a6	0.12448625
230	0xbe1165df	-0.14199017
231	0x3db85a94	0.090016514
232	0x3acb6d77	0.0015520294
233	0xbdbee094	-0.09320179
234	0xbd76a4bf	-0.060215708
235	0x3d9968ab	0.07490667
236	0x3cc62e35	0.024191955
237	0x3cf1a178	0.02949594
238	0x3e52bed4	0.20580608
239	0xbd94873e	-0.07252358
240	0xbe57fdfe	-0.21092984
241	0x3e26e4ec	0.16298264
242	0xbe27ffc1	-0.16406156
243	0xbbc45676	-0.0059917523
244	0xbdbb1510	-0.09134877
245	0xbe26449b	-0.16237108
246	0xbcad5291	-0.021157535
247	0x3e217857	0.15768562
248	0x3c644fb5	0.013935019
249	0xbe1f62c5	-0.15565021
250	0x3cd3c2bb	0.02584969
251	0x3d84c5f3	0.06483068
252	0x3c32c43a	0.010911042
253	0xbb56ed4a	-0.0032795244
254	0xbe3d2478	-0.18470943
255	0x3e34ec0c	0.1766817

encoder_lstm.bias_ih_l0 f4 [128]
0	0x3dc1227f	0.09430408
1	0x3d3faece	0.046797566
2	0x3e560df0	0.20903754
3	0x3e61d2ad	0.22053023
4	0x3dc28c99	0.09499473
5	0x3c162f83	0.009166601
6	0x3dbee40f	0.093208425
7	0x3e3c3658	0.18380105
8	0x3d949ce2	0.072564855
9	0x3dde493c	0.10853812
10	0x3e9262e7	0.28591082
11	0x3e47ab26	0.19498882
12	0x3c7c5476	0.015400996
13	0x3e1172fb	0.14204018
14	0x3e468cdb	0.1938967
15	0xbc293a53	-0.010328847
16	0x3e430166	0.19043502
17	0xbd7228a7	-0.0591208
18	0x3e7cc828	0.24685729
19	0x3e68f2cf	0.22748874
20	0xbd687b83	-0.056758415
21	0x3e7fc566	0.24977645
22	0x3e2b1027	0.1670538
23	0xbddfa1d7	-0.109195404
24	0x3e1f0e21	0.15532734
25	0x3e30a844	0.17251688
26	0x3da1debf	0.079038136
27	0x3d568571	0.052373353
28	0xbda5c0cb	-0.08093413
29	0xbc8c137e	-0.017099138
30	0xbda35fa8	-0.07977229
31	0x3e2bd9d4	0.16782314
32	0x3e01d6ed	0.12679644
33	0x3e5e7462	0.21724084
34	0x3df35cd2	0.118829384
35	0x3e2d8a4e	0.1694729
36	0xbdec4363	-0.115362905
37	0xbc16853c	-0.009187039
38	0x3e296e70	0.16546035
39	0xbb9b9c61	-0.0047488664
40	0x3e2bf090	0.16790986
41	0xbd065d1b	-0.032803636
42	0xbc449682	-0.0119987745
43	0x3e71d3cf	0.23615955
44	0xbd180980	-0.037118435
45	0x3dce7ac4	0.100820094
46	0x3e0dc731	0.13845517
47	0xbd767f18	-0.0601798
48	0x3e1f4c15	0.15556367
49	0x3dc5e294	0.09662357
50	0xbd675c00	-0.056484222
51	0x3da8d37c	0.082434624
52	0x3d331e02	0.04372979
53	0xbd64fff1	-0.055908147
54	0xbd503633	-0.05083294
55	0x3d26ec34	0.040752605
56	0xbd6ff169	-0.058579836
57	0x3d9d9a2e	0.07695423
58	0x3e1daec5	0.153987
59	0x3d6b86ef	0.05750173
60	0x3db1a7a5	0.08674554
61	0xbe027f79	-0.1274394
62	0x3d0a4c0e	0.033763938
63	0x3e1af634	0.15132982
64	0x3e397880	0.18112373
65	0x3e1559e3	0.1458507
66	0x3d88b07c	0.06674287
67	0x3d56a05c	0.052399024
68	0x3d97add9	0.07406206
69	0xbe36c918	-0.17850149
70	0xbd9c557f	-0.076334946
71	0xbe1197d4	-0.14218074
72	0xbdd7ccea	-0.10537131
73	0xbe065c2b	-0.13121097
74	0x3d76bfa5	0.06024136
75	0xbe05045b	-0.12989943
76	0x3e1ffb99	0.1562332
77	0xbe1a7490	-0.15083528
78	0x3dae137e	0.084998116
79	0xbba0bf61	-0.0049056266
80	0x3dca8c05	0.09889988
81	0xbe1abdbc	-0.1511144
82	0x3dae1bae	0.08501373
83	0xbe1cb02e	-0.15301582
84	0x3cc6523b	0.024209132
85	0xbe1f6ff0	-0.15570045
86	0x3d682232	0.056673236
87	0xbe0c3480	-0.13691902
88	0x3c3bf00b	0.011470805
89	0xbdf87a5f	-0.121327154
90	0xbd9372b6	-0.07199614
91	0x3e314c72	0.17314318
92	0xbbcc8165	-0.006241011
93	0xbdb7ee39	-0.08980984
94	0x3d667167	0.056260493
95	0x3dec337b	0.115332566
96	0x3e068244	0.1313563
97	0x3d845b40	0.06462717
98	0x3e6d3465	0.23164518
99	0x3d32d4ed	0.043660093
100	0x3c71f32e	0.014767451
101	0xbdeaff74	-0.11474505
102	0xbdb207ad	-0.0869287
103	0x3cdd8382	0.027040247
104	0xbd0ac78e	-0.033881716
105	0xbd9ed6ac	-0.07755789
106	0x3c4acd15	0.012377997
107	0x3d41bf72	0.047301717
108	0xbcffad00	-0.031210423
109	0x3d08dfb1	0.033416454
110	0x3d7c5da5	0.061612744
111	0x3de31b4e	0.11089192
112	0x3e9a8a44	0.30183613
113	0x3e36aa29	0.17838348
114	0x3e42d4b8	0.19026458
115	0x3d8b97fa	0.068160966
116	0xbc9f162a	-0.019419748
117	0x3d4b5821	0.049644593
118	0x3d69ca72	0.057077833
119	0x3d6a643c	0.057224497
120	0x3e920fc0	0.2852764
121	0x3da985db	0.08277484
122	0x3dab3a6e	0.08360754
123	0x3e5fcbe5	0.21855123
124	0x3e3a0249	0.18164934
125	0x3e0b226d	0.13587351
126	0x3e67fbd5	0.2265466
127	0x3db6e34b	0.089300714

encoder_lstm.bias_hh_l0 f4 [128]
0	0x3cc842ac	0.024445854
1	0xbd37daaf	-0.044886287
2	0x3e3e2e00	0.18572235
3	0x3d96fc70	0.073723674
4	0x3e05b5fd	0.13057704
5	0x3e38be03	0.18041234
6	0x3dd2c644	0.102917224
7	0xbd314ea1	-0.043287877
8	0x3e6222c1	0.2208357
9	0x3e4a5ea2	0.19762662
10	0xbd06c18f	-0.032899436
11	0x3e5fc4cb	0.21852414
12	0x3c897be7	0.016782714
13	0x3c91f8f3	0.017818904
14	0xbe100e85	-0.14068039
15	0x3d1de496	0.038548075
16	0xbda05795	-0.07829205
17	0x3d9754a0	0.07389188
18	0xbcb88443	-0.022524005
19	0x3d20fe62	0.0393051
20	0xbe00980e	-0.12558004
21	0x3d690d65	0.05689754
22	0x3e567ab5	0.20945247
23	0x3ce69c02	0.028150562
24	0x3e8bce3f	0.2730579
25	0x3e72dfd6	0.23718199
26	0xbe1618d4	-0.14657909
27	0xbdd7c66b	-0.10535892
28	0x3d9a1ce4	0.07525042
29	0xbd9aecae	-0.07564674
30	0xbc99a5be	-0.01875579
31	0xbda70ca3	-0.08156707
32	0x3d176280	0.03695917
33	0xbd9efa82	-0.07762624
34	0xbd997953	-0.07493844
35	0xbd9189bd	-0.071063496
36	0xbd135c61	-0.03597677
37	0x3e3918b0	0.18075824
38	0x3d910e07	0.07082754
39	0x3c974810	0.01846698
40	0x3d959e36	0.07305567
41	0xbcd5a3dc	-0.02607911
42	0x3d94e26c	0.07269749
43	0x3e752483	0.2393971
44	0x3d9f9d79	0.077937074
45	0xbcae52a1	-0.021279635
46	0x3e540138	0.2070359
47	0x3e416aba	0.18888369
48	0x3d9b37db	0.07579013
49	0xbdfbd20d	-0.122959234
50	0x3d71e367	0.05905476
51	0xbdb06482	-0.0861292
52	0x3e411e66	0.18859252
53	0x3e44f21d	0.19232984
54	0x3e26d7aa	0.16293207
55	0x3dd1513b	0.102205716
56	0xbd912a4b	-0.07088145
57	0xbda2a688	-0.079419196
58	0x3e1b5375	0.15168555
59	0xbdb6d879	-0.08928008
60	0x3c97a150	0.018509537
61	0xbde25edc	-0.11053249
62	0xbdcb82f0	-0.09937084
63	0x3d522a0b	0.051309627
64	0xbe06b781	-0.13155939
65	0x3e185b42	0.14878562
66	0x3e0d71c5	0.13812931
67	0xbddd09f3	-0.10792913
68	0x3e269119	0.16266288
69	0x3dd2f161	0.102999456
70	0x3dc4ac16	0.09603135
71	0xbd76e0f4	-0.060273126
72	0x3da0e845	0.07856802
73	0xbdab918a	-0.08377369
74	0xbd8e6cd0	-0.06954348
75	0xbdc5da6b	-0.096608005
76	0xbe2d6af1	-0.16935326
77	0xbd124b13	-0.035716128
78	0xbda11cc1	-0.078668125
79	0x3dcfe10b	0.101503454
80	0x3dfb19ce	0.12260781
81	0xbd5660e2	-0.05233849
82	0xbdc9831e	-0.09839462
83	0xbe1bf5ae	-0.15230438
84	0xbd5a80b8	-0.053345412
85	0xbe1bec99	-0.15226974
86	0x3d5569d5	0.052102882
87	0xbcb68f35	-0.022285083
88	0xbdf2940d	-0.11844645
89	0x3e360e61	0.17778923
90	0x3bc3c65f	0.0059745754
91	0x3dbb10a0	0.0913403
92	0xbd5817b6	-0.052756988
93	0x3d6ef1c8	0.05833605
94	0xbd918d16	-0.07106988
95	0x3e102812	0.14077786
96	0x3e092acf	0.13395236
97	0xbd8cac32	-0.06868781
98	0xbdb1b4d1	-0.08677066
99	0xbd736b89	-0.059428725
100	0xbd7ff47c	-0.062489018
101	0x3e5d2cd2	0.21599129
102	0x3dbf93da	0.09354372
103	0x3e005d6b	0.12535636
104	0x3de3cf83	0.11123564
105	0x3e25b106	0.1618081
106	0x3db57172	0.088595286
107	0x3d770512	0.06030757
108	0xbc283624	-0.010266814
109	0x3ce955d0	0.028483301
110	0x3e099ebd	0.1343946
111	0x3e1d6d3b	0.153737
112	0x3d47b0bf	0.048752543
113	0x3d9df641	0.07712985
114	0x3b232614	0.0024894523
115	0xbcf6ebd9	-0.030141758
116	0xbd5d8be6	-0.054088496
117	0x3d11432d	0.035464454
118	0x3db9030e	0.09033786
119	0x3e3fbc05	0.18724068
120	0x3e0225cc	0.12709731
121	0xbd298bcf	-0.041393097
122	0xbdbdeb33	-0.09273376
123	0xbdce2566	-0.10065727
124	0x3d80e053	0.062927864
125	0xbdeeb7b4	-0.11656132
126	0x3d37879a	0.044807054
127	0xbce8962e	-0.028391924

decoder_lstm.weight_ih_l0 f4 [64, 32]
0	0x3cfa7318	0.03057246
1	0x3e104137	0.14087377
2	0x3e52859e	0.20558783
3	0x3e1f9da6	0.15587482
4	0xbd39459d	-0.045232404
5	0xbe5d3986	-0.21603975
6	0x3db44db1	0.08803881
7	0xbd751107	-0.05983069
8	0xbe965296	-0.29359883
9	0xbd9c1b03	-0.076223396
10	0x3cb57688	0.022151247
11	0xbe464621	-0.1936269
12	0xbe457611	-0.1928332
13	0xbdba5b72	-0.09099473
14	0x3e5885e9	0.21144833
15	0x3e297e5b	0.16552107
16	0xbe86366f	-0.26213405
17	0xbe0594c2	-0.13045028
18	0xbd837864	-0.06419447
19	0x3e226b79	0.1586131
20	0x3dcb0ddd	0.099147536
21	0x3e96c734	0.29448855
22	0xbe413705	-0.18868645
23	0xbd432e85	-0.047651786
24	0x3c18f864	0.009336565
25	0x3e54a029	0.20764221
26	0x3d5e105c	0.05421482
27	0xb9adeb13	-0.00033172275
28	0xbb8b0fad	-0.004243812
29	0x3e111753	0.14169054
30	0x3e4c7086	0.199648
31	0x3e8fd7df	0.28094384
32	0x3e6f9b8c	0.2339918
33	0x3d20a05d	0.039215434
34	0x3ce31087	0.027717842
35	0xbd5b1b83	-0.053493034
36	0xbdc6aad1	-0.097005494
37	0x3dc52151	0.09625495
38	0x3e33f62f	0.1757438
39	0xbe91c603	-0.28471383
40	0xbd9b19d2	-0.07573284
41	0x3da12c21	0.07869745
42	0x3db7abdb	0.08968326
43	0x3e2dc598	0.16969907
44	0xbd9cc2ae	-0.0765432
45	0x3e2d7702	0.16939929
46	0xbe458295	-0.19288094
47	0xbe255fe4	-0.1614986
48	0x3cdcd842	0.026958589
49	0x3e98fac8	0.2987883
50	0x3e5ae0da	0.21374837
51	0xbd1f95f9	-0.038961384
52	0x3e8d3d61	0.2758589
53	0x3e282d9c	0.16423649
54	0x3d24707d	0.04014634
55	0x3d38ea12	0.0451451
56	0x3da8c3ba	0.08240457
57	0x3dd42808	0.10359198
58	0x3d9d2f98	0.076750934
59	0x3e04353b	0.12910931
60	0x3e620362	0.22071603
61	0x3dceef23	0.101042055
62	0xbe15eea4	-0.14641815
63	0x3d32d568	0.04366055
64	0xbdad62c9	-0.084661074
65	0xbd9025f2	-0.070384875
66	0x3eae4640	0.34037971
67	0x3e979dcb	0.29612574
68	0xbdbfb75c	-0.09361145
69	0xbe93c6c5	-0.28862587
70	0x3eb71a5f	0.35762307
71	0xbe5a377d	-0.2131023
72	0xbdf3590a	-0.11882217
73	0x3e3a9739	0.1822175
74	0xbd81af38	-0.063322484
75	0x3e14571f	0.14486359
76	0xbebc184c	-0.36737287
77	0xbdc9b299	-0.09848518
78	0x3e68d76e	0.2273843
79	0x3e3c42be	0.18384835
80	0xbe43fbd7	-0.19139038
81	0x3e99c8b9	0.30035952
82	0x3dcf8891	0.1013347
83	0x3e231f65	0.15929945
84	0x3edbd9ca	0.42939597
85	0x3d88dd4e	0.066828355
86	0xbeb5f7b0	-0.35540533
87	0xbebb730a	-0.36611205
88	0x3df9dc1f	0.12200188
89	0xbd82333a	-0.06357427
90	0xbea85213	-0.32875118
91	0x3d4157a8	0.047202736
92	0x3edf654b	0.43631968
93	0x3e839308	0.25698113
94	0x3e208b23	0.15678076
95	0x3ea1146c	0.31460893
96	0x3d0597a4	0.03261532
97	0xbd23e416	-0.04001244
98	0x3ec4901f	0.38391206
99	0x3cccb3eb	0.024988135
100	0x3eb7acba	0.35873967
101	0xbd351fc3	-0.044219743
102	0x3d8fdcaa	0.0702451
103	0xbe79e2d7	-0.24402939
104	0xbe9e430d	-0.3091053
105	0xbe396611	-0.18105341
106	0x3ebc98bb	0.36835274
107	0xbe1757a9	-0.14779533
108	0x3d8fe0d8	0.070253074
109	0xbe92f886	-0.28705233
110	0xbd839fb4	-0.06426945
111	0xbcd7b37d	-0.026330704
112	0x3d825356	0.06363551
113	0x3eb0e0eb	0.345466
114	0xbeac1879	-0.3361242
115	0xbe730b98	-0.23734891
116	0x3e9f6f66	0.31139678
117	0x3e464533	0.19362335
118	0xbe6c3530	-0.23067164
119	0x3e124a31	0.14286114
120	0x3e6f922b	0.23395602
121	0xbe25a51d	-0.16176267
122	0xbeb83997	-0.35981438
123	0xbd50ac68	-0.05094567
124	0x3db54fce	0.08853112
125	0x3ec652b3	0.3873497
126	0xbd7fc12b	-0.06244008
127	0x3e4890d2	0.19586495
128	0x3e3ee316	0.18641314
129	0x3e3e9487	0.18611346
130	0xbdbd7add	-0.0925195
131	0xbe2ad8e9	-0.16684307
132	0x3e13574f	0.14388774
133	0x3d4a3638	0.049368113
134	0x3cc52ed9	0.02407019
135	0x3d0b74ea	0.034047045
136	0xbe8d0b68	-0.27547765
137	0x3e089e54	0.13341647
138	0x3d8bea83	0.06831839
139	0x3e0dbbbe	0.13841149
140	0xbe590eeb	-0.21197097
141	0xbddb3b4c	-0.10704669
142	0xbe03fc3e	-0.12889192
143	0x3e683a5a	0.2267851
144	0x3d1f88f6	0.038948976
145	0x3e6a3ad7	0.22874008
146	0xbe88b06a	-0.26697093
147	0xbe8f24ae	-0.27957672
148	0xbd4e2e24	-0.050336972
149	0xbe5db3ac	-0.2165057
150	0x397233bf	0.00023098195
151	0x3e0db6b4	0.13839227
152	0xbd8f8957	-0.07008617
153	0x3db974b8	0.090554655
154	0xbe0d2ae7	-0.13785897
155	0x3d8b1ad2	0.06792225
156	0x3e8308ef	0.25592753
157	0xbe385ad9	-0.18003406
158	0x3d97c2b7	0.07410186
159	0x3e1493d0	0.14509511
160	0x3ebc63c6	0.3679487
161	0x3ed16da5	0.40903965
162	0x3ed6ccb9	0.41953066
163	0x3dc52fb5	0.0962824
164	0x3dcfa3d4	0.101386696
165	0xbe0750ce	-0.13214418
166	0x3e3dfc17	0.18553196
167	0xbebddbe5	-0.3708183
168	0xbe02f285	-0.12787826
169	0xbd94a1ff	-0.07257461
170	0x3d940d14	0.07229057
171	0x3dfe42a0	0.124150515
172	0xbeb4b185	-0.35291687
173	0xbec3ebfa	-0.38265973
174	0x3e2eb7ef	0.17062353
175	0x3e9181e2	0.28419405
176	0x3e69f5f1	0.22847725
177	0x3e869bbd	0.26290694
178	0x3df8b3e2	0.12143685
179	0xbd985f22	-0.0744002
180	0x3e389ba2	0.18028119
181	0xbe03df4e	-0.12878153
182	0x3d9c2790	0.076247334
183	0x3e5fa24f	0.2183926
184	0x3e8fd591	0.28092626
185	0xbd876673	-0.066113375
186	0xbd4c28fa	-0.049843766
187	0x3e6d0f24	0.23150307
188	0x3c2947c7	0.010332054
189	0xbd51e2d8	-0.051241726
190	0x3dd39d5e	0.1033275
191	0xbd9024d8	-0.070382774
192	0xbe090381	-0.13380243
193	0x3e24f34d	0.16108437
194	0x3e17a572	0.14809206
195	0x3dfdf4ab	0.12400182
196	0x3d08c5de	0.033391826
197	0x3dfa250a	0.12214096
198	0x3df676cb	0.12034377
199	0x3d9a0aca	0.07521589
200	0xbdfdfd4e	-0.1240183
201	0x3dce3dc1	0.100703724
202	0xbe8fe2be	-0.28102678
203	0xbe5135a6	-0.20430622
204	0x3e05e616	0.13076052
205	0xbe7cac3f	-0.24675082
206	0x3e30fcfc	0.17284006
207	0xbe3a18bb	-0.18173496
208	0xbdb3fc28	-0.08788329
209	0x3e4df9f6	0.20114884
210	0xbe98f0ce	-0.2987122
211	0xbe0ba98a	-0.13638893
212	0x3d8680da	0.06567545
213	0x3c6fb805	0.014631276
214	0x3dcc85d2	0.09986462
215	0xbc028755	-0.007966836
216	0xbdfe3c1c	-0.12413809
217	0x3e1d7f0d	0.15380497
218	0x3dbb7eef	0.0915507
219	0x3d26acd8	0.04069218
220	0x3e27f0d3	0.16400461
221	0x3e5459e1	0.20737411
222	0x3e3d7170	0.18500304
223	0x3e599111	0.21246745
224	0x3cb38ebc	0.021918647
225	0x3e40e734	0.18838197
226	0x3dbe5e3c	0.092953175
227	0x3d83a0ef	0.0642718
228	0x3e9c9790	0.30584383
229	0xbea0b090	-0.31384706
230	0x3e25a7c9	0.16177286
231	0x3d756b4d	0.059916783
232	0x3d97efc1	0.07418776
233	0xbd15c243	-0.036562216
234	0xbea2bf31	-0.31786492
235	0xbe6831f7	-0.2267531
236	0xbe4ffe34	-0.20311815
237	0xbd83800e	-0.06420909
238	0x3ec30adb	0.3809422
239	0x3debb044	0.115082294
240	0xbd78d2b6	-0.060747825
241	0x3dd2a3ea	0.102851704
242	0xbdba9bde	-0.091117606
243	0x3de3de7f	0.11126422
244	0x3eb5baf7	0.35494205
245	0xbe3ad96b	-0.18247001
246	0xbe8c16be	-0.273611
247	0x3d6db4de	0.058033817
248	0x3e3e0c60	0.18559408
249	0x3ddd613d	0.10809562
250	0xbd084fd1	-0.033279244
251	0x3e27f2cf	0.16401218
252	0x3e9bbdd3	0.30418262
253	0x3d4465a0	0.04794848
254	0xbe2b8e17	-0.16753422
255	0x3ccfd800	0.025371552

decoder_lstm.weight_hh_l0 f4 [64, 16]
0	0xbdf21533	-0.1182045
1	0x3e34258f	0.17592452
2	0x3d981c92	0.07427324
3	0x3e9c3326	0.30507773
4	0xbebf3d64	-0.37351525
5	0x3ca9f5d7	0.020747108
6	0x3db86966	0.09004478
7	0xbd50341b	-0.05083094
8	0xbe0dcc32	-0.13847426
9	0x3e7c555b	0.24641936
10	0x3e84e57f	0.25956342
11	0xbdb7af14	-0.089689404
12	0xbe9715a0	-0.29508686
13	0x3d913408	0.07090002
14	0x3e5fb469	0.21846165
15	0xbe8a4063	-0.27002248
16	0x3d1585d9	0.0365046
17	0x3e91316a	0.28358012
18	0x3e8e8c4b	0.2784141
19	0xbd8a691e	-0.06758331
20	0xbe2710f3	-0.1631506
21	0x3e0a6c90	0.13517976
22	0x3d6a8861	0.057258967
23	0xbe45961c	-0.19295543
24	0xbe53a876	-0.20669731
25	0xbe216964	-0.1576286
26	0xbd3177af	-0.04332703
27	0x3e7af86e	0.24508831
28	0xbe8a821a	-0.27052385
29	0xbe983256	-0.29725903
30	0x3e5eeb0a	0.21769348
31	0xbe46c9db	-0.19412939
32	0xbddc8b22	-0.10768725
33	0x3e8d37a2	0.27581507
34	0x3d74cd7b	0.059766274
35	0x3e0edd2b	0.13951556
36	0x3dbff4a2	0.09372832
37	0xbe17da9c	-0.14829487
38	0xbeae2885	-0.3401529
39	0xbdcd1f82	-0.10015775
40	0xbd8054de	-0.06266187
41	0x3e1187a1	0.14211895
42	0xbdf2be73	-0.118527316
43	0xbd16d4c4	-0.036824003
44	0xbe3d3ce7	-0.18480264
45	0x3de162b9	0.11005158
46	0xbe8e5880	-0.27801895
47	0xbd4e1895	-0.050316412
48	0xbe5e4f4b	-0.21709935
49	0x3e422c75	0.18962272
50	0x3e71159c	0.235434
51	0xbe042522	-0.1290479
52	0xbd6ccd09	-0.057812724
53	0xbe2c4899	-0.16824569
54	0x3c78a5d8	0.015176259
55	0x3dbd8911	0.09254659
56	0xbdd7d9b0	-0.105395675
57	0xbc0e5bde	-0.008688895
58	0xbe4ed6d2	-0.20199135
59	0x3e8eb702	0.27874
60	0xbe3cf586	-0.18453035
61	0xbccdf77e	-0.025142428
62	0x3e2b5932	0.16733244
63	0xbea51bab	-0.3224767
64	0xbe18169a	-0.14852372
65	0xbdc68dab	-0.0969499
66	0x3dc8e22a	0.09808762
67	0x3e8d3724	0.2758113
68	0xbd238fdd	-0.03993212
69	0x3de5a4aa	0.11213048
70	0x3dec4141	0.11535884
71	0xbe9741ba	-0.29542333
72	0x3dba6c51	0.09102691
73	0x3e5c1034	0.21490556
74	0xbd91be26	-0.07116346
75	0xbd76b59a	-0.060231782
76	0xbdf6e11b	-0.12054654
77	0xbd56097d	-0.052255142
78	0x3c4dccfc	0.012561079
79	0xbe967900	-0.2938919
80	0x3d82bcaf	0.06383645
81	0x3ec5785d	0.38568392
82	0xbbbb5f9e	-0.0057181856
83	0xbdb130d8	-0.08651894
84	0xbea9b7a7	-0.33147928
85	0xbe27a062	-0.16369775
86	0xbe15bf3a	-0.14623728
87	0xbe22b6f3	-0.15890102
88	0xbd146912	-0.036233015
89	0x3e3f46b5	0.18679316
90	0xbe48c59d	-0.19606633
91	0x3e3e7d56	0.186025
92	0x3d5f50ce	0.05452042
93	0xbeb36b13	-0.3504263
94	0x3e8ecb40	0.27889442
95	0xbeb4c9ad	-0.35310116
96	0x3e4b3661	0.19844963
97	0x3d63aaba	0.05558274
98	0x3dbdbd68	0.09264642
99	0x3d61af64	0.055098906
100	0x3dde4abb	0.108540975
101	0xbe8fa3fb	-0.28054795
102	0x3d0b29f2	0.03397555
103	0xbe7eb335	-0.2487305
104	0xbd568d39	-0.052380774
105	0x3e6c90b0	0.23102069
106	0x3e1ac2e2	0.15113404
107	0x3e2b4dd9	0.16728915
108	0xbe692cc0	-0.22770977
109	0x3e02c622	0.12770894
110	0xbda9dfa2	-0.08294608
111	0xbe1d8b19	-0.15385093
112	0x3bbffa7e	0.0058587184
113	0x3e782267	0.24231873
114	0x3ce14fa8	0.027503803
115	0x3e12c06a	0.14331213
116	0xbe091afd	-0.13389201
117	0x3b2dec69	0.0026538617
118	0xbdf48b1a	-0.11940594
119	0xbe6b5500	-0.22981644
120	0xbe363513	-0.17793684
121	0xbd90788f	-0.07054245
122	0xbe04627a	-0.12928191
123	0x3e0bb2c7	0.13642417
124	0xbcccd337	-0.025003059
125	0xbe91d618	-0.28483653
126	0x3e7a1a9b	0.24424212
127	0x3db401fc	0.08789441
128	0xbe450090	-0.19238496
129	0x3d21de54	0.03951867
130	0x3e8ba38c	0.27273214
131	0x3e76bdae	0.24095795
132	0xbdc5674d	-0.09638844
133	0xbe09b362	-0.13447335
134	0xbdc0be39	-0.09411282
135	0xbe170bea	-0.14750639
136	0x3e238190	0.15967393
137	0x3d099964	0.03359355
138	0xbcf86a74	-0.030324198
139	0x3ec2eb2e	0.38070053
140	0xbe0fcfda	-0.14044133
141	0x3e7345c7	0.23757087
142	0xbe531bff	-0.20616148
143	0xbe176f18	-0.14788473
144	0x3dca38b5	0.09874097
145	0x3ec49004	0.38391125
146	0x3e1f54cf	0.15559696
147	0x3c8d13ba	0.01722132
148	0xbea87378	-0.32900596
149	0xbd6b900d	-0.057510424
150	0xbe9317f9	-0.28729227
151	0xbe969a29	-0.2941449
152	0xbe851a0f	-0.25996444
153	0xbd90a00e	-0.07061778
154	0xbe013adb	-0.12620108
155	0x3e0b3ddc	0.13597816
156	0xbe474416	-0.19459566
157	0xbe3f9204	-0.18708044
158	0xbc81a3b4	-0.01582513
159	0xbe73e687	-0.23818408
160	0x3caf530b	0.021401903
161	0x3b74e8ac	0.0037370129
162	0xbc12a2ca	-0.008949945
163	0x3dc0654c	0.09394321
164	0xbe8431b8	-0.25819182
165	0xbe7fe357	-0.24989067
166	0xbe506d21	-0.2035413
167	0xbd69fa33	-0.057123374
168	0xbd565ae3	-0.05233277
169	0x3e8b717f	0.27235028
170	0x3e13400b	0.14379899
171	0x3c502329	0.012703695
172	0xbe611854	-0.21981937
173	0xbe54c422	-0.20777944
174	0x3dbcebd4	0.09224668
175	0xbead4e1f	-0.33848664
176	0xbe09393d	-0.13400741
177	0xbd01a8be	-0.031655066
178	0xbd776ac9	-0.060404573
179	0xbc2b31a6	-0.010448849
180	0xbdcd8874	-0.10035792
181	0xbec6080b	-0.3867801
182	0xbe20530f	-0.15656684
183	0xbe8083a2	-0.25100428
184	0x3ddae32f	0.10687863
185	0x3ec054f0	0.37564802
186	0xbdbe593e	-0.09294365
187	0xbe01ed75	-0.12688239
188	0xbde82689	-0.11335475
189	0xbe020de3	-0.1270061
190	0x3d04a2c6	0.032381795
191	0xbe657842	-0.22409156
192	0xbda2e5ae	-0.07953964
193	0x3d130b37	0.035899367
194	0x3e573148	0.21014893
195	0xbc7a3d7f	-0.015273451
196	0xbdb379d6	-0.08763473
197	0xbe1d4203	-0.15357213
198	0xbdedad5d	-0.11605332
199	0x3e0975fd	0.13423915
200	0x3e3b7828	0.18307555
201	0xbdfb85ca	-0.122813776
202	0x3d340b57	0.043956127
203	0x3d90fafa	0.0707912
204	0x3d60a970	0.05484909
205	0x3b7fe573	0.0039046675
206	0xbdd980e1	-0.10620285
207	0x3e11a3b1	0.142226
208	0xbbfdb15e	-0.007742091
209	0x3c7370a5	0.0148583995
210	0x3e3a8b60	0.1821723
211	0xbd823e25	-0.063595094
212	0xbdb05026	-0.08609037
213	0xbe09896a	-0.13431326
214	0xbee74639	-0.45170763
215	0xbeb47993	-0.35249004
216	0x3de7fc34	0.11327401
217	0x3eac0191	0.33594945
218	0xbe0516d6	-0.12996992
219	0x3ed8dc6e	0.42355675
220	0xbe813a12	-0.25239617
221	0xbcb0c668	-0.021578982
222	0xbe46a7e8	-0.19399989
223	0xbecdf39b	-0.4022492
224	0xbe8f120a	-0.2794345
225	0x3eaed69d	0.34148112
226	0xbd295402	-0.04133988
227	0xbdc5fe1a	-0.09667607
228	0x3d927458	0.07151097
229	0x3d25bd07	0.040463474
230	0xbe4e1d31	-0.20128323
231	0x3d3c5009	0.045974765
232	0xbd122fb9	-0.035690043
233	0xbe180fb3	-0.14849739
234	0xbe9ae32f	-0.30251452
235	0x3e91481c	0.28375328
236	0x3d0199bb	0.03164075
237	0x3c68670b	0.014184724
238	0xbe970a6d	-0.29500142
239	0xbe911d89	-0.28342846
240	0x3dc32e4d	0.095303155
241	0x3ea0bcaf	0.31393954
242	0x3e21a6f9	0.15786351
243	0xbdb8dfd1	-0.090270646
244	0xbecc4fec	-0.39904726
245	0x3ea418cc	0.3205017
246	0xbe5b2547	-0.21400939
247	0xbebb7641	-0.36613658
248	0xbe77df41	-0.24206258
249	0x3b1c5a6b	0.0023857604
250	0xbe3dafad	-0.18524046
251	0x3e8315ca	0.2560256
252	0x3d4051e4	0.046953097
253	0xbecc1bdc	-0.39865005
254	0x3e0b396e	0.13596126
255	0x3c39f644	0.011350218

decoder_lstm.bias_ih_l0 f4 [64]
0	0x3e84f8a6	0.25970954
1	0xbda7025c	-0.08154747
2	0x3ead188b	0.33807787
3	0x3e7aac6f	0.2447984
4	0xbdb76523	-0.08954837
5	0x3e2de557	0.16982017
6	0x3e3d5cd2	0.1849244
7	0x3bed088d	0.0072336853
8	0xbcc39e67	-0.023879243
9	0xbdb5a197	-0.088687114
10	0xbcb82f6a	-0.022483546
11	0x3e5d08c1	0.2158537
12	0x3e522518	0.20521963
13	0x3ebdef63	0.370967
14	0x3e39663c	0.18105406
15	0x3e1f8f4c	0.15582007
16	0x3e337d36	0.17528233
17	0x3d686cb9	0.05674431
18	0x3d8a63f5	0.067573465
19	0x3d6fb81b	0.058525186
20	0xbe2144be	-0.1574888
21	0x3dde9a86	0.10869317
22	0x3d3c4533	0.04596443
23	0x3de5e3ca	0.11225088
24	0xbe1c185b	-0.15243666
25	0xbd932495	-0.07184712
26	0x3d83b672	0.06431283
27	0xbd92ed61	-0.07174183
28	0xbe0a40de	-0.13501307
29	0xbe92744d	-0.28604355
30	0xbdd868f1	-0.10566891
31	0xbe2d0594	-0.16896659
32	0xbdea7bcb	-0.11449393
33	0x3e461ff6	0.1934813
34	0x3e523edf	0.20531796
35	0xbdd6bda2	-0.10485388
36	0xbe8e950d	-0.27848092
37	0xbe4a8408	-0.19776928
38	0x3d61953b	0.055073958
39	0x3dee36ac	0.116315216
40	0x3c37675b	0.011194075
41	0x3e057bdd	0.13035531
42	0xbce3863f	-0.027773974
43	0x3e6656b0	0.22494006
44	0xbdf0d270	-0.11758888
45	0xbe0abc46	-0.13548383
46	0x3e3f8f20	0.18706942
47	0x3c75da25	0.015005623
48	0x3d99ab50	0.075033784
49	0x3e07011e	0.1318402
50	0x3e6a8fc7	0.22906409
51	0x3e988457	0.29788467
52	0xbdcb2b81	-0.09920407
53	0x3ece1523	0.402505
54	0x3d3163c6	0.043308042
55	0x3ea7d46c	0.32779253
56	0x3e3a639d	0.18202062
57	0x3ec2869f	0.37993333
58	0x3ed62f3c	0.41832912
59	0x3de71e49	0.11285073
60	0x3d213076	0.039352857
61	0x3e59c916	0.21268114
62	0x3e21bcae	0.15794632
63	0x3ccdaf56	0.02510802

decoder_lstm.bias_hh_l0 f4 [64]
0	0x3da4f6a1	0.08054853
1	0x3d3f9aa6	0.046778344
2	0x3d1b7ee3	0.037962805
3	0x3e550fba	0.2080678
4	0x3d10caff	0.035349842
5	0x3ea6387c	0.3246497
6	0x3e0d626d	0.13807078
7	0x3e81ec2a	0.2537549
8	0x3d9b61f6	0.07587044
9	0xbd98bea7	-0.07458239
10	0x3e202a4a	0.15641132
11	0xbc503a0b	-0.012709151
12	0x3e562152	0.20911148
13	0x3e59f151	0.21283461
14	0x3e7273e3	0.2367702
15	0x3ea04094	0.3129927
16	0xbe01298f	-0.1261351
17	0x3e867019	0.262574
18	0x3da37800	0.079818726
19	0xbe0721fb	-0.13196556
20	0x3c5892a2	0.013218554
21	0x3e88dac4	0.26729405
22	0xbd950c62	-0.072777525
23	0x3e84ba14	0.25923216
24	0x3cef7cf1	0.029234381
25	0x3e22ffbc	0.15917867
26	0x3dab9cea	0.08379538
27	0xbd935e71	-0.07195748
28	0x3e2dfe7a	0.16991606
29	0xbe88b51d	-0.26700678
30	0xbe32d9b2	-0.17465857
31	0xbe542075	-0.20715506
32	0x3db528f5	0.088457026
33	0x3e55f5a4	0.20894486
34	0xbd0cad82	-0.034345157
35	0x3e427584	0.18990141
36	0xbe1cb403	-0.15303044
37	0x3e255c76	0.16148552
38	0xbe09c08d	-0.13452359
39	0x3e02fa7f	0.12790869
40	0x3e444c6d	0.19169779
41	0xbd626d95	-0.055280287
42	0x3dfde2b5	0.123967566
43	0x3c50b0e2	0.012737485
44	0xbe8f6c7d	-0.28012457
45	0xbe080cce	-0.13286135
46	0x3e7c800c	0.24658221
47	0x3e08ce5f	0.13359974
48	0x3e7523ff	0.23939513
49	0x3cb7f7a1	0.022456946
50	0x3ec455ae	0.38346618
51	0x3d5c4466	0.053776167
52	0x3e866301	0.2624741
53	0x3e5aa1bf	0.21350764
54	0x3e082fa5	0.13299425
55	0xbd7b1c08	-0.06130603
56	0xbdf7c60e	-0.12098323
57	0x3ec455e8	0.3834679
58	0xbcc5911e	-0.024117049
59	0x3ea51b81	0.32247546
60	0x3e396a37	0.18106924
61	0x3e83ea67	0.25764772
62	0x3ebaa918	0.36457133
63	0x3ddc9c02	0.10771944

fc.weight f4 [20, 16]
0	0xbe6bd19a	-0.23029175
1	0xbe970a01	-0.2949982
2	0x3f19f2df	0.60136217
3	0x3ec3058a	0.38090163
4	0x3f30a8b2	0.6900741
5	0xbf099bb6	-0.5375322
6	0xbe3e8842	-0.18606666
7	0x3ecb81fe	0.39747614
8	0xbee407e8	-0.44537282
9	0x3f271211	0.6526194
10	0x3edd6157	0.43238327
11	0x3ee11be7	0.439666
12	0xbe905b0d	-0.28194466
13	0xbf03996a	-0.51405966
14	0xbf2c154c	-0.67219996
15	0x3e196c03	0.1498261
16	0xbd9b3d8b	-0.07580098
17	0xbeb43026	-0.35192984
18	0x3d8c3a7d	0.06847093
19	0x3e12915e	0.14313266
20	0x3e7d5eda	0.24743214
21	0x3e53991a	0.20663872
22	0x3e63bd31	0.2224014
23	0x3c931cb6	0.017958026
24	0x3c04df3a	0.008109862
25	0xbec52392	-0.385037
26	0xbd8027af	-0.06257569
27	0xbd4267d6	-0.047462307
28	0xbda7752d	-0.081766464
29	0x3db49c38	0.08818859
30	0x3e604bd7	0.2190393
31	0x3dc63da5	0.096797265
32	0xbec51ebf	-0.3850002
33	0x3ca50ea7	0.020148588
34	0xbf0abd23	-0.5419485
35	0x3ebde840	0.37091255
36	0xbde703bc	-0.11280009
37	0xbd06a251	-0.03286964
38	0xbea0efb2	-0.31432873
39	0xbed76e1d	-0.42076197
40	0xbeca9488	-0.39566445
41	0x3edb7764	0.42864525
42	0xbef44dfe	-0.47715753
43	0x3ea92dbe	0.3304271
44	0xbe75a43d	-0.23988433
45	0x3f08148e	0.53156364
46	0xbedd168a	-0.43181258
47	0xbe4160c4	-0.1888457
48	0x3e03397e	0.128149
49	0xbe14cbd6	-0.14530882
50	0xbd4e23ec	-0.050327227
51	0xbeb7a965	-0.35871425
52	0xbd191d25	-0.03738131
53	0x3ddcc63b	0.10779997
54	0x3d62946e	0.055317335
55	0xbeb9a8e2	-0.3626166
56	0xbd07edca	-0.033185758
57	0x3db9670b	0.09052857
58	0x3e39ef3a	0.18157664
59	0x3eb160ed	0.3464426
60	0xbe307834	-0.17233354
61	0x3c67902c	0.014133494
62	0x3ec80b7f	0.3907127
63	0x3dbc4595	0.09192959
64	0x3e8fab77	0.28060505
65	0xbd725fea	-0.059173502
66	0xbeb84614	-0.35990965
67	0x3c665088	0.014057286
68	0x3eaa2573	0.33231696
69	0x3e10aa9e	0.14127585
70	0x3eca5e21	0.3952494
71	0x3e77f41b	0.24214213
72	0xbd21bf96	-0.03948935
73	0xbd2e7f62	-0.04260195
74	0x3e38ab2f	0.18034051
75	0xbecd0704	-0.40044415
76	0x3e50ee52	0.20403412
77	0x3e4041bc	0.18775076
78	0xbc0573e7	-0.008145309
79	0x39c64677	0.00037818003
80	0xbad2618b	-0.0016050799
81	0xbd3f4794	-0.04669912
82	0xbe38d2e0	-0.18049192
83	0xbe1e87ec	-0.15481538
84	0x3e5341bd	0.20630546
85	0xbced89fc	-0.02899646
86	0x3ba1dc30	0.0049395785
87	0x3e9152a8	0.28383374
88	0x3dc8b054	0.09799257
89	0xbe8fe666	-0.28105468
90	0xbe8a7d7b	-0.2704886
91	0xbe374d18	-0.17900503
92	0x3eaf35a2	0.34220606
93	0x3e48ebd4	0.19621211
94	0xbd62b4e6	-0.0553483
95	0x3e82498b	0.25446734
96	0x3e218eff	0.15777205
97	0xbe6edd45	-0.23326595
98	0xbe8dc40d	-0.27688637
99	0x3db1e6c0	0.0868659
100	0xbcf38118	-0.029724643
101	0x3eb61b94	0.35567915
102	0x3e9b4c9e	0.30331892
103	0xbe07c9c4	-0.13260561
104	0xbd8c8a8b	-0.068623625
105	0x3d8c21e6	0.06842403
106	0xbe9b59e0	-0.30342007
107	0xbeba4957	-0.3638408
108	0xbd9143ef	-0.070930354
109	0x3e616295	0.22010262
110	0x3e4642ea	0.19361463
111	0x3e96a41a	0.29422075
112	0x3d659637	0.05605146
113	0x3d98628f	0.074406736
114	0xbe8fecbe	-0.28110307
115	0xbdcfa8af	-0.10139596
116	0xbdbcd6de	-0.0922067
117	0x3ecde865	0.40216365
118	0x3d241d30	0.040066898
119	0xbe3d6060	-0.18493795
120	0x3dfc934e	0.12332784
121	0xbe9935c3	-0.2992383
122	0x3d2c05b2	0.04199762
123	0x3ea51948	0.3224585
124	0xbe37341c	-0.17890972
125	0xbd866827	-0.06562834
126	0xbe05d217	-0.13068424
127	0xbcdb46e3	-0.0267672
128	0x3f02505f	0.50903887
129	0x3ef5efc2	0.48034483
130	0x3e57f9de	0.2109141
131	0xbee089b9	-0.43855074
132	0xbebc9394	-0.36831343
133	0xbf039bce	-0.51409614
134	0xbd482691	-0.048864905
135	0x3e8a0410	0.26956224
136	0x3ee50640	0.4473133
137	0x3ebc0615	0.3672339
138	0x3eec5a29	0.46162537
139	0x3ea42b58	0.3206432
140	0xbe72bc7c	-0.23704714
141	0x3edd7d20	0.43259525
142	0x3d9a1bab	0.075248085
143	0xbe89093b	-0.26764855
144	0xbefa1f1d	-0.48851863
145	0x3ef84990	0.48493624
146	0x3f2b5a5c	0.6693475
147	0x3ee3e2a4	0.4450885
148	0xbe7364ee	-0.2376897
149	0xbe9a3f9c	-0.30126655
150	0x3da5c559	0.08094282
151	0x3d0b8340	0.034060717
152	0xbde17f1d	-0.11010573
153	0x3ecb0962	0.39655596
154	0x3e954613	0.29155025
155	0xbeeffa94	-0.46870863
156	0xbe65b37a	-0.22431746
157	0x3ed00924	0.40631974
158	0xbe4c8aa1	-0.19974758
159	0xbeae4f4a	-0.34044868
160	0xbc437426	-0.011929547
161	0x3e639060	0.22223043
162	0x3d8135a2	0.06309058
163	0x3ea44e91	0.3209119
164	0x3e1094b6	0.14119229
165	0x3ed45950	0.4147439
166	0x3c5e188f	0.01355566
167	0xb9da3cbb	-0.00041625448
168	0xbea4f96e	-0.3222155
169	0xbc2519e6	-0.010076975
170	0xbeb0413f	-0.3442478
171	0xbe14218c	-0.14465922
172	0xbe3d1f0e	-0.18468878
173	0xbe448924	-0.1919294
174	0x3ece5431	0.40298608
175	0xbdf086e7	-0.117444806
176	0x3ec85cbd	0.39133254
177	0xbe132f4f	-0.14373516
178	0x3daf3238	0.085545
179	0x3c60f0d9	0.013729298
180	0x3e8c1a70	0.2736392
181	0xbcc2f622	-0.023799006
182	0x3da74ba9	0.08168728
183	0x3e91a811	0.28448537
184	0x3ee385e6	0.44438094
185	0xbda1eb7c	-0.07906243
186	0x3d63892d	0.055550743
187	0xbe1ba040	-0.1519785
188	0x3e45d370	0.19318938
189	0x3c8d6de9	0.017264323
190	0xbbb57b1c	-0.0055383574
191	0x3ea2e30c	0.31813848
192	0x3e5c64fe	0.215229
193	0x3bbbc962	0.005730794
194	0xbdc22973	-0.09480562
195	0xbd634ec2	-0.05549503
196	0xbdf17721	-0.117903
197	0x3e062720	0.13100863
198	0xbe5cb5cc	-0.21553725
199	0xbe2661ee	-0.16248295
200	0x3e9928d1	0.29913953
201	0xbe9a525a	-0.30140954
202	0xbea9774e	-0.33098835
203	0xbb936b52	-0.0044988776
204	0xbe35aaa1	-0.17740871
205	0xbc55df9e	-0.013053803
206	0x3e309955	0.17245992
207	0x3e56db64	0.20982128
208	0x39d7d3cf	0.00041165805
209	0xbe992619	-0.2991188
210	0xbeb54804	-0.35406506
211	0xbd22908f	-0.039688643
212	0x3e7125be	0.23549554
213	0x3e953548	0.29142213
214	0xbd7c57f4	-0.061607316
215	0x3d92c88c	0.071671575
216	0xbe2e154c	-0.17000312
217	0xbcc66cb3	-0.024221754
218	0xbde2dfa3	-0.110778116
219	0xbe87fb5c	-0.2655896
220	0xbe3cdf70	-0.1844461
221	0xbe8f0dd2	-0.27940232
222	0x3cb88672	0.022525046
223	0xbde26ff2	-0.11056508
224	0xbeb3640e	-0.35037273
225	0xbe4de7ba	-0.20107928
226	0xbe7e5f20	-0.24840975
227	0xbd0665ce	-0.032811932
228	0x3e345475	0.17610343
229	0x3e7b3850	0.245332
230	0x3d145cc8	0.036221296
231	0xbbc191c8	-0.005907271
232	0xbe9a2210	-0.30104113
233	0xbd022872	-0.031776853
234	0xbdfc9fbc	-0.123351544
235	0xbe989500	-0.29801178
236	0xbe0d832f	-0.13819574
237	0x3e826499	0.25467375
238	0x3d3f1d1a	0.046658613
239	0x3d464bb2	0.048412032
240	0xbe1a7465	-0.15083463
241	0xbe90afda	-0.28259164
242	0xbeb7f9ee	-0.3593287
243	0x3e6dc9b7	0.2322148
244	0x3e961d6b	0.2931932
245	0x3e110cf1	0.14165093
246	0x3e79c334	0.2439087
247	0x3e9cd267	0.30629274
248	0x3e321b99	0.1739334
249	0xbdd679af	-0.10472428
250	0x3e597b38	0.2123841
251	0xbe20e6ea	-0.15713087
252	0x3e578200	0.21045685
253	0x3e462928	0.19351637
254	0x3d95bbd3	0.07311215
255	0x3bfe5278	0.007761296
