lstm_ckpts/lstm-epoch=00-train_loss=1.95.ckpt (torch, 336033 bytes, 33 tensors)

embedding.weight f4 [20, 128]
000000 cb 97 89 bf 03 d8 86 3f be 6c 7c 3e 4f f8 4a bd
       -1.0749449 1.0534672 0.24650857 -0.04955321
000010 eb 96 dc 3e c4 df 0d bf da 8f 82 3e 03 7e 55 3f
       0.4308389 -0.55419564 0.25500375 0.83395404
000020 11 8f ad bd 4a 0a 7a be 32 30 16 3f 6a 89 86 3f
       -0.084745534 -0.24417987 0.5866729 1.0510685
000030 9a 3d f9 3e 8e 5e 7b 3e 21 f9 83 bf f4 fb df be
       0.4867981 0.24547789 -1.0310403 -0.43746912
000040 d5 a9 90 be 0d d6 0a bf 31 a8 8d bf 96 0c 98 3f
       -0.28254572 -0.54232866 -1.1066953 1.1878841
000050 fb e6 b2 bf e7 6b 03 40 70 fc 7c 3f 88 35 d0 bf
       -1.397674 2.0534608 0.9882269 -1.6266336
000060 4c 01 26 40 93 e9 58 3f 07 5b 1e 3f c3 5f 20 c0
       2.5938292 0.84731406 0.61857647 -2.5058448
000070 f6 ea 2f bf a8 45 61 3f de ab 75 3e e6 a5 a9 3f
       -0.68717897 0.8799691 0.23991343 1.3253753
000080 db 4a 32 3f d9 73 9f bf 44 bf c2 3f dc e5 03 bc
       0.6964547 -1.2457229 1.521462 -0.008050408
000090 f7 8f 11 3f ad e0 76 bf 98 a3 b1 3f fe 65 ef be
       0.568603 -0.9643658 1.387805 -0.467575
0000a0 2d 42 77 bf 48 ea b3 3f a4 23 0e be 0b 29 a1 3e
       -0.9658535 1.4055872 -0.13880783 0.31476626
0000b0 ed e4 eb 3e 52 fc da 3f c4 c1 96 3e 63 35 95 3d
       0.46073094 1.7108252 0.29444706 0.07285573
0000c0 27 94 a6 bf 50 7c d3 bf 18 41 91 3f f7 2e 1e 3f
       -1.3013963 -1.6522312 1.134799 0.6179041
0000d0 b6 e7 70 bf 57 b6 b5 bf 9f 35 98 bd 00 4d 5b be
       -0.9410356 -1.4196271 -0.074321024 -0.21416092
0000e0 d2 9d 59 3f 41 f5 e9 be 39 47 66 3e cc 9a 6a 3f
       0.8500644 -0.45694926 0.22488107 0.9164245
0000f0 6a f0 80 bf 13 c3 96 bf 68 4b 60 3e 16 07 36 bf
       -1.0073369 -1.1778282 0.21903765 -0.7110456
000100 03 cf 06 40 b6 06 94 bf 4f 1c 4a 3e 71 09 96 bf
       2.106385 -1.1564548 0.19737361 -1.1721631
000110 71 72 8d 3f f5 e5 8c 3f 7d b4 e1 bf c6 be d4 3f
       1.105055 1.1007677 -1.7633206 1.662072
000120 32 7c 3e bf 7a 68 13 bf 36 a6 85 3e fb d3 9a bf
       -0.74408257 -0.57581294 0.2610337 -1.2095941
000130 e9 6c 40 bf 5e 11 2c bf 00 42 f3 bf 9b 7c 6e 3f
       -0.75166184 -0.67214 -1.9004517 0.9315888
000140 54 6c 00 c0 62 11 ee bd 9a 41 83 3d 9d d3 9a 3f
       -2.0066118 -0.11624409 0.06408997 1.2095829
000150 c7 7b 62 be ba ae 9f be 2e 8e 6f bd 82 b0 b2 bf
       -0.2211753 -0.31187993 -0.058485202 -1.3960116
000160 0c 4f 1d bf cd 22 aa 3f 10 6e 09 40 7f 0f 51 3d
       -0.6144874 1.329187 2.1473427 0.05104017
000170 a5 e8 2f 3f f2 15 a2 3f eb c2 f4 bf 67 b6 b5 bf
       0.6871436 1.2662947 -1.9121984 -1.419629
000180 3f 91 91 bf 4e 78 71 be fe d9 91 3f a1 82 53 3e
       -1.137245 -0.23581049 1.1394651 0.206553
000190 f5 ab 32 be 97 2e 71 3f 1d 34 b0 bf 49 91 98 bf
       -0.17448409 0.94211715 -1.3765904 -1.1919338
0001a0 ef d6 56 3e 4c dd 0d bf 19 e8 bb 3f 9a e0 cc bf
       0.20980428 -0.554158 1.4680206 -1.6006043
0001b0 78 47 8f bf 8f 19 ec bf d3 65 00 c0 de 98 73 bf
       -1.1193686 -1.84453 -2.0062149 -0.9515513
0001c0 3e 30 b9 3e 4d 56 72 3f e2 2a 39 3f f2 38 3f 3f
       0.36169618 0.94662935 0.7233106 0.74696267
0001d0 de d9 39 bf 53 32 c4 bf 0a a8 00 bf a3 f1 f2 be
       -0.72598064 -1.5327858 -0.5025641 -0.4744998
0001e0 c4 57 9c be 9a 9d 98 be ec 1e b7 bf f0 5a 81 bf
       -0.3053571 -0.2980774 -1.4306312 -1.0105877
0001f0 52 b2 c0 3f 9a e1 49 bf 93 0b 15 bf 26 f8 23 c0
       1.5054419 -0.78859866 -0.58220786 -2.5620208
000200 9c d7 92 bf 3e a6 fd 3f 12 a2 0a be d8 d2 cf be
       -1.1472049 1.9816358 -0.13538387 -0.4059055
000210 37 7d 8d 3f 75 db ea bd 65 b8 1b 3d 6c 16 68 3f
       1.1053838 -0.11467639 0.03801765 0.90659213
000220 28 6e 60 bf 7f 33 b2 3f a4 b7 54 3e 0e ff 82 3f
       -0.87668085 1.3921965 0.20773178 1.0234087
000230 56 b8 09 c0 ee f5 7e 3c 16 7f 47 bd 8b 0b 6d 3f
       -2.151876 0.015561564 -0.048705183 0.9259574
000240 77 53 51 bf 6b 74 88 bf 5c 44 a4 bf 0d 12 16 3d
       -0.8176798 -1.0660528 -1.2833362 0.03663831
000250 25 e3 81 3f 28 62 33 be 0d 00 8f bf 29 2c b1 3f
       1.0147444 -0.17517912 -1.117189 1.3841602
000260 eb 39 51 bf 77 a6 21 3f f5 6d 8e bd ad ea 86 bf
       -0.81729 0.6314463 -0.069545664 -1.0540367
000270 77 64 54 c0 f6 41 a7 3e 4b af 2f bf 06 1c d2 be
       -3.318632 0.32667512 -0.6862685 -0.41037005
000280 1e 29 8e 3f e9 e7 ff bf 1e 5a ac bf 95 12 89 bf
       1.1106298 -1.9992648 -1.3465002 -1.0708796
000290 e9 54 9c 3f 56 f6 25 3f 3d eb b0 3f 66 eb 67 3e
       1.2213413 0.64829004 1.3821789 0.22648391
0002a0 77 a6 f7 3c 0a 33 7a bf d6 bd 07 c0 c1 25 ff be
       0.030230744 -0.9773413 -2.1209617 -0.4983349
0002b0 ad cd 62 bf ed 41 06 3f fc de 97 3e 0f f1 7c bf
       -0.88595086 0.52444345 0.2966231 -0.98805326
0002c0 04 ab 5e 3f d8 67 60 3f 54 73 1d bf bb b6 ca 3d
       0.869797 0.87658453 -0.615041 0.09898134
0002d0 eb 98 98 3d 37 ac cd 3e fb aa c3 bf 88 b6 99 be
       0.07451042 0.40170452 -1.5286554 -0.30022073
0002e0 ba 0d 71 bf fc b9 e5 be d7 bf c5 3e d3 93 1c bf
       -0.9416157 -0.44868457 0.38622925 -0.6116306
0002f0 1f 99 18 bf 51 fe 63 3f 7f 03 4c 3e a1 73 b8 3e
       -0.59608644 0.8905993 0.19923209 0.36025718
000300 26 b4 99 3f e6 89 b4 3c ca 3c 1f 3e d2 41 9f be
       1.2008102 0.022038411 0.15550533 -0.31104904
000310 b0 7c 92 3e 8e d0 8a bf 83 ff 13 40 95 d5 a7 3e
       0.28610754 -1.0844896 2.3124702 0.32780138
000320 26 de db 3e cd 76 1b 3f f6 5b 05 c0 37 9b ea be
       0.42942923 0.6072815 -2.0837379 -0.45821545
000330 6b 9e 34 bf 04 40 5f 3e b0 99 a1 bf 03 32 a2 bf
       -0.70554227 0.21801764 -1.2625027 -1.2671512
000340 60 2e 08 be 6a 97 85 3e 64 6a 9a bc 78 03 01 3f
       -0.1329894 0.26092082 -0.01884956 0.5039592
000350 ef 2f 39 bf 78 c1 1f bf a1 29 67 be a0 0b f0 bf
       -0.72338766 -0.62404585 -0.22574474 -1.8753548
000360 ef 8d b8 be 53 1c b6 3e 34 e9 36 c0 7e 35 c2 bf
       -0.36045787 0.35568485 -2.8579836 -1.5172575
000370 50 e9 f5 bd 12 98 b3 3f cf f8 8e 3f f6 90 cb 3e
       -0.120073915 1.4030783 1.116968 0.39759034
000380 e1 aa 10 3f 80 6c 98 3f 8d 54 53 be 38 f7 0b be
       0.5651074 1.1908112 -0.20637722 -0.13668525
000390 c9 a3 67 bf da 57 04 bf 7c 22 2e bf 81 3a 2f bf
       -0.9048429 -0.5169655 -0.6802137 -0.68448645
0003a0 91 12 22 be 06 2e 87 3f fe 34 93 3f 90 01 7f bf
       -0.15827395 1.056092 1.1500547 -0.9961176
0003b0 1e 96 43 3f 01 f1 14 3f fb 4d bf be 73 6d 27 bd
       0.76400936 0.5818024 -0.37364182 -0.040875863
0003c0 9e d5 7d 3f 72 f9 0e 40 2f e8 2b bf 96 d3 80 3f
       0.9915408 2.233975 -0.6715116 1.0064571
0003d0 0b 28 46 bf 62 43 a0 3f d1 5a 6c bf 5f 0c 09 3f
       -0.7740485 1.2520564 -0.92326075 0.535345
0003e0 50 a1 04 c0 19 a4 bc be 0f ca 8a 3e a9 55 85 be
       -2.0723457 -0.36843947 0.27107283 -0.26041916
0003f0 66 7a 82 bf 1b 23 03 bf ee f3 ad 3f 21 eb 44 3f
       -1.0193603 -0.5122544 1.3590066 0.7692128

encoder_lstm.weight_ih_l0 f4 [128, 128]
000000 37 3c 53 3e 3f 90 09 bd 46 20 bc 3d 41 b3 0b 3e
       0.20628439 -0.03358483 0.09185843 0.13642599
000010 c7 7d a5 3c 9b 73 ce bd 36 a4 c4 bd 39 a9 0c 3e
       0.020201577 -0.10080644 -0.09601633 0.13736428
000020 0b 65 0a 3e 6e f0 ec bd 60 3b 3b bc a7 f3 c0 bd
       0.13515107 -0.11569296 -0.01142773 -0.09421473
000030 62 6d db bc 80 45 f9 bd 66 4b bc 3d 73 13 a0 ba
       -0.026785556 -0.12171459 0.091940686 -0.0012212828
000040 3e 69 bd bd c8 1b b1 bc 0a 14 51 be eb e4 f6 bd
       -0.09248589 -0.021619692 -0.204178 -0.120553814
000050 d2 a1 53 be b4 5a 14 3c 78 ca be 3d f1 9a ff bc
       -0.20667198 0.009054828 0.093159616 -0.031201812
000060 29 05 bf bd 9f f4 45 be b9 bf 71 3d 81 a3 15 3e
       -0.09327156 -0.19331597 0.05902073 0.14613153
000070 18 2e 77 3d b5 a6 09 be a6 07 92 3c 14 ba 55 3d
       0.060346693 -0.134425 0.017825913 0.05217941
000080 08 1d 51 bd ee 04 6d 3e c6 13 d2 bd ce 62 b4 3d
       -0.051053077 0.23146412 -0.10257678 0.08807908
000090 68 8c 85 3d 1f 8c 83 bd 75 2f 50 3c 7c 00 14 bd
       0.06520921 -0.0642321 0.012706627 -0.036133274
0000a0 34 92 55 3d 7d 24 17 be 11 a7 bc bd b3 2f 35 3e
       0.052141383 -0.14760013 -0.09211553 0.17693977
0000b0 51 b9 01 bd e6 2a 10 3e a9 b8 b0 3d bb f5 ad 3d
       -0.031670872 0.14078864 0.08628971 0.08494135
0000c0 b0 cf db 3d 52 11 70 3b dd fa db 3d c6 a2 20 3e
       0.107329726 0.0036631417 0.10741208 0.15687093
0000d0 b0 4e 2f be 28 ee 19 be d9 50 a1 3d a4 a0 32 be
       -0.1711986 -0.15032256 0.078767486 -0.17444092
0000e0 05 4f 33 be bc aa 32 be ad 54 00 be 59 de e9 3d
       -0.17510612 -0.17447942 -0.12532301 0.114193626
0000f0 74 e7 96 bd 1b 3d 8e bd 3c a5 21 bd 22 57 e6 bc
       -0.07368365 -0.06945249 -0.03946422 -0.02811772
000100 da 29 33 3e ff 40 93 3d d1 86 45 bd 08 22 9a bd
       0.17496434 0.071901314 -0.048224274 -0.07526022
000110 88 1d 00 be 52 b6 2c 3d b7 5e 12 3e ac 0f 00 be
       -0.12511265 0.04216606 0.14293943 -0.12505978
000120 c4 36 7e 3d e5 ce ef 3d 9d ad 89 3d 01 0b 17 be
       0.062063947 0.11709384 0.06722567 -0.14750291
000130 4d 41 19 be 8c e5 85 3c 60 81 3d bd 9e 71 5b bd
       -0.14966317 0.016344808 -0.04626596 -0.05357515
000140 75 02 12 3e 7b 02 85 be 0b 77 e3 3d 9a b3 6f bd
       0.1425875 -0.25978455 0.1110669 -0.05852089
000150 f7 61 a4 bd a7 64 c7 3d cb 2b 2a 3d 72 7d c1 bd
       -0.08026498 0.09735995 0.04154567 -0.09447755
000160 18 59 6e 3d 2d 2c e3 3d 01 7d 09 3e f7 e1 a3 bd
       0.058190435 0.1109241 0.13426591 -0.08002084
000170 96 ff 1d bc 6e 5f e5 3c 37 c0 13 3e 2c 1f ae 3c
       -0.009643456 0.027999606 0.14428793 0.021255098
000180 4f 50 8d 3c 63 2c cb 3d 61 e6 00 3d 24 28 0c 3c
       0.017250208 0.099205755 0.031469706 0.008554492
000190 db 45 3a be 6e 7f 28 be 96 4e 04 3d 8c 91 c8 bd
       -0.1819071 -0.1645486 0.032301508 -0.09793386
0001a0 fb d7 f5 bc 78 68 c0 3d fa fc 2d 3e 8e 11 a6 bd
       -0.030010214 0.09394926 0.16991034 -0.08108817
0001b0 83 95 06 be 9b 32 59 bd ba 21 2e be b5 9a 31 3e
       -0.13142972 -0.053026777 -0.17005053 0.17344172
0001c0 2f 5f ab 3d 3a b3 1e 3e 7e 23 31 3e 5a 66 06 be
       0.08367764 0.15498057 0.17298695 -0.13124982
0001d0 34 74 dc bb 73 63 e9 3d cd 1a 5c 3e 0b 09 4f 3e
       -0.0067277197 0.113959216 0.21494599 0.20218293
0001e0 ea 25 44 be 74 62 f3 bd 69 35 3a be d5 9e 33 3e
       -0.19155088 -0.11884013 -0.18184437 0.17541058
0001f0 a9 f7 58 bc 2c 75 20 bd 22 a8 64 be 12 ba ca 3d
       -0.0132426405 -0.039174244 -0.22329763 0.09898771
000200 31 fd 1e be 92 f8 22 3d d0 5f 05 bc ca 99 75 3c
       -0.15526272 0.039787836 -0.008140519 0.014990279
000210 61 b3 da bd f6 8e 0e 3d 1f 48 6a be 62 4f ba 3d
       -0.10678745 0.034804307 -0.22879075 0.09097172
000220 46 91 7e bd dc 83 c2 3c 74 d5 bf bd 88 bb 04 3e
       -0.062150262 0.023744516 -0.09366885 0.12962162
000230 3d d5 c4 bd c9 3d f3 3d 42 3d 44 bc aa ce 24 3d
       -0.096109845 0.11877019 -0.011977496 0.040236153
000240 13 e0 f6 3d 70 8e 5f 3d 30 44 70 be 10 83 08 be
       0.120544575 0.0545792 -0.23463511 -0.13331246
000250 09 5f f1 3c 53 a9 5d bd d4 3f 9d bd 45 31 38 be
       0.029464262 -0.05411656 -0.0767819 -0.17987545
000260 81 21 03 3e 1c 82 51 bd 6b b6 93 bd 85 7b 11 be
       0.1280575 -0.051149473 -0.07212528 -0.14207275
000270 3f 7a 29 3e 51 cb 75 3c 1e 6a 9a 3d ab 6a a4 3d
       0.1655054 0.015002088 0.075397715 0.08028158
000280 b1 3b 15 3e 92 e8 18 3d 53 6a 93 3d 30 28 4f bd
       0.14573552 0.03733117 0.07198014 -0.050575435
000290 a6 ba cf 3d 4e c9 7c 3d 84 cc eb bc 6b 26 5a 3e
       0.10143022 0.061715417 -0.028784044 0.21303718
0002a0 2b e7 8f bd 24 55 23 3d 94 d4 dc bd f1 0a 07 3d
       -0.07026514 0.03987612 -0.107827336 0.03296942
0002b0 b4 83 62 bd 85 ed c5 bd e6 f9 24 3d 93 7c ba 3d
       -0.055301383 -0.09664444 0.040277384 0.09105792
0002c0 66 ee 0c be 04 fb 25 3d 4e e6 a3 3a 69 ba 89 3d
       -0.13762817 0.04052259 0.0012504549 0.06725008
0002d0 54 42 24 bc 55 ab 73 bd 74 ab 43 3e 16 9c cd bd
       -0.0100255795 -0.059489567 0.19108373 -0.10039537
0002e0 00 38 62 bd 66 4d a6 bd 4a 04 ad bc e1 16 a6 bd
       -0.055229187 -0.08120231 -0.02112021 -0.081098326
0002f0 9b aa 8b 3d 0f 8e 1d bc d8 3f e8 bd 9d a7 4f 3d
       0.0681965 -0.009616389 -0.11340302 0.050696958
000300 32 ef bb 3d ab 81 d8 bd 8a 61 5e be df 93 4f be
       0.09176482 -0.10571607 -0.21716896 -0.20271252
000310 b4 25 4d bd 95 91 98 bd 59 14 47 3d 38 f5 21 3e
       -0.050084785 -0.074496426 0.04860339 0.158162
000320 31 49 9e 3d 2e 81 43 bd 25 00 ac 3b 46 ed c5 3c
       0.07728804 -0.047730617 0.0052490407 0.024160992
000330 1d 85 4b 3d c0 ff 06 bd 4c 50 c4 bd 07 65 ea 3b
       0.049687494 -0.032958746 -0.09585628 0.0071531567
000340 49 61 ed 3d 43 95 19 be 9a 28 b7 bc 3f 01 8d 3d
       0.11590821 -0.14998345 -0.022358228 0.06885003
000350 14 28 0a bd 76 6d 35 be b0 bf 39 be a4 5b c0 bd
       -0.033729628 -0.17717537 -0.18139529 -0.09392479
000360 bf 32 7e 3b ad 2c 9c bd be 1a f7 3d 51 90 cb bb
       0.0038787571 -0.07625709 0.120656475 -0.006212272
000370 82 17 a1 3c bc fe 2a 3e dc 87 ab bc ad 30 21 be
       0.01966453 0.16698736 -0.020938806 -0.15741225
000380 01 6f 3c 3e 19 61 df bd ec 8f 86 3d 86 79 02 bc
       0.1840172 -0.10907192 0.0657042 -0.007963544
000390 b5 a6 4a bd 17 16 7a 3d e2 02 a1 bd 42 a6 b8 bd
       -0.04947539 0.061056223 -0.07861878 -0.09016086
0003a0 05 3c 30 bc 8e 87 cb bd 77 b8 ec 3d cc c1 66 bd
       -0.010756497 -0.099379644 0.115586214 -0.056337163
0003b0 0a 51 5e be c8 5c 40 be 1c 9b 38 be f9 44 91 bc
       -0.21710601 -0.18785393 -0.1802792 -0.017733084
0003c0 43 8b 74 3d f7 05 74 be 05 44 68 3e b6 2a cf 3c
       0.059703123 -0.238304 0.22682197 0.02528892
0003d0 1b 6a fa 3d ff 24 ab 3d 4b a9 ce 3d ef 44 5f be
       0.12227269 0.08356666 0.10090884 -0.2180364
0003e0 f5 6a 4b 3e 87 98 1f be d5 ed 86 bd 19 be d3 3d
       0.1986502 -0.15585528 -0.065883316 0.103389926
0003f0 88 2a 63 3d bb 00 96 3d 8d ad 23 3d d6 be 38 be
       0.055460483 0.07324358 0.039960433 -0.18041548

encoder_lstm.weight_hh_l0 f4 [128, 32]
000000 24 07 9e bd 5b ef 57 3d d1 b2 b5 bd 34 0f 8e bc
       -0.07716206 0.0527185 -0.08871997 -0.017341234
000010 78 1d cf bd 5e c1 62 be e7 45 3a bd ad 52 8a bd
       -0.101130426 -0.22144076 -0.04547682 -0.067540504
000020 f1 81 72 be e8 a1 42 be 60 80 4a be 4f 77 ab bd
       -0.23682381 -0.19007075 -0.19775534 -0.08372366
000030 c5 7f 52 be 00 06 9e 3d 31 72 ea bd e1 42 f6 bd
       -0.20556553 0.07715988 -0.114475615 -0.12024475
000040 70 a6 b9 3d 69 e5 28 3d 9d e7 91 3d f6 54 4d be
       0.090649486 0.041234408 0.07124255 -0.20051941
000050 ab 97 8d be 48 0c 03 3e 71 26 29 be b0 00 3f bd
       -0.27654776 0.12797654 -0.1651857 -0.046631515
000060 ec 52 79 bd 18 8a d8 3d cb ff 1f be ad 45 d1 bc
       -0.060870096 0.10573214 -0.15624921 -0.02554592
000070 6c 5e fc bd 33 e0 61 3e 97 0b 05 3d 96 67 59 be
       -0.12322697 0.22058181 0.032481756 -0.21230921
000080 5c d3 c8 3d f8 bd c2 3d 09 6b 4b be b2 4a 7e bd
       0.098059386 0.0950889 -0.1986505 -0.062082954
000090 2d 18 6b bd 88 ab 8e be 12 f6 ef bd bd 79 d9 3d
       -0.057396103 -0.27865243 -0.11716856 0.10618923
0000a0 83 a1 44 be b2 4f fc bd 02 19 2a 3e ef b1 dd be
       -0.19202237 -0.12319888 0.16611102 -0.43299815
0000b0 f6 ce b9 3e d5 08 74 bc bf 93 c2 3d 8f 4b f3 bb
       0.3629071 -0.014894684 0.095008366 -0.007424779
0000c0 aa 62 19 3e 66 3f 0b 3e 03 3b 33 be 5b 8a 94 3d
       0.14979044 0.13598403 -0.1750298 0.07252952
0000d0 83 11 4a be 1d e5 74 3e d1 4d ab be ab ed c5 bd
       -0.19733243 0.23915525 -0.33457807 -0.09664472
0000e0 34 13 9d bd 80 16 2c be 55 21 19 3d 97 94 d9 3d
       -0.07669678 -0.16805458 0.037385304 0.106240444
0000f0 34 1e 01 3e 62 bc 05 3e 10 68 76 be ab 29 34 be
       0.12609178 0.13060144 -0.24063134 -0.1759402
000100 a7 e9 04 be f8 f5 98 3d 99 e9 4a be 59 19 34 be
       -0.12979756 0.0746879 -0.19815673 -0.17587794
000110 77 58 28 bb 81 c4 69 bd 74 22 59 3d c7 d4 01 3d
       -0.0025687495 -0.057072166 0.053011373 0.03169706
000120 0c f1 51 3d 82 5d c9 bd 3d 4b a5 3d a1 a0 64 be
       0.05125527 -0.09832288 0.08070991 -0.223269
000130 ea d6 e3 3d 34 52 59 3d fe b1 b8 bc d0 5e 36 bc
       0.11124976 0.05305691 -0.02254581 -0.0111310035
000140 7f 5e 78 3d fa 41 42 3e a1 c1 40 3d 27 50 a2 3d
       0.060636993 0.1897048 0.04705966 0.07925444
000150 6f 6b aa bd c9 30 d8 3d e0 2d 15 bc 6b e0 e7 3d
       -0.083212726 0.1055618 -0.009105176 0.11322101
000160 18 4f e4 bc 5a 0a 36 3b 23 df 3d bd d7 12 4b 3d
       -0.027869746 0.0027777166 -0.046355378 0.049578514
000170 88 46 24 bd 1b 6f b2 3d fe 82 2c be fc 6c 39 be
       -0.040106326 0.08712598 -0.16846845 -0.1810798
000180 eb 0a 94 3c 67 13 7c bd cb 55 e2 3d 7f 79 37 bd
       0.018071612 -0.06154194 0.1105152 -0.044793602
000190 16 0a a4 3d cf ee 0e be e0 af 0a be ca 77 f4 3c
       0.08009736 -0.13958286 -0.13543653 0.029842276
0001a0 aa f1 10 3e 7a aa 26 bd 39 ee 2b 3d 35 b6 18 bd
       0.14154688 -0.040689923 0.041975234 -0.03728314
0001b0 ff d3 76 bd 30 b5 27 be 44 db 03 bd 5e f6 69 3e
       -0.06026077 -0.16377711 -0.03219153 0.22847888
0001c0 af 4e 3c 3e 33 a1 df bb 11 cb da 3d fa 15 28 3e
       0.1838939 -0.0068246364 0.10683263 0.16414633
0001d0 41 bf 2f 3e 06 33 a5 3d 54 87 1b bd c6 aa 52 3e
       0.17162801 0.080663726 -0.037970856 0.20572957
0001e0 11 de ac 3b b9 77 a3 bd 5a de 2b 3e a4 45 85 be
       0.005275496 -0.0798182 0.16784039 -0.26029694
0001f0 9d e7 d4 bd 02 b1 10 be 8b 00 19 ba 24 3e 86 be
       -0.10395739 -0.14130023 -0.0005836568 -0.26219285
000200 b8 03 03 be c1 39 02 3e ec cd 36 be d0 49 f3 3c
       -0.12794387 0.12717344 -0.1785199 0.029698282
000210 dd a4 1d 3e 95 93 b5 bd e3 d8 13 be 88 8c 85 bd
       0.15394922 -0.0886604 -0.14438204 -0.06520945
000220 de 2a 0a be b8 5f b1 bd b7 4f d0 3b 87 38 3d bd
       -0.13492915 -0.08660835 0.006357159 -0.046196487
000230 70 37 71 3e c0 05 b2 bd 53 55 69 bd 3f da d3 bd
       0.23556304 -0.08692503 -0.056966137 -0.103443615
000240 be ad 0a 3e a5 03 81 3e a6 37 9f bc 09 c1 43 bd
       0.1354284 0.25198093 -0.019435715 -0.047791515
000250 73 e6 64 bc 4a c0 8c bc b9 9f 16 be 2c 27 c7 3c
       -0.013970959 -0.017181534 -0.14709367 0.02431067
000260 43 e0 45 3d de a5 dd bd 8b c9 61 bd f7 05 50 3e
       0.048309576 -0.10822652 -0.055123847 0.20314775
000270 99 b0 b3 bd d6 21 4d bd f0 c2 42 bd 39 9c 45 be
       -0.08773918 -0.050081097 -0.047549188 -0.19297875
000280 11 9f 19 be 30 d0 ab 3d 0d 66 f7 3d 49 c8 6d bd
       -0.15002085 0.08389318 0.120800115 -0.058052335
000290 c5 59 8b 3d 68 74 25 be 8a 56 75 3b 16 35 2a be
       0.068042316 -0.16157687 0.0037435615 -0.16621813
0002a0 39 76 29 3e da 33 24 3e 49 99 82 bd 49 09 26 be
       0.16549005 0.16035405 -0.06376893 -0.1621448
0002b0 45 4c 2c bd 4a 67 f9 bd 2f e0 90 bb 95 97 9b 3d
       -0.042064924 -0.12177904 -0.004421256 0.07597271
0002c0 a7 8a 4b 3e 51 03 74 3e 99 1a a6 3d 75 3f bc bd
       0.1987711 0.2382939 0.08110542 -0.09191791
0002d0 8e c5 f1 3d 74 3d 39 bd 10 aa e8 bd 15 d7 f1 3d
       0.11805259 -0.045224622 -0.11360562 0.11808602
0002e0 9a 0a ac 3d 7e ac d6 bd e1 2b 74 3e 02 d4 7b 3d
       0.084004596 -0.10482119 0.23844863 0.061481483
0002f0 5a 1e eb 3d 4e f3 7f 3c da 02 58 be e8 0e 92 3d
       0.114803985 0.015621973 -0.21094838 0.071317494
000300 a8 6a c4 bc b9 b8 1d be eb b0 c8 bd ab ae ef bc
       -0.023976639 -0.15402497 -0.097993694 -0.029258093
000310 19 bc 0c 3e 20 7c 33 bd e1 b9 ef 3d 73 1e 29 3e
       0.13743629 -0.043819547 0.117053755 0.16515522
000320 40 87 09 3e 4a cb 4e 3c 07 aa 0a 3d 04 be fb 3d
       0.134305 0.01262171 0.033853557 0.12292102
000330 f9 6a cb 3c 7f 6e e5 bd b7 17 f4 bb 0e ff d6 bb
       0.024831282 -0.11202716 -0.007449116 -0.0065611666
000340 2b 26 49 3e fb 90 c4 3d 56 02 00 3d c3 6d 30 3e
       0.19643466 0.09597965 0.031252228 0.17229371
000350 5b 79 74 3d fa 2b 62 3e 89 e8 11 be b9 9b 2b be
       0.059686046 0.22087088 -0.14248861 -0.16758622
000360 37 1b a4 bd 66 ce dc 3d 84 d2 05 bd a0 c2 2c 3e
       -0.08013003 0.10781555 -0.032671466 0.16871119
000370 88 54 5a 3d be a9 3e be 28 a3 4e be 33 41 dc bd
       0.05330327 -0.18619439 -0.20179427 -0.10754623
000380 90 47 d4 bd a4 3c 64 3b f6 d2 f6 3c b0 23 e5 bd
       -0.10365212 0.0034826184 0.03012989 -0.111884475
000390 28 ef 73 3c cf 8e b2 bd 9b c4 d5 3d ad 91 0a 3d
       0.014888562 -0.08718645 0.1043789 0.033830334
0003a0 3c 9d f6 3d b6 67 41 bd 60 c6 97 bc 45 f0 d5 bd
       0.12041709 -0.047218047 -0.01852721 -0.104462184
0003b0 33 f4 41 3a 7e c5 93 be e8 3c 66 3c cb 87 16 3e
       0.0007398754 -0.28861612 0.014052607 0.14700238
0003c0 2c b7 ed 3d 23 4f f7 3d 3a e4 12 3e e7 40 dd bd
       0.11607203 0.12075641 0.14344874 -0.10803395
0003d0 0d 63 8f 3a e0 ec b6 3d 81 07 02 be 4a 98 ef 3d
       0.0010939554 0.08931899 -0.12698175 0.11698969
0003e0 41 2a 83 3d 38 87 20 3e a6 c1 a2 3e 8e 5a 71 3e
       0.06404544 0.15676582 0.31788367 0.235697
0003f0 fa e2 94 bd 22 58 59 3e f6 07 33 be 88 26 fd 3d
       -0.07269855 0.21225026 -0.17483506 0.12360865

encoder_lstm.bias_ih_l0 f4 [128]
000000 9c 98 d1 bd b4 9f aa 3d c6 87 e1 bc 3f 63 61 3e
       -0.10234186 0.08331242 -0.027530562 0.22010516
000010 f2 42 4f 3d 2a 42 82 bd f0 23 e5 3d 12 4d 16 3e
       0.050600953 -0.06360276 0.11188495 0.14677837
000020 89 0c 86 3b b1 94 2b 3d f3 9e 87 3e c8 10 ce 3d
       0.00409085 0.04188985 0.26488456 0.100617945
000030 5b 2c 48 3d da d3 2f bb ff 14 83 3d ed 65 c1 ba
       0.048870426 -0.0026829154 0.06400489 -0.0014755108
000040 7c 64 29 bc a1 06 cd 3c 63 4a 4c 3e 43 44 9d 3d
       -0.010338899 0.025027575 0.19950251 0.076790355
000050 1c 29 f2 3d ec d3 b8 3c 46 8e 2b 3d 0f 4c 82 bd
       0.11824247 0.02256199 0.04188373 -0.06362163
000060 46 a9 30 3e e2 2a 4a bd 28 4d 00 3e d8 aa 1a 3d
       0.17252073 -0.049357302 0.12529433 0.037760586
000070 9a 84 e9 3d 84 62 09 3e be c7 bf bd 35 60 b8 3d
       0.11402245 0.13416487 -0.0936427 0.09002725
000080 39 b0 18 3e 99 c7 58 be 26 d8 a1 3c 90 b4 9d 3b
       0.14910974 -0.2116989 0.019756388 0.0048127845
000090 11 0b 2d 3e 6e 03 c5 3d 53 46 c9 3b 8c 36 02 3e
       0.16898753 0.09619795 0.0061424165 0.1271612
0000a0 1e 5e 0e be 45 35 ef 3d 31 ef ff 3c f6 92 38 bd
       -0.1390309 0.11680082 0.031241985 -0.045062028
0000b0 d4 c6 66 3e 5e 91 07 3d be 2e 09 3e 35 6f 20 bd
       0.22536784 0.033097617 0.13396737 -0.039168555
0000c0 65 09 8e bc f9 93 2b 3e 85 2a 6d bd 35 87 2c 3e
       -0.017338464 0.16755666 -0.057901878 0.16848452
0000d0 4b 91 cf 3d 86 18 35 3e 48 67 15 3e 91 d5 52 3d
       0.10135134 0.17685136 0.1459018 0.051473204
0000e0 1f ac 2f 3e cb a5 95 bd d0 72 12 bd 6e 4d 17 3e
       0.17155503 -0.07307013 -0.035754025 0.14775631
0000f0 60 4c 4d 3e 22 b0 d9 3d 52 fe 65 3e 72 3c 0d bd
       0.20048666 0.10629298 0.22460297 -0.034481473
000100 dd 1f 96 3d 15 09 e2 bd d1 44 13 be 3c 56 fb bc
       0.07330296 -0.110368885 -0.1438172 -0.030680768
000110 c5 ef 1d 3d cf e9 9c bd f7 ea b3 bd 73 c4 36 be
       0.03855874 -0.07661783 -0.0878505 -0.17848377
000120 37 46 8d bd 8d 5d b4 3d 8f e4 a0 bd f0 13 c8 3d
       -0.06898158 0.08806906 -0.07856094 0.09769428
000130 be 17 15 bd 9a bd 06 be 15 77 e7 3d f3 5c 71 bd
       -0.036399595 -0.13158265 0.1130201 -0.058926534
000140 63 68 f8 bd f0 e0 f7 bb 60 76 82 bc c3 fb 36 3e
       -0.12129285 -0.0075646564 -0.015925586 0.17869477
000150 86 99 75 3d 3e 1e b6 bd e6 ef a5 bd 71 2a eb 3d
       0.059960864 -0.08892487 -0.081023976 0.114827044
000160 9d a3 19 be ae 96 1a be 3f 4b 4b 3e c5 e1 2d 3e
       -0.1500382 -0.15096542 0.19852923 0.16980655
000170 85 fe 5f be 4e cb ab 3d 11 91 34 be a0 78 3b be
       -0.21874435 0.08388387 -0.17633463 -0.18307734
000180 a8 5e 3a bc b2 b0 90 3d ed 6d 8a 3c 49 49 0d bd
       -0.011375107 0.07064952 0.01689812 -0.03449372
000190 48 0e 37 3d aa 33 12 3e 3f e8 06 3e ff c3 8c 3e
       0.044691354 0.14277521 0.13174532 0.27493283
0001a0 c5 1a 41 3e 51 4b 6c 3b ed 11 90 3e 41 ff 14 3e
       0.18857868 0.0036055634 0.28138676 0.14550497
0001b0 ce d9 82 3d 8b ed 64 3e 0a 59 64 3e 0a 3e 89 3e
       0.06389199 0.2235624 0.2229959 0.26805145
0001c0 b7 45 f1 3d dc 9a 11 bd 36 bf 86 3e 1a b4 42 bd
       0.11780875 -0.035548076 0.26317757 -0.04753504
0001d0 3d e8 07 3e e9 b7 12 bc 66 29 3a 3e 99 46 66 3e
       0.13272186 -0.00895498 0.18179855 0.22487868
0001e0 f5 ac 39 3e fb 2e 04 3e 4e fc 5a 3e eb 84 c8 3d
       0.18132384 0.12908547 0.21385309 0.09790977
0001f0 2f 08 dd 3d 75 61 26 3e 2d 9a 55 3e d6 47 8c 3d
       0.107925765 0.16248114 0.20859595 0.06849639

encoder_lstm.bias_hh_l0 f4 [128]
000000 43 e3 fa 3d 89 ef 04 3d 82 79 fe bc 48 c3 4e bc
       0.12250378 0.032455 -0.031063799 -0.012619801
000010 7e 25 3e 3b ef 8c 98 3d 66 21 84 3e cf 41 6a 3e
       0.0029014046 0.07448756 0.2580673 0.22876666
000020 5b c9 4c 3e 11 4b 0b bd 73 4c 45 bd b6 9c 83 3d
       0.19998686 -0.034007136 -0.04816861 0.064263746
000030 23 9f 8a bd fe 2b 25 3e 42 ad 3a 3e f9 6c 7c 3e
       -0.06768634 0.16130063 0.18230155 0.24650945
000040 a8 10 56 3e a9 4b 84 3d b8 b0 4e 3e 5c d0 50 3e
       0.20904791 0.064597435 0.201846 0.20391983
000050 f2 07 47 3e 6b 09 17 3e a5 40 e4 3c 5a 5a 03 3e
       0.19436625 0.14749686 0.027862856 0.12827435
000060 89 22 bf 3d b5 b3 d1 3d 98 65 80 3e 5a d6 a1 bd
       0.09332759 0.102393545 0.2507751 -0.079022124
000070 32 52 40 3d 4f cf b5 bc 95 7f 99 3d d6 1f 54 3e
       0.046953388 -0.022193579 0.074950375 0.2071527
000080 f0 68 87 3e 2b 4b 9e bd e7 37 20 be c9 84 67 3c
       0.26447248 -0.07729181 -0.15646325 0.01413078
000090 9c 82 9f bd cf b6 ca 3c ed b4 20 3d 1f 9e 7c bc
       -0.07788584 0.024745373 0.039235044 -0.015418558
0000a0 2d 59 0b be 3c 7e f4 bd a8 1a 3a 3d 5a 6c 17 be
       -0.13608237 -0.1193814 0.045435578 -0.14787427
0000b0 72 95 96 3d f6 e0 23 3e a8 d4 5d 3d 5d af 6b 3d
       0.07352723 0.16003785 0.054157883 0.057540286
0000c0 26 66 d4 3d f7 74 4d bd 91 68 21 bd 14 d7 2d bd
       0.10371046 -0.050160374 -0.039406363 -0.042441443
0000d0 18 ea 9b bc 4e 81 d3 3a 30 a0 0d 3d 50 e6 f4 3b
       -0.019032523 0.0016136558 0.034576595 0.0074737445
0000e0 65 73 19 be 5b 89 70 3e d8 f1 c2 3c ec 42 90 3d
       -0.14985426 0.23489897 0.02379696 0.07044014
0000f0 78 82 75 bd 0d 2c a9 3d 3d e6 86 3d e4 a4 ce 3d
       -0.059938878 0.08260355 0.06586883 0.10090044
000100 2d 2d 93 3d cf be ba bd e6 96 10 be 20 89 a9 bd
       0.07186351 -0.09118425 -0.14120063 -0.08278108
000110 70 07 9d 3c d1 d3 69 3d c0 87 f1 bd 13 6f a3 3d
       0.019168586 0.05708677 -0.117934704 0.0798017
000120 ba 1d a3 3d 08 f6 e7 3d 38 99 2b 3d 62 b9 53 bd
       0.07964654 0.113262236 0.041894168 -0.051690467
000130 91 eb 15 3e 43 7b 99 3d 32 15 1e be ff c8 14 3e
       0.14640643 0.074942134 -0.15437773 0.14529799
000140 84 7f 9b bd c0 02 e0 bd 19 22 4d 3e 93 e1 ce bb
       -0.07592681 -0.109380245 0.20032538 -0.0063135116
000150 d9 86 fb bd cf 64 06 be cd 1e 26 be 11 a0 10 3d
       -0.122815795 -0.13124393 -0.16222687 0.0353089
000160 ea 61 24 be af 7c e6 3d f5 12 e1 bd be a4 a2 bd
       -0.16052976 0.1125425 -0.10989944 -0.07941578
000170 18 ec f7 3d d2 a0 eb 3d 4c 86 9f 3d 5a 54 3e bd
       0.12105578 0.115052834 0.07789287 -0.046467163
000180 b1 3f 87 bd 8f 9b 7c 3e d1 55 24 3d 41 e8 43 3e
       -0.06603945 0.24668716 0.040120903 0.19131567
000190 fd ea b9 3d e5 2a 9e bc 74 61 5e 3c 59 47 47 ba
       0.090780236 -0.019307563 0.013573039 -0.0007601879
0001a0 27 10 67 3e 74 49 04 3e 11 e8 6d 3e 01 60 80 3e
       0.22564755 0.12918645 0.23233058 0.25073245
0001b0 fd a9 e7 3d c8 87 ec bc 94 45 80 3e 6b 23 35 3e
       0.113117196 -0.02887334 0.25053084 0.17689292
0001c0 41 27 48 3e 0b b2 39 bd 20 2e 69 3e fb ac 04 3e
       0.19546224 -0.04533581 0.22771502 0.12956612
0001d0 3e 4d 99 3c 85 1d 59 3b ce 5c 68 3e 3c 14 68 3e
       0.01871359 0.0033129167 0.22691652 0.22663969
0001e0 4c c2 37 3e bf 91 a5 bc b6 b5 65 3e 4e 38 11 3e
       0.17945212 -0.020211099 0.22432598 0.14181635
0001f0 85 3e b7 3d 6b 2b 1b 3e e5 08 5a 3c f0 7c 4b 3e
       0.089474715 0.15153281 0.013307785 0.19871879

decoder_lstm.weight_ih_l0 f4 [64, 32]
000000 9c a7 a9 be 3e dd ab be e4 42 99 be 1e b0 91 3d
       -0.33135688 -0.33567232 -0.29933846 0.0711367
000010 00 4c 8b be 85 1f c8 be 65 db 9b 3d 26 57 7f 3d
       -0.2720642 -0.39086547 0.076102056 0.06233897
000020 56 14 47 bd be 97 35 bd 69 34 23 bd d5 3c 9e 3d
       -0.04860338 -0.044334166 -0.039844904 0.077264465
000030 36 3d e1 3d b6 6a b7 bd a9 26 6d 3d 4a 4a 42 be
       0.10998003 -0.089559 0.057898197 -0.18973652
000040 07 26 65 3d d2 f8 67 3e 54 e4 d8 3d b8 53 6b bd
       0.05594447 0.22653511 0.10590425 -0.057452887
000050 9d 58 af 3d 5b fc 1c 3e 09 b2 d8 be b4 6c cb 3d
       0.085618235 0.15330641 -0.4232333 0.09932843
000060 48 2a 81 3d 70 e9 45 be f6 f4 28 be 81 46 9c 3e
       0.06306893 -0.1932733 -0.16499695 0.3052254
000070 81 b5 72 be 5a d1 49 bd 4a 25 a3 be fb 11 19 be
       -0.23702051 -0.04927192 -0.31864387 -0.14948265
000080 1f 7d d1 be fc d2 c4 bd 50 88 36 3d 4c 7e d3 be
       -0.40915772 -0.096105546 0.04456359 -0.41307294
000090 34 d3 a0 3d 43 d0 9c be 37 f1 99 bd 9e 06 b8 be
       0.07852784 -0.3062764 -0.07516711 -0.3594255
0000a0 29 4e d9 3d 96 83 47 be 36 28 30 be 75 85 c2 be
       0.10610611 -0.1948379 -0.1720284 -0.37992445
0000b0 5b 3e cc 3c da 3c e1 3c 77 26 c2 bc b1 61 59 3e
       0.024932077 0.027494837 -0.023699982 0.21228673
0000c0 97 a2 9a 3d 97 c8 80 3d 09 95 a0 3e 58 de d7 3d
       0.07550543 0.062882595 0.31363705 0.105404556
0000d0 91 0c b4 3d d0 4f 39 3e 0f 4b e2 3c 29 02 7d 3d
       0.08791459 0.18096852 0.027623681 0.06176964
0000e0 94 e4 5b be 6a 17 6f 3e 32 9d b3 3e 19 7b 7c bd
       -0.21473914 0.23348776 0.35080868 -0.061640833
0000f0 5f a0 12 be ba 19 bb 3e 5b fc 75 be a2 9c c3 be
       -0.14318989 0.36543065 -0.24022047 -0.3820544
000100 ce 08 3d be ca a7 d8 bd d4 84 1c 3d 06 23 8a 3d
       -0.1846039 -0.10578878 0.038212612 0.067449614
000110 48 76 d7 bc 39 65 83 3d eb c2 60 bd 07 8e 4f 3e
       -0.026301518 0.06415791 -0.05487339 0.20269023
000120 db 92 4c be 03 50 9d 3e c4 59 58 3d 5a a9 3d be
       -0.19977896 0.30725107 0.052819982 -0.18521634
000130 fb ba db 3d b5 f5 cc be 43 9e 87 3e b4 b4 01 3e
       0.10729023 -0.4003121 0.26487932 0.12666589
000140 20 39 e3 3d 83 49 a3 3e 4d fe 52 be 00 c9 4c 3e
       0.1109488 0.31892022 -0.2060482 0.1999855
000150 84 04 4d 3e 17 ce b6 3e a4 db eb be 59 ff 8e bd
       0.20021254 0.3570411 -0.4606601 -0.069822975
000160 61 66 7a be 7a b0 a2 3c b7 c8 83 3e 17 b1 38 3e
       -0.24453117 0.019859541 0.2573907 0.18036304
000170 2a 2c d1 be 31 fe 79 3c 83 c0 ca be cc 43 94 be
       -0.40854007 0.015258358 -0.396 -0.28957975
000180 98 76 c9 bd 93 b4 9e 3d 44 c6 c5 bd 02 1b 31 be
       -0.09837073 0.077492855 -0.09656957 -0.17295459
000190 4d 53 3f be 13 28 84 be 1b 4a b4 bd b2 17 90 3d
       -0.1868412 -0.25811824 -0.08803197 0.070357695
0001a0 96 ba 8a be e6 00 0e b8 1d e9 21 3e 38 71 f0 be
       -0.2709548 -3.3856275e-05 0.15811582 -0.4696138
0001b0 4f e7 f0 3a 0c 7c 93 bd 0b 54 a7 3e 0b c8 71 be
       0.0018379482 -0.072013944 0.32681307 -0.23611467
0001c0 e7 48 96 3e 7e 84 f3 bd cf cd 02 be 4f e8 45 be
       0.29352495 -0.11890505 -0.12773822 -0.193269
0001d0 fb b2 cf bb 61 5d 42 3e 38 df 93 be 7d 04 78 bd
       -0.006338475 0.18980934 -0.2888124 -0.060551155
0001e0 84 c8 3d be c3 1a 93 be ff 3e e2 bd 73 d3 7e bd
       -0.18533522 -0.28731355 -0.11047172 -0.062213372
0001f0 6e e4 de 3d 32 2f 88 3d cb cc bb be fc f2 09 be
       0.10883413 0.06649627 -0.36679682 -0.13471597
000200 ef dc 04 be 6c 18 3b 3d 5e e5 25 3e cf 12 98 3d
       -0.12974904 0.045677587 0.16200778 0.074254625
000210 95 34 54 be b6 7b 16 be 7c a8 40 be 63 69 25 3e
       -0.20723183 -0.1469563 -0.18814272 0.16153483
000220 76 0d e5 bd 0a c0 75 3e d3 fa cc 3d 94 12 af be
       -0.11184208 0.23999038 0.100087784 -0.3419386
000230 bb a3 17 bd a4 ca 18 3e e6 c5 3e 3e df 55 23 be
       -0.03702138 0.14921051 0.1863018 -0.15950726
000240 20 ad 04 3e 29 90 74 3e 70 e4 23 3d 15 11 47 3e
       0.12956667 0.23883118 0.040012777 0.1944011
000250 e6 4b 5a 3c 81 1c 01 3e e0 ad 89 be c2 34 68 3e
       0.01332376 0.1260853 -0.2689047 0.22676376
000260 01 4c fc 3d a2 60 db ba 23 03 fa 3d 3b a1 a4 bd
       0.12319184 -0.0016737173 0.122076295 -0.08038565
000270 db be 81 bb e0 cc b3 3c 81 2c be bd cc 3f 94 be
       -0.0039595193 0.021948278 -0.09285832 -0.28954923
000280 32 b4 03 3e c9 5d 3b be a7 d9 c5 be 13 35 c5 be
       0.12861708 -0.18297495 -0.38642618 -0.38517055
000290 24 c7 38 be 5e 0e 03 3c 64 0d bb be 6f 2a 25 3e
       -0.18044716 0.007999031 -0.36533654 0.16129468
0002a0 7e 23 89 be cf fc 4a 3e 2e 00 23 be bb e4 33 3d
       -0.2678489 0.19823001 -0.15918037 0.043919306
0002b0 b5 34 63 3d a1 d4 0b be df 89 10 3e 05 94 56 3c
       0.055470187 -0.1365533 0.14115094 0.013096814
0002c0 49 76 3d be b9 2c 1e 3e ec 5c 7a be d7 f1 65 be
       -0.18502153 0.15446748 -0.2444951 -0.22455536
0002d0 73 86 0a 3e fe 2b 47 3e 84 cc 09 3d 85 6e 8c 3e
       0.13527851 0.19450375 0.033642307 0.2742807
0002e0 bc 60 80 be 09 7c 0c be e3 1e 5b be 70 e1 23 3e
       -0.25073802 -0.1371919 -0.21398501 0.16003966
0002f0 19 f6 a0 3d 05 a7 91 bd f0 e3 03 3e eb 86 bd be
       0.078594394 -0.071119346 0.1287992 -0.37016997
000300 13 83 7e be 51 ca 13 3b d0 eb 39 bb 48 44 29 3c
       -0.24854688 0.002255101 -0.0028369315 0.010331221
000310 1f cd 4b be 7e b3 52 be 2e 91 4b 3e 0a 6c 9b 3e
       -0.19902466 -0.20576283 0.198796 0.30355865
000320 a1 37 d9 bd d9 b8 a1 3d ae 08 81 3e 33 7a af be
       -0.106063135 0.07896585 0.25201935 -0.34272918
000330 0c e9 8b 3e e0 da 5e be 2c e2 ac 3e 70 c3 c3 3d
       0.27326238 -0.21763182 0.33766305 0.09558761
000340 cc 00 b9 3e 33 18 99 bc 64 33 9f 3d 44 70 11 be
       0.3613342 -0.018688297 0.07773474 -0.14202982
000350 54 dc 2d 3e 8e b0 32 3e ec 1c c4 be 06 a9 26 3e
       0.1697858 0.17450163 -0.38303316 0.16275415
000360 9a 1d 48 be 8e 83 fa 3c c1 54 96 3e bb 20 9b 3e
       -0.19542542 0.030580308 0.29361537 0.3029841
000370 66 ad 57 3c 4a ab e7 3d 4b 04 ce be 6b 80 af be
       0.0131639 0.11311968 -0.4023765 -0.34277663
000380 7f 51 13 be f3 da af bd a0 8d 0a bd 9d b8 fc bc
       -0.14386557 -0.08586683 -0.03382647 -0.03084975
000390 85 74 b5 3e 45 44 ef bd 8a 13 c5 3e 1f af 1f 3e
       0.3544046 -0.11682943 0.3849147 0.15594147
0003a0 4c 80 2e be 7b df 61 3d e3 49 01 be 54 c2 ee be
       -0.17041129 0.05514477 -0.12625842 -0.46632636
0003b0 c6 f3 aa 3e 73 1b a3 be 4a 43 27 3c 79 8f 99 bd
       0.3338911 -0.3185688 0.010208914 -0.07498068
0003c0 d4 ac 61 3d 6d 4e 21 3e 04 00 a9 3c e1 0a 4d be
       0.055096462 0.15752573 0.02062989 -0.20023681
0003d0 cc 51 26 be 4b 88 0d bd 7c dc c2 be 22 19 6c 3d
       -0.1624214 -0.034553807 -0.3805884 0.057641156
0003e0 64 6b fb bd 68 a4 89 3e 76 15 56 3c 1b 2d 75 3e
       -0.122763425 0.26883245 0.01306664 0.23942988
0003f0 12 50 0c be 7e 03 a5 3e cc 43 55 be c5 48 6f be
       -0.1370242 0.32229227 -0.20826644 -0.23367603

decoder_lstm.weight_hh_l0 f4 [64, 16]
000000 b4 c4 94 3b 6c 56 95 3e 3a 9c 5c bd d7 75 7b 3c
       0.0045400504 0.29167497 -0.053859927 0.015347919
000010 a7 fd 03 3e d4 06 8f bb 91 cf 09 3e f8 7d c0 bb
       0.1288973 -0.0043648276 0.13458087 -0.0058743916
000020 6d 4c 34 bd 02 c1 02 be 41 cc 5b 3e e0 91 25 3e
       -0.044018198 -0.12768939 0.21464635 0.16168928
000030 91 a3 65 be d5 c5 89 3d 3b 53 66 bd 84 c3 91 3e
       -0.22425677 0.067271866 -0.05623172 0.2846948
000040 76 ba a0 be d7 df 46 3d 07 7b 84 be 9f c4 bb be
       -0.31392258 0.048553314 -0.25875112 -0.36673447
000050 95 3e 43 bc c5 22 97 bd 8f 7f 7a 3d 44 ac 9b 3e
       -0.011916776 -0.07379679 0.061156806 0.30404866
000060 15 ed be bc a6 f8 c7 bc 9e 92 6c 3d a6 aa 4d 3e
       -0.023306409 -0.024410557 0.057757013 0.20084628
000070 eb dc 0a be af 00 fa bd cc a8 d1 be cb ba e1 bd
       -0.13560836 -0.12207162 -0.40949094 -0.11021956
000080 76 cb 60 be ec 7b de 3d 03 d0 44 3c f3 bd 03 3e
       -0.21952614 0.1086348 0.0120124845 0.12865429
000090 12 16 2e bc c4 25 73 3d db d8 9f bd 3e 4b d9 3e
       -0.010625379 0.059362188 -0.07805034 0.42440218
0000a0 0e 35 18 3e 63 9e a1 3e 8e d3 b0 3e c9 92 0e 3c
       0.14863989 0.31566152 0.34536403 0.0087019885
0000b0 ed 85 59 be 20 39 b4 bd 63 b3 0a be 8b ca 51 3e
       -0.21242495 -0.08799958 -0.13544993 0.2048742
0000c0 69 21 68 be 2f 4f 41 3e b1 72 56 3d 1b ce 08 be
       -0.22668995 0.18877862 0.052355472 -0.13359873
0000d0 d6 c7 69 3d ac f0 89 3b 3b 20 38 bd 3b 81 49 3e
       0.057075344 0.0042095985 -0.044952612 0.19678204
0000e0 8e 27 c3 3d f2 b0 b3 bd 5c 03 5e 3d ac c1 e7 bd
       0.09529029 -0.08773984 0.054202422 -0.11316237
0000f0 ce 70 77 bd b6 94 ec bb ce e1 b0 be f5 b3 8c 3d
       -0.060410313 -0.007219876 -0.34547275 0.068702616
000100 8e 83 31 be a0 a0 dd bc cd aa 32 3e b2 d5 da bc
       -0.1733534 -0.027054131 0.17447968 -0.026713226
000110 f8 a4 7f 3e 39 c7 9c bc 7c 0c 03 3c ba 75 a5 3e
       0.24965274 -0.019137966 0.007998582 0.3231638
000120 14 71 60 3e 01 06 0a 3d c2 f6 aa 3e bf af 67 bd
       0.21918136 0.033697132 0.33391386 -0.05656409
000130 7c d4 6c bd b4 38 3f be 05 15 58 be 44 3a 40 3e
       -0.05781983 -0.18673974 -0.21101768 0.18772227
000140 7b 57 07 3e 27 cb 7d be 53 4e 5b bd 4c 71 94 3c
       0.13216965 -0.24784528 -0.053541493 0.01812043
000150 58 3e a4 3d d8 16 b1 3c eb c5 5f be ad df 51 be
       0.080197036 0.021617338 -0.21852843 -0.20495482
000160 9b 4c 2d bd b4 62 f9 bc 6b d4 54 bc 37 e0 52 be
       -0.042309385 -0.030442573 -0.0129900975 -0.20593344
000170 b5 9e 59 3d 31 7d 2c 3e 00 a1 d6 bd 20 0f d9 3e
       0.05312987 0.16844632 -0.10479927 0.42394352
000180 60 a4 b6 be 17 74 89 3d 4a 92 0c 3d 2e 65 8f be
       -0.35672283 0.067115955 0.0343192 -0.2800688
000190 50 67 ee 3c 5c 4a a5 bd 72 ae a2 be d8 ef b0 3d
       0.029101998 -0.080708236 -0.31773716 0.086394966
0001a0 de 44 a0 3e 38 3d 89 3e 08 13 7a 3e e0 ba 37 bd
       0.31302541 0.2680452 0.24421322 -0.044855952
0001b0 89 2f 40 bc 16 b6 c2 bb 78 d4 81 3c 36 f6 93 3e
       -0.011730083 -0.0059421165 0.015848383 0.28898782
0001c0 98 74 84 be b2 db a3 bd d4 5d 9a be 05 ca 75 be
       -0.25870204 -0.08000888 -0.3014971 -0.24002846
0001d0 11 2d 84 3e fb 3c a7 be 07 12 b9 bd 2c d0 45 3e
       0.25815633 -0.32663712 -0.090366416 0.19317693
0001e0 c5 1e 88 3d 5c 60 c7 3d 04 d3 4d 3b 39 f1 7b bc
       0.06646494 0.09735176 0.0031406293 -0.015377336
0001f0 fd 7a b5 bd 99 53 ee bd dc bb bf bd 8a bf 0b 3e
       -0.08861349 -0.11637039 -0.09362003 0.13647285
000200 43 86 01 be 6a 17 3f 3e 74 01 2a bd f2 19 ad bb
       -0.12648873 0.18661276 -0.041505292 -0.005282634
000210 72 6a a3 3e 75 c9 75 be 58 4c 0e 3e 6d e5 d3 3d
       0.3191715 -0.24002631 0.1389631 0.10346494
000220 10 02 60 3e e0 58 37 3d e3 df 04 3e 32 96 02 be
       0.21875787 0.044762492 0.12976031 -0.12752607
000230 07 58 24 3e ab 7c 1c be df 78 5d bc cb 0c a7 3b
       0.16049205 -0.15281932 -0.013517587 0.0050979606
000240 df 5c 76 be fe c1 24 bd ab 4a 93 be 5b 3e 92 be
       -0.24058865 -0.040224068 -0.28767905 -0.28563198
000250 e3 2d 73 3e 5c 2a 73 be a0 84 7a be 9f b2 2b 3e
       0.23747973 -0.23746628 -0.24464655 0.16767357
000260 2c 0c ad bc 4c 1c 76 3e 55 c1 33 3e f8 a0 26 be
       -0.021123968 0.24034232 0.17554219 -0.16272342
000270 c2 92 d1 bd f7 b3 60 be f3 b6 d3 be dd 02 87 3d
       -0.1023307 -0.21943651 -0.41350517 0.06592343
000280 51 c7 67 3b 24 54 5c 3e fd 2c 67 be cb ae 77 be
       0.0035366605 0.21516472 -0.22575755 -0.24187772
000290 80 1e bf bb 8f 54 15 be 11 4b 30 be 05 55 c8 bc
       -0.0058324933 -0.14583038 -0.17216136 -0.024454603
0002a0 ae 21 13 3e 8d f6 71 be 3b f6 76 3e 40 78 e6 3c
       0.14368317 -0.23629208 0.24117367 0.028133512
0002b0 80 1a ed 3b 46 c1 0f be e1 27 bb 3d 4d f9 24 bd
       0.007235825 -0.14038572 0.09138466 -0.040276814
0002c0 5b a2 92 3c fb 22 69 be 01 63 88 bc 07 24 24 bc
       0.017899683 -0.2276725 -0.016648771 -0.010018355
0002d0 cf a3 3f 3b 6e f8 07 3c 0f 78 9d be e4 58 3b be
       0.0029241925 0.008298976 -0.3075566 -0.18295628
0002e0 1c 80 4e 3e 69 d5 c2 3e 38 11 82 3e b5 90 b7 3e
       0.20166057 0.38053444 0.25403762 0.3585259
0002f0 0e c7 00 be 02 91 31 be 99 88 b9 3b 41 90 fe 3e
       -0.12575933 -0.17340472 0.0056620357 0.49719432
000300 f9 af cb bc 25 c7 f0 3d db bd d1 be 24 80 ce bd
       -0.024864184 0.11756734 -0.4096516 -0.10083035
000310 68 f3 73 3e 22 cc f0 be 7b 7b 9c be e4 ae a8 3e
       0.23823321 -0.4703074 -0.30562958 0.3294593
000320 58 29 38 bc 62 25 69 3e b2 59 8b 3e 82 bb 46 3e
       -0.011240326 0.22768167 0.2721687 0.19407466
000330 ef d5 d0 bd 4e 49 55 3d 4a 67 83 be c3 1b 9c 3e
       -0.101970546 0.052071862 -0.2566474 0.3048993
000340 e9 ed 12 3b 30 f7 32 be 66 6f e0 bd ff 79 5c be
       0.0022419638 -0.17477107 -0.109587476 -0.21530913
000350 09 03 08 3e f6 9b 21 3d 83 bf 0f be 26 0c 5a 3e
       0.13282408 0.039455377 -0.140379 0.21293697
000360 00 89 07 3e 75 ed 9f 3d 21 e1 16 bd 3f 4c 45 be
       0.13235855 0.07808963 -0.036835793 -0.19267367
000370 8d 33 8a be 88 b4 2d 3e b0 b2 bc 3c b6 49 d8 3e
       -0.26992455 0.16963398 0.023034424 0.42243737
000380 0d 6c ab bd ee 47 d2 3c 36 6a 83 3e d1 74 49 be
       -0.083702184 0.025669064 0.2566697 -0.19673468
000390 6b 8d b2 bd 3f 85 85 bb c9 e0 96 3d 34 7d cd bc
       -0.087183796 -0.004074722 0.07367093 -0.025084116
0003a0 57 9d 0b 3c c3 90 e9 bc aa 37 50 3e ce dc b3 be
       0.008521399 -0.02851141 0.20333734 -0.35129398
0003b0 3d be f2 3d 78 14 19 be e0 3b 81 be 4b f5 12 3f
       0.11852691 -0.14949214 -0.25240993 0.5740554
0003c0 37 9e c9 be ce 14 3b be 21 f4 8f be a3 42 c0 bd
       -0.3937852 -0.18269655 -0.28115943 -0.0938771
0003d0 e5 6b dd 3d f6 d4 0b be 6d a3 3d bc 81 3b 49 3e
       0.10811595 -0.13655457 -0.011574608 0.19651605
0003e0 de b0 73 3e a7 e1 16 3c 0d 76 90 3e de b7 8e 3e
       0.23797938 0.009209073 0.28215066 0.27874655
0003f0 ce 31 1d 3d 9f 0e 47 be 88 e9 94 be 1d 52 d1 3d
       0.038377576 -0.19439171 -0.2908442 0.1022074

decoder_lstm.bias_ih_l0 f4 [64]
000000 9a 17 6f 3e 8b e0 c5 3e 6c ac 3c 3e 06 0c 52 3e
       0.23348847 0.38647875 0.18425149 0.20512399
000010 5c df 8f 3d 98 cc 54 3e bb 5e 60 bd 72 08 bb 3e
       0.07025024 0.20781171 -0.054777842 0.3652988
000020 14 c7 67 bd ae a9 19 3e 7a 90 b3 bd 0f 63 2c 3e
       -0.05658634 0.15006134 -0.08767791 0.16834663
000030 2d 72 5c 3e cf 9f 1e 3e 51 4d 43 3e ec 09 ef 3e
       0.2152793 0.1549065 0.19072463 0.46687257
000040 20 c5 43 bd 83 23 19 3e bd 80 97 3c 4c 39 41 bd
       -0.047795415 0.14954953 0.018494004 -0.047173783
000050 03 df 3e be fd 8b 83 3e 41 66 be 3d e9 6c 89 bd
       -0.1863976 0.2569274 0.09296847 -0.06710226
000060 93 77 50 be 2d ac 00 be 6f e9 36 3e 88 16 98 3d
       -0.20358114 -0.1256568 0.17862485 0.074261725
000070 92 ee f5 bc a7 ea 1a bd f2 b2 20 3a ad 0f aa 3d
       -0.030020986 -0.03782144 0.00061301806 0.08303771
000080 f2 0c ca 3c 8a 03 97 bd d3 84 27 3e 64 2c 8b bd
       0.024664376 -0.07373722 0.16359262 -0.06795576
000090 1f 4f 03 3e 9e 59 fa bd 82 ce 8d 3d c4 49 8a 3d
       0.12823151 -0.12224124 0.06924154 0.06752351
0000a0 cc e1 b0 3d b3 58 52 be f2 ef 2f 3d 54 7c 69 3e
       0.08636817 -0.20541649 0.04295344 0.22801334
0000b0 33 34 5d be e9 2b 84 bd b7 f5 2a 3c 7b f7 5f 3e
       -0.21601944 -0.06453688 0.01043456 0.2187175
0000c0 dc 76 6f bd 73 f2 19 3e 42 56 af 3e 15 9a b1 3a
       -0.058462963 0.15033893 0.34245497 0.0013549948
0000d0 08 a8 81 3e 9d f2 08 be b4 0a 2b 3e 4f 8d 85 3e
       0.2532351 -0.133738 0.16703302 0.26084372
0000e0 68 c7 0b bc 97 10 83 3d bf 6b 43 be 38 c1 b8 3c
       -0.008531429 0.06399649 -0.1908407 0.022553071
0000f0 f0 2e f1 3e 77 b6 ad 3e 47 02 aa 3e 38 0b 90 3e
       0.47106123 0.33928272 0.33204862 0.2813356

decoder_lstm.bias_hh_l0 f4 [64]
000000 48 03 64 3e b7 3a fd bb 6a b3 8e 3e dd e7 8b 3e
       0.22266877 -0.0077279466 0.27871257 0.27325335
000010 20 34 a6 bc 0e 3c f2 3d 8a 14 15 3e db ce ce 3e
       -0.020288527 0.11827861 0.14558616 0.40392193
000020 40 bd df bd d9 1f 61 bc 88 21 90 3d 9d f1 8a bd
       -0.109247684 -0.013740503 0.070376456 -0.06784365
000030 a1 cb 18 3e ff 6a 8d 3d a4 2e 7b 3e c3 a6 1a 3d
       0.14921428 0.069051735 0.2452951 0.037756693
000040 bd 30 03 3e 12 75 a6 3d 59 df 08 3d 39 56 89 bd
       0.12811561 0.08127798 0.033416126 -0.06705899
000050 b9 54 b1 3d d8 35 c7 3d 5b c0 29 3d 84 1b 38 3e
       0.08658738 0.09727067 0.04144321 0.17979246
000060 55 fa 02 bd bd 38 e1 3d c4 11 ab bd e2 d6 62 3e
       -0.031977016 0.1099715 -0.08352998 0.22152284
000070 04 22 61 bc 14 d6 b5 bc c0 4c 41 3e 5f 3a ee bd
       -0.01374102 -0.022196807 0.18876934 -0.11632227
000080 65 22 6c be 9c 43 82 3e 41 06 33 be c3 72 47 bd
       -0.23059995 0.25442207 -0.17482854 -0.04869343
000090 ab 32 14 3d d5 57 88 be 8b 91 77 bd f2 48 5e be
       0.036181133 -0.2662951 -0.060441535 -0.21707514
0000a0 47 3d f0 3d a1 d0 80 be 44 28 35 3e c6 7d 4e 3e
       0.11730438 -0.2515917 0.17691141 0.20165166
0000b0 af a2 52 3d e1 64 3a be 4d 0e c3 bc 21 18 8a bc
       0.05142468 -0.18202545 -0.02381053 -0.016857209
0000c0 da e0 a2 bd b3 1e d9 3e 03 4a 22 bc 68 b9 61 3e
       -0.07953043 0.42406234 -0.009905341 0.22043383
0000d0 54 d5 9e 3d 17 0d 83 3e 3b df 84 3e 7c f7 e6 3e
       0.07755533 0.25595924 0.2595156 0.4511069
0000e0 ee 1b b7 3e 7f ba 8b 3d 05 72 54 3e 51 5b 06 3e
       0.35763496 0.06822681 0.2074662 0.13120772
0000f0 b3 cf de 3e 5f a0 29 3d 7d bc ec 3d 5d a8 75 3e
       0.43517837 0.041412707 0.11559389 0.23990007
