lstm_ckpts/lstm-epoch=02-train_loss=0.96.ckpt (torch, 337176 bytes, 33 tensors)

embedding.weight f4 [20, 128]
0.41979846 -0.81710654 -1.129499 0.0826531 1.3717959 -0.9665384 0.4623325 0.62232584
-0.30129105 -0.42874765 -0.36524507 0.6973115 0.5553473 0.99613965 0.20468187 0.8340305
-0.12771793 1.8540905 -1.6174864 0.11485432 -1.5623864 1.9549346 1.056594 0.23588517
-1.5057563 -0.047282618 -0.51205367 0.82143897 -0.21917664 -0.4179305 -1.0538809 -1.8458825
0.042960178 0.3937179 0.6916792 0.057143282 1.4248137 -0.4639399 -0.12497112 -1.4130144
-0.3132497 0.50805306 1.3086494 -0.42109716 -0.6356972 0.96793765 2.43576 0.16653597
0.7059227 -0.35331988 -0.32309303 0.79598475 -2.6932302 1.0757113 -0.8051966 1.2403883
0.026216924 1.0053011 -0.47571218 -0.7094688 -0.3457142 -1.0845177 1.4386803 -2.0428252
0.14893377 -1.1765788 -0.32351205 1.2102405 -0.036617626 -0.0069053993 -0.40040752 0.94546515
0.5017395 -0.09164818 0.40978637 0.07027125 0.10475119 0.60757655 2.045378 0.042353652
0.2218954 -1.038572 0.92213213 0.93546206 -1.3438611 -0.046753492 0.5030364 -0.41043475
0.54411864 0.7891042 0.94791514 0.7577252 1.3488173 2.0205045 1.5954368 1.2387758
-0.40438232 -0.3069403 -1.2727844 -0.017121676 -0.8024814 0.06895861 2.0072923 2.3623104
-0.5288103 -0.4967419 -1.324401 0.22171018 0.0099971155 0.6209261 -0.26192743 0.14947572
0.07333614 -2.2296875 -1.6275218 1.7744061 0.39620477 -0.10707428 0.38498804 0.35198596
-0.2780742 0.8867269 -0.047064494 -0.35507616 -0.9491533 0.4452001 -0.34625986 -1.9373255
-0.036708556 0.51498455 0.5169512 -0.768448 -0.31490523 1.3109223 0.93014354 -0.09156218
-1.5901389 -0.37979487 -1.3045622 0.8109781 -0.07637868 -1.6475351 0.26476187 0.37134352
1.2810057 3.1921608 -0.42469576 0.84346014 0.40234903 -1.328225 -1.2441448 0.6596596
0.3829132 0.8596103 -0.50131667 0.38801098 0.771397 1.160681 0.2098457 0.2047247
-0.080980316 0.04037103 0.04125189 1.0935014 -1.6196766 0.532299 0.07511158 -0.5803232
0.25558934 0.1733007 0.44586623 -1.2809044 0.33911943 -0.59786576 -0.13728309 0.031744745
-0.45579767 0.59124976 -0.503289 -0.89081836 -2.1368773 0.032376196 -0.16229866 0.18881895
1.6403296 -0.15944716 -0.35416806 -0.0630057 -0.15636039 -0.7934808 -1.2016592 0.37887764
0.044771202 -1.649718 -0.025866661 1.0455322 -2.191795 1.3219495 0.10571687 0.25307554
0.79190296 -0.12589218 0.9869381 -0.65691173 0.9638708 0.9145803 -1.4232888 0.83104855
1.4005237 1.8404547 0.23714969 0.40768752 0.7254004 1.1098971 0.19784759 0.1011786
1.8249878 0.83241236 0.025010921 -0.90037745 -0.67690825 -1.1406139 0.6803109 -0.24659368
-1.088019 -1.1553277 0.98858964 0.12737045 -0.6693958 0.2641738 1.892197 -0.19277255
-0.12226958 0.48418155 -0.4744397 -0.51266897 -0.96077996 -1.104179 2.4835165 -0.4055293
-2.4959135 0.78366345 -0.08761495 0.5731969 -0.425201 -1.2852998 -0.78106624 0.23680267
1.343523 1.091077 -0.89375234 -0.0065968456 -0.6909965 -1.0958766 2.971902 -1.5889479
00000000: d3ef d63e e52d 51bf 6c93 90bf 0746 a93d
00000010: 0297 af3f 106f 77bf d8b6 ec3e bf50 1f3f
00000020: d242 9abe d084 dbbe 6701 bbbe 0283 323f
00000030: 3e2b 0e3f 0203 7f3f 2098 513e 0683 553f
00000040: 7dc8 02be d652 ed3f cb09 cfbf be38 eb3d
00000050: 47fc c7bf 4c3b fa3f 793e 873f e28b 713e
00000060: 9fbc c0bf 6bab 41bd f315 03bf d349 523f
00000070: d76f 60be fdfa d5be 92e5 86bf e145 ecbf
00000080: 03f7 2f3d 6595 c93e e311 313f 130f 6a3d
00000090: 4c60 b63f 8889 edbe dcf0 ffbd a8dd b4bf
000000a0: 4462 a0be c40f 023f d381 a73f 0c9a d7be
000000b0: 0dbd 22bf c3ca 773f 7ee3 1b40 6888 2a3e
000000c0: 5ab7 343f 58e6 b4be 736c a5be a8c5 4b3f
000000d0: e25d 2cc0 e8b0 893f 5d21 4ebf 0bc5 9e3f
000000e0: e0c4 d63c b5ad 803f 8c90 f3be bf9f 35bf
000000f0: 7401 b1be 7ad1 8abf ad26 b83f a6bd 02c0
00000100: 1882 183e 229a 96bf 5fa3 a5be 29e9 9a3f
00000110: 5dfc 15bd b046 e2bb 3702 cdbe 010a 723f
00000120: 0072 003f 0ab2 bbbd 85cf d13e 60ea 8f3d
00000130: cb87 d63d 238a 1b3f 79e7 0240 067b 2d3d
00000140: 8c38 633e edef 84bf da10 6c3f 717a 6f3f
00000150: a403 acbf 9780 3fbd fec6 003f 8124 d2be
00000160: 5c4b 0b3f bc02 4a3f 91aa 723f 47fa 413f
00000170: 0ca6 ac3f f24f 0140 4637 cc3f 3590 9e3f
00000180: 330b cfbe 4727 9dbe 99ea a2bf c242 8cbc
00000190: 6c6f 4dbf 2c3a 8d3d 7a77 0040 1830 1740
000001a0: 1d60 07bf f454 febe f985 a9bf fe07 633e
000001b0: f1ca 233c 03f5 1e3f 5a1b 86be 2a10 193e
000001c0: 4231 963d 33b3 0ec0 a252 d0bf bd1f e33f
000001d0: 5adb ca3e c349 dbbd 271d c53e 8137 b43e
000001e0: be5f 8ebe 8900 633f b3c6 40bd 8bcc b5be
000001f0: b6fb 72bf 44f1 e33e f948 b1be 48fa f7bf
00000200: b65b 16bd 07d6 033f ea56 043f 02b9 44bf
00000210: 423b a1be 4dcc a73f e31d 6e3f f484 bbbd
00000220: ac89 cbbf 7974 c2be e5fb a6bf 439c 4f3f
00000230: 6d6c 9cbd 6ee2 d2bf de8e 873e bd20 be3e
00000240: fff7 a33f 5d4c 4c40 b971 d9be 01ed 573f
00000250: b100 ce3e 4703 aabf 2340 9fbf 74df 283f
00000260: 330d c43e 6c0f 5c3f 4a56 00bf 60a9 c63e
00000270: 467a 453f 3291 943f cbe1 563e 5aa3 513e
00000280: 02d9 a5bd 185c 253d bef7 283d dbf7 8b3f
00000290: 9051 cfbf bf44 083f 1ad4 993d 1090 14bf
000002a0: 9bdc 823e bd75 313e 9448 e43e adf4 a3bf
000002b0: 10a1 ad3e bb0d 19bf f093 0cbe c706 023d
000002c0: 505e e9be 255c 173f 8cd7 00bf ac0c 64bf
000002d0: 99c2 08c0 e79c 043d 9f31 26be c159 413e
000002e0: 52f6 d13f 1e46 23be 8455 b5be 2209 81bd
000002f0: f01c 20be 8f21 4bbf f8cf 99bf 40fc c13e
00000300: 0262 373d f629 d3bf 52e6 d3bc 00d4 853f
00000310: 5f46 0cc0 a435 a93f 1682 d83d 1e93 813e
00000320: 27ba 4a3f e1e9 00be faa7 7c3f 5e2b 28bf
00000330: 3dc0 763f ef21 6a3f 542e b6bf 99bf 543f
00000340: 5c44 b33f 0594 eb3f 5ed7 723e 6bbc d03e
00000350: d7b3 393f 1c11 8e3f 8f98 4a3e ba36 cf3d
00000360: 3399 e93f fa18 553f b4e3 cc3c 237f 66bf
00000370: dc49 2dbf a3ff 91bf db28 2e3f 0e83 7cbe
00000380: 3544 8bbf c7e1 93bf 3614 7d3f 666d 023e
00000390: 865d 2bbf ca41 873e 8333 f23f 2b66 45be
000003a0: 7968 fabd a5e6 f73e c3e9 f2be 463e 03bf
000003b0: adf5 75bf bd55 8dbf eff1 1e40 89a1 cfbe
000003c0: 0cbd 1fc0 2b9e 483f 786f b3bd 08bd 123f
000003d0: f2b3 d9be b484 a4bf f5f3 47bf 667c 723e
000003e0: 90f8 ab3f 69a8 8b3f f4cc 64bf 5a2a d8bb
000003f0: 26e5 30bf af45 8cbf a433 3e40 a562 cbbf

encoder_lstm.weight_ih_l0 f4 [128, 128]
-0.036663238 0.14932185 0.22500126 0.01260763 0.051099397 -0.24695282 0.06602047 -0.123488255
0.1640736 0.2258506 -0.16474439 0.091333665 0.04194211 -0.13625771 -0.13237849 -0.012119249
-0.017147738 0.047194693 0.07035819 0.08498074 0.07591706 0.009321017 -0.013321441 -0.066430196
-0.15752433 -0.020989187 -0.06766331 -0.23646902 0.13243772 0.01916249 0.33214387 0.19722019
0.12703358 -0.12968263 0.04038893 0.07625961 -0.19270803 0.054329578 -0.28659484 0.0064818496
0.21572648 0.15615883 -0.16672695 -0.14328845 -0.17899616 -0.03793842 -0.15602115 0.057239924
-0.16845357 0.11523533 -0.2128466 -0.010406339 -0.10934107 0.14663987 0.214989 0.1686054
-0.0034377924 -0.06659467 0.18541409 -0.08927626 -0.16255109 -0.14015888 0.11800583 0.1876611
0.27745917 -0.18430485 -0.069764555 0.016848942 -0.0024316835 -0.0726546 0.011613338 -0.097788595
-0.04281322 0.22236843 -0.22344284 0.1489405 0.16779803 0.14078961 -0.09185947 0.13508171
-0.06465689 0.07401867 -0.06284892 -0.11708588 -0.16706131 0.07808872 0.0024211248 0.13157658
-0.06810912 -0.13571145 0.069079764 0.08669634 -0.029368054 -0.104801506 -0.13123077 -0.071365826
-0.08133225 0.019544648 0.11372475 -0.14732943 -0.13489693 -0.1452369 -0.08348952 -0.099894606
0.07475841 0.1632167 -0.14040595 0.109095834 0.13297345 -0.013193731 0.03767386 -0.12367045
-0.016100878 -0.10401208 0.11182912 0.17310879 -0.063669145 0.04539802 0.18085386 0.09145701
0.12239884 0.04684702 -0.19077453 -0.10175214 -0.11472493 0.15413678 0.17083941 0.15818426
0.25703883 -0.012123527 -0.037241995 -0.116174765 -0.031900834 0.047345906 0.09609245 0.047583867
0.23150513 -0.13860765 -0.268045 -0.14766164 -0.1442066 -0.08156407 -0.16110432 0.09867987
-0.13797423 -0.014920255 0.06341569 0.17916644 -0.027348906 0.049267743 0.015494744 -0.022680841
0.09456607 0.074281424 0.14551093 -0.05697849 -0.2752258 -0.004375097 0.21369874 -0.17278852
-0.22167164 0.1616734 0.122180566 0.11628153 -0.046284597 -0.054075778 0.201051 -0.07928617
-0.06347559 -0.058068834 0.1671509 -0.056153666 -0.11262125 0.15747468 0.23066472 0.08277499
0.006279918 0.04703966 -0.12125851 -0.12308975 0.006028144 -0.025962854 -0.00464769 0.04423214
-0.06412592 0.0014216598 -0.1149061 -0.017064683 0.08379709 0.06696588 -0.052376106 0.15021935
0.057854492 -0.18702653 -0.08116263 0.115264826 -0.23184352 0.1558257 0.087021485 -0.16547176
0.16085294 0.23039286 0.040321637 0.052211493 -0.008903795 -0.0017150693 0.2108877 0.092600204
0.1443658 -0.016515339 0.12524736 0.029524647 0.13706972 -0.1350038 0.15492052 -0.11922907
0.07716029 0.006031983 0.07446518 0.11596899 0.09620627 -0.08670412 0.04905061 0.15975837
0.083443694 -0.13203481 -0.07483098 0.0057482165 0.011531055 0.05291593 0.17752402 -0.027091965
-0.06536403 -0.08334617 -0.098270744 0.2009223 -0.099182084 0.09294022 0.10725105 -0.13484997
0.14724216 0.019172871 -0.0054525523 0.020926975 0.06891035 -0.08964896 -0.075462334 0.1835524
0.1720414 -0.14197053 0.087801 -0.16047336 -0.17732546 -0.15386721 -0.12525986 -0.1700805
00000000: 312c 16bd d4e7 183e bb66 663e 3c90 4e3c
00000010: 9a4d 513d 33e1 7cbe bd35 873d 69e7 fcbd
00000020: e902 283e 6145 673e c1b2 28be 250d bb3d
00000030: 7dcb 2b3d 2487 0bbe 3a8e 07be d18f 46bc
00000040: 6a79 8cbc 394f 413d f417 903d 620a ae3d
00000050: 677a 9b3d 2eb7 183c 2c42 5abc 8e0c 88bd
00000060: 0f4e 21be 84f1 abbc 1093 8abd ef24 72be
00000070: c19d 073e a7fa 9c3c c30e aa3e 17f4 493e
00000080: 1715 023e 86cb 04be dd6e 253d 002e 9c3d
00000090: 4155 45be b188 5e3d 8fbc 92be b265 d43b
000000a0: 67e7 5c3e 1ae8 1f3e 78ba 2abe 35ba 12be
000000b0: c54a 37be 5165 1bbd 02c4 1fbe 6974 6a3d
000000c0: 187f 2cbe 8000 ec3d 76f4 59be 597f 2abc
000000d0: 36ee dfbd c328 163e 1426 5c3e e5a6 2c3e
000000e0: 964c 61bb c962 88bd 31dd 3d3e 79d6 b6bd
000000f0: cb73 26be cf85 0fbe 0aad f13d 3b2a 403e
00000100: 210f 8e3e 69ba 3cbe b8e0 8ebd cb06 8a3c
00000110: e15c 1fbb efcb 94bd df45 3e3c 6345 c8bd
00000120: ea5c 2fbd 8db4 633e 33ce 64be dc83 183e
00000130: 3fd3 2b3e 272b 103e d120 bcbd dc52 0a3e
00000140: d56a 84bd 1a97 973d efb6 80bd b9ca efbd
00000150: 1f12 2bbe fbec 9f3d bcab 1e3b 03bc 063e
00000160: cb7c 8bbd f1f7 0abe b179 8d3d da8d b13d
00000170: 4695 f0bc 2ca2 d6bd 5c61 06be 3f28 92bd
00000180: 8691 a6bd 191c a03c 86e8 e83d 87dd 16be
00000190: 6c22 0abe fbb8 14be 8efc aabd 8b95 ccbd
000001a0: f01a 993d 4722 273e 94c6 0fbe a36d df3d
000001b0: 312a 083e 852a 58bc e84f 1a3d ef46 fdbd
000001c0: fde5 83bc 4904 d5bd aa06 e53d 6e43 313e
000001d0: f864 82bd 46f3 393d c131 393e d04d bb3d
000001e0: 3eac fa3d a9e2 3f3d 665a 43be 6d63 d0bd
000001f0: e7f4 eabd 08d6 1d3e 87f0 2e3e 0efb 213e
00000200: 989a 833e c2a1 46bc 108b 18bd 09ed edbd
00000210: 73aa 02bd c8ed 413d 1ecc c43d 4de7 423d
00000220: ae0f 6d3e 2aef 0dbe 323d 89be 9d34 17be
00000230: e5aa 13be 100b a7bd 88f8 24be ac18 ca3d
00000240: 1e49 0dbe 1674 74bc 16e0 813d 6877 373e
00000250: d00a e0bc f9cc 493d abdd 7d3c 2ccd b9bc
00000260: dbab c13d dc20 983d d100 153e 4762 69bd
00000270: 65ea 8cbe f95c 8fbb d8d3 5a3e 79ef 30be
00000280: e4fd 62be b68d 253e ce39 fa3d 0325 ee3d
00000290: eb94 3dbd 907e 5dbd 50e0 4d3e ca60 a2bd
000002a0: 7dff 81bd 96d9 6dbd 9b29 2b3e 6301 66bd
000002b0: f8a5 e6bd 0b41 213e 5f33 6c3e ef85 a93d
000002c0: c5c7 cd3b a9ac 403d 6256 f8bd 7b16 fcbd
000002d0: bd87 c53b 0db0 d4bc a64b 98bb c32c 353d
000002e0: 7354 83bd fd56 ba3a e453 ebbd 3ccb 8bbc
000002f0: cf9d ab3d 6825 893d 5488 56bd 1ad3 193e
00000300: d5f8 6c3d e283 3fbe 9838 a6bd f70f ec3d
00000310: 6368 6dbe c690 1f3e 5238 b23d 6e71 29be
00000320: a2b6 243e 1bec 6b3e 4d28 253d b8db 553d
00000330: 39e1 11bc 2dcc e0ba f2f2 573e 2da5 bd3d
00000340: a1d4 133e 2d4b 87bc d840 003e acdd f13c
00000350: 015c 0c3e 703e 0abe 7ca3 1e3e 5f2e f4bd
00000360: 3706 9e3d f1a7 c53b 3381 983d 2681 ed3d
00000370: cb07 c53d ee91 b1bd 4be9 483d b397 233e
00000380: 87e4 aa3d 2234 07be fc40 99bd 895b bc3b
00000390: c0ec 3c3c 60be 583d dbc8 353e f8ef ddbc
000003a0: 94dd 85bd 66b1 aabd 2c42 c9bd 93be 4d3e
000003b0: fa1f cbbd 7157 be3d 70a6 db3d 1c16 0abe
000003c0: a6c6 163e 6d10 9d3c 53ab b2bb 0c6f ab3c
000003d0: df20 8d3d e099 b7bd ff8b 9abd 29f5 3b3e
000003e0: 9f2b 303e b960 11be 03d1 b33d 2153 24be
000003f0: ce94 35be 5e8f 1dbe 1f44 00be 9529 2ebe

encoder_lstm.weight_hh_l0 f4 [128, 32]
0.020078301 -0.08580438 0.09963124 0.3975945 0.03527804 0.09362489 -0.07177409 -0.017503012
0.21992688 0.01669098 -0.21900979 -0.16717495 -0.005384565 0.060520515 0.2548817 0.25772434
-0.21772069 0.31817895 -0.015025466 0.08419371 0.13459618 0.049583342 0.055555876 0.04920888
-0.096289076 0.42731148 -0.1700533 0.09504971 0.30941093 0.0690138 -0.07180127 -0.10596744
-0.14540987 0.16347314 0.2512839 0.12523173 0.08756038 -0.28444418 0.07568139 -0.26979634
-0.28898573 0.04215307 0.04467589 -0.0641406 0.14262393 -0.10602729 0.049746033 -0.09970458
0.033193137 0.1301154 -0.19687954 -0.09851689 0.02295671 -0.14620227 -0.19031194 0.013703482
0.079342514 0.025034735 -0.18114886 0.3471083 0.15917723 0.14937165 -0.0708638 0.12261667
0.14935392 -0.31152034 0.14440478 0.047810074 -0.21513163 -0.09509276 -0.12984948 0.01798826
-0.23804726 0.12539615 0.22103912 -0.046144065 0.0519517 -0.1694183 -0.0930434 -0.26691964
0.22843161 -0.36974454 -0.071192786 -0.011880989 0.044294376 0.10502574 0.09623915 -0.09897036
0.17351964 0.052571375 -0.11453569 0.053319696 0.01442873 0.1894773 0.18384364 0.1195426
0.005028455 0.09845083 0.3743822 -0.080008276 0.09209378 -0.25227085 0.26097423 -0.4042703
-0.02267648 0.08858526 -0.021071104 -0.19615106 -0.22775371 -0.1936587 0.22684655 -0.009565637
-0.100770615 0.2949238 -0.15465313 -0.03225933 0.28440753 -0.23773508 -0.27150932 0.13922378
0.30482402 -0.110932335 -0.31089762 0.3802492 0.090049 -0.026775211 0.11631263 0.24310263
0.23236671 0.38652262 0.17645326 0.053232256 0.20080584 -0.18763794 0.2595853 0.05340957
0.090329975 -0.0829612 0.31726408 0.04760738 -0.047690302 0.1020437 -0.07707203 0.013315336
-0.052129827 0.061289832 0.088280216 -0.13700156 0.1427298 -0.08325567 -0.14940484 -0.24872446
-0.30308378 -0.14975654 -0.29263324 0.08198069 0.24076866 0.031025544 0.09500157 0.27671102
0.05794771 0.23228502 0.07749449 -0.20200346 0.22955237 -0.14940278 -0.2705055 -0.28154323
-0.013172313 -0.010605689 0.017837401 0.10640258 -0.0756152 -0.023674708 0.04824846 0.17954993
0.4416328 0.22499864 -0.2014355 -0.20503612 -0.02806773 -0.063036785 -0.0010886106 -0.0055232663
0.28891325 -0.17122442 0.12335142 0.25980815 0.4380763 0.030837495 -0.029244948 0.13674326
0.12533976 -0.2613454 0.056399588 0.069416486 -0.27368817 0.051776804 0.14304654 -0.29308376
-0.35482386 0.19045529 -0.14857648 0.12945108 0.012389656 -0.36575997 -0.044338387 0.18052775
0.08693443 -0.042239293 -0.1019343 0.15646337 -0.013688196 -0.2718165 -0.18801096 -0.07226567
0.25816244 -0.04026272 -0.17091905 0.0059488136 -0.0030046399 0.09439459 -0.0034391626 0.15656605
0.20022908 0.14578092 -0.024884349 0.23896284 0.29624516 0.09130369 -0.004865885 0.079117596
-0.03103617 -0.20203061 -0.12617303 0.17580475 -0.10463499 0.017626598 0.33296216 -0.04457373
-0.340363 0.26898834 -0.17642248 0.036329936 -0.10413869 -0.04493504 -0.1347293 0.03152993
-0.02985151 -0.19976774 0.0040637082 0.13629512 0.03292572 0.06192207 -0.23457097 0.25506845
00000000: 407b a43c 35ba afbd 770b cc3d 8291 cb3e
00000010: b57f 103d 68be bf3d 4bfe 92bd 7a62 8fbc
00000020: 8334 613e 86bb 883c 1a44 60be e92f 2bbe
00000030: 0171 b0bb 5ce4 773d db7f 823e 72f4 833e
00000040: 2cf2 5ebe 5ae8 a23e 5f2d 76bc c06d ac3d
00000050: 95d3 093e e717 4b3d 8f8e 633d 408f 493d
00000060: 3533 c5bd 92c8 da3e 7422 2ebe 6ca9 c23d
00000070: 1c6b 9e3e 1b57 8d3d 8b0c 93bd 7505 d9bd
00000080: 53e6 14be 8165 273e 49a8 803e bf3c 003e
00000090: db52 b33d aba2 91be d8fe 9a3d bf22 8abe
000000a0: f0f5 93be b3a8 2c3d 11fe 363d 265c 83bd
000000b0: 020c 123e d624 d9bd 7fc2 4b3d ea31 ccbd
000000c0: 87f5 073d f93c 053e ca9a 49be 39c3 c9bd
000000d0: b60f bc3c 0cb6 15be 22e1 42be 9284 603c
000000e0: 547e a23d a515 cd3c 167f 39be 2eb8 b13e
000000f0: 5bff 223e e2f4 183e 0a21 91bd 731e fb3d
00000100: 3cf0 183e 987f 9fbe d9de 133e 7fd4 433d
00000110: 774b 5cbe febf c2bd 43f7 04be 1e5c 933c
00000120: a9c2 73be d967 003e 1458 623e 8f01 3dbd
00000130: 4ecb 543d fe7b 2dbe 8a8d bebd b1a9 88be
00000140: fae9 693e 284f bdbe 86cd 91bd 7ba8 42bc
00000150: 056e 353d bc17 d73d 0819 c53d f9b0 cabd
00000160: 22af 313e 1555 573d b091 eabd c165 5a3d
00000170: 7b66 6c3c 5606 423e 8241 3c3e c0d2 f43d
00000180: bdc5 a43b 97a0 c93d 06af bf3e 61db a3bd
00000190: aa9b bc3d a529 81be 6a9e 853e 84fc cebe
000001a0: 06c4 b9bc 306c b53d 4f9d acbc d3db 48be
000001b0: 4538 69be 774e 46be 764a 683e 31b9 1cbc
000001c0: d360 cebd 4100 973e 645d 1ebe 5c22 04bd
000001d0: dd9d 913e d370 73be 4503 8bbe ae90 0e3e
000001e0: e511 9c3e 7e30 e3bd f92d 9fbe 06b0 c23e
000001f0: 9c6b b83d b057 dbbc 5135 ee3d e5ef 783e
00000200: 8af1 6d3e 4be6 c53e 2ab0 343e 110a 5a3d
00000210: 0ca0 4d3e 2924 40be 5de8 843e fec3 5a3d
00000220: ecfe b83d 90e7 a9bd 7070 a23e f5ff 423d
00000230: e856 43bd 4afc d03d f1d7 9dbd 9128 5a3c
00000240: 1686 55bd 0c0b 7b3d 42cc b43d 234a 0cbe
00000250: c327 123e f381 aabd 95fd 18be a0b1 7ebe
00000260: cc2d 9bbe c759 19be 06d4 95be 7ee5 a73d
00000270: 0f8c 763e 4829 fe3c 2f90 c23d 11ad 8d3e
00000280: 945a 6d3d 20dc 6d3e 6eb5 9e3d ffd9 4ebe
00000290: c70f 6b3e 0bfd 18be b27f 8abe 6f26 90be
000002a0: afd0 57bc 7cc3 2dbc be1f 923c 99e9 d93d
000002b0: 24dc 9abd 76f1 c1bc 2da0 453d f0db 373e
000002c0: b21d e23e 0b66 663e 1c45 4ebe fdf4 51be
000002d0: 4cee e5bc 6e19 81bd b6af 8eba 84fc b4bb
000002e0: 70ec 933e 7455 2fbe ab9f fc3d 9305 853e
000002f0: 894b e03e ea9e fc3c 1a93 efbc 6d06 0c3e
00000300: 1159 003e 10cf 85be 4103 673d 3b2a 8e3d
00000310: db20 8cbe ea13 543d cb7a 123e 130f 96be
00000320: 79ab b5be b606 433e 6f24 18be d38e 043e
00000330: fcfd 4a3c e444 bbbe 2b9c 35bd 44dc 383e
00000340: ae0a b23d 1c03 2dbd eec2 d0bd ef37 203e
00000350: 7544 60bc 882b 8bbe f285 40be 0600 94bd
00000360: de2d 843e 86ea 24bd 6705 2fbe 44ee c23b
00000370: 7ee9 44bb f351 c13d 9363 61bb da52 203e
00000380: da08 4d3e 9847 153e 43da cbbc adb2 743e
00000390: 72ad 973e 6efd ba3d 0072 9fbb 6808 a23d
000003a0: 913f febc 1de1 4ebe 8133 01be 2906 343e
000003b0: df4a d6bd a865 903c 047a aa3e f292 36bd
000003c0: 0f44 aebe d7b8 893e 18a8 34be b3ce 143d
000003d0: aa46 d5bd ce0d 38bd 7af6 09be 8725 013d
000003e0: 278b f4bc ea8f 4cbe db28 853b f390 0b3e
000003f0: 1fdd 063d ffa1 7d3d 5f33 70be 5598 823e

encoder_lstm.bias_ih_l0 f4 [128]
0.08133042 0.106473595 0.1648703 0.30529574 0.12341766 0.041553106 0.16430898 0.2512876
0.13029268 0.12237317 0.31511894 0.21478312 0.051783454 0.2154751 0.19494091 0.008043939
0.21819553 0.049724627 0.3354012 0.26494312 -0.054198682 0.29572794 0.17933181 -0.046489283
0.17342882 0.24980988 0.115067825 0.11005152 -0.010482129 0.048026174 -0.039927155 0.18635339
0.08873926 0.22432046 0.1285126 0.13131122 -0.1290223 0.033019606 0.13187459 0.003776609
0.17640148 -0.015424254 -0.011130887 0.25146627 -0.06292046 0.11502781 0.14886764 -0.060138986
0.12573682 0.070956394 -0.03387683 0.053456873 0.06526667 -0.047094803 -0.016310234 0.04606218
-0.039573867 0.08906482 0.14886591 0.060268436 0.09332224 -0.1126655 0.03342912 0.17184424
0.2217785 0.145111 0.10260829 0.05328515 0.09389501 -0.1941833 -0.039773345 -0.15145022
-0.112473845 -0.14310063 0.06486218 -0.13465124 0.14839198 -0.1408422 0.08970456 0.010430206
0.09415747 -0.12630802 0.08578548 -0.17615725 0.032597736 -0.16452585 0.049801134 -0.12493996
-0.021609426 -0.1356567 -0.08198664 0.15368949 -0.015626928 -0.08673664 0.07050701 0.12169975
0.09953268 0.12343407 0.20600931 0.054898124 0.024590423 -0.08949707 -0.08490892 -0.020994676
-0.0031627824 -0.060911823 0.046171945 0.065084696 -0.006518497 0.030974386 0.025922136 0.13806415
0.26831004 0.21031 0.20722246 0.093080275 0.005031448 0.099636406 0.032333717 0.039259776
0.33212537 0.12835413 0.051179744 0.22627702 0.24115284 0.19654109 0.17529613 0.07093439
00000000: 9090 a63d d40e da3d c3d3 283e b94f 9c3e
00000010: 66c2 fc3d 9733 2a3d 9d40 283e c5a8 803e
00000020: 726b 053e c99e fa3d 4557 a13e 1bf0 5b3e
00000030: e31a 543d 81a5 5c3e 979e 473e baca 033c
00000040: a66e 5f3e 0dac 4b3d b5b9 ab3e a0a6 873e
00000050: 70ff 5dbd a769 973e c2a2 373e 8c6b 3ebd
00000060: 5397 313e 29ce 7f3e aea8 eb3d b162 e13d
00000070: 3cbd 2bbc 18b7 443d a88a 23bd 6cd3 3e3e
00000080: eebc b53d 43b4 653e cf98 033e 7376 063e
00000090: 6c1e 04be 913f 073d 220a 073e fc80 773b
000000a0: 97a2 343e 03b6 7cbc 535e 36bc 30c0 803e
000000b0: 71dc 80bd b393 eb3d c270 183e 4c54 76bd
000000c0: 27c1 003e 9651 913d 6ec2 0abd 98f5 5a3d
000000d0: 88aa 853d 7be6 40bd 0a9d 85bc b2ab 3c3d
000000e0: 3518 22bd 9e67 b63d 4e70 183e 09dc 763d
000000f0: bb1f bf3d 2bbd e6bd f9ec 083d f0f7 2f3e
00000100: e719 633e fa97 143e 4c24 d23d 8841 5a3d
00000110: 074c c03d fdd7 46be 60e9 22bd c415 1bbe
00000120: b058 e6bd f988 12be 76d6 843d 04e2 09be
00000130: 11f4 173e f038 10be 06b7 b73d 74e3 2a3c
00000140: a2d5 c03d e456 01be 4cb0 af3d 9162 34be
00000150: 3485 053d 7779 28be 46fc 4b3d 86e0 ffbd
00000160: 4006 b1bc 97e9 0abe 9de8 a7bd c760 1d3e
00000170: 0b04 80bc fba2 b1bd fb65 903d b83d f93d
00000180: cad7 cb3d 00cb fc3d 1bf4 523e dbdc 603d
00000190: db71 c93c 3d4a b7bd bae4 adbd 07fd abbc
000001a0: af46 4fbb ad7e 79bd cb1e 3d3d 204b 853d
000001b0: 1e99 d5bb ffbd fd3c a95a d43c b060 0d3e
000001c0: ef5f 893e 815b 573e 2032 543e dfa0 be3d
000001d0: d8de a43b 2c0e cc3d 5c70 043d dcce 203d
000001e0: 560c aa3e 446f 033e daa1 513d 2ab5 673e
000001f0: c5f0 763e 1142 493e d480 333e 0d46 913d

encoder_lstm.bias_hh_l0 f4 [128]
0.011472308 0.014789629 0.14155512 0.1584888 0.15900004 0.21279883 0.1740178 0.024198681
0.2785638 0.21146144 -0.003691249 0.23831844 0.053165164 0.091253966 -0.13963617 0.05692081
-0.050531693 0.18273737 0.06602016 0.076759435 -0.12302031 0.102848575 0.22173047 0.090856746
0.2911596 0.31447458 -0.110549524 -0.047680788 0.14570235 -0.010521447 0.021089401 -0.06303734
-0.0010979761 -0.070546135 -0.06525513 -0.10922514 -0.049636412 0.22296467 0.037241623 0.026992433
0.081547484 -0.008699727 0.073565476 0.2547038 0.05213511 -0.007071959 0.21744837 0.18892473
0.045962974 -0.14862637 0.08166204 -0.11510694 0.21012945 0.20114318 0.19745426 0.10751533
-0.051875457 -0.06730862 0.14656445 -0.08651349 0.025086127 -0.0957587 -0.09970563 0.071823895
-0.09090473 0.14804591 0.17399421 -0.107042804 0.18249552 0.087317675 0.13259308 -0.06954259
0.071465485 -0.095663376 -0.06492269 -0.101359986 -0.17719449 -0.025722772 -0.07396168 0.116839305
0.1178654 -0.027532062 -0.09762287 -0.17544581 -0.044956803 -0.16109514 0.04523079 -0.010306034
-0.15152653 0.16345935 -0.004015899 0.07188696 -0.06214294 0.061408993 -0.05682328 0.1471447
0.10212877 -0.00988092 -0.11240661 -0.048190657 -0.052666243 0.241239 0.09556351 0.07732131
0.14195468 0.17845432 0.122389115 0.07809055 0.014425086 0.026041288 0.0987038 0.18090919
0.015226736 0.10905652 0.01944751 -0.005222544 -0.02963733 0.08545624 0.06559378 0.16927557
0.17394638 0.004186146 -0.12516153 -0.09293158 0.122431375 -0.055893406 -0.0064432328 -0.04675833
00000000: 59f6 3b3c 3350 723c d3f3 103e e34a 223e
00000010: e8d0 223e f0e7 593e b931 323e 503c c63c
00000020: ea9f 8e3e 5989 583e e2e8 71bb c009 743e
00000030: b7c3 593d 5ce3 ba3d c9fc 0ebe cc25 693d
00000040: 52fa 4ebd 811f 3b3e 9435 873d 0d34 9d3d
00000050: 13f2 fbbd 46a2 d23d 500d 633e 1a13 ba3d
00000060: df12 953e d002 a13e ca67 e2bd ee4c 43bd
00000070: ff32 153e 2662 2cbc aec3 ac3c b919 81bd
00000080: f7e9 8fba 7e7a 90bd 7ba4 85bd 6eb1 dfbd
00000090: 8d4f 4bbd da50 643e ac8a 183d 3c1f dd3c
000000a0: 5e02 a73d 4d89 0ebc 7fa9 963d 8968 823e
000000b0: a08b 553d e4bb e7bb c9aa 5e3e 7c75 413e
000000c0: ac43 3c3d 8331 18be 6d3e a73d 30bd ebbd
000000d0: 2d2c 573e 7af8 4d3e 7331 4a3e ff30 dc3d
000000e0: 5c7b 54bd 1ad9 89bd fe14 163e fc2d b1bd
000000f0: 6c81 cd3c 231d c4bd 7732 ccbd 6818 933d
00000100: 422c babd 5999 173e 8a2b 323e 4239 dbbd
00000110: 1be0 3a3e 9cd3 b23d 7bc6 073e 586c 8ebd
00000120: 7f5c 923d 29eb c3bd 30f6 84bd d395 cfbd
00000130: 7972 35be 90b8 d2bc 3979 97bd 7249 ef3d
00000140: 6a63 f13d eb8a e1bc 80ee c7bd 11a8 33be
00000150: a024 38bd 20f6 24be ec43 393d a4da 28bc
00000160: c529 1bbe e361 273e cd97 83bb 7839 933d
00000170: 9889 7ebd ff87 7b3d 87bf 68bd 1aad 163e
00000180: e328 d13d 95e3 21bc 7035 e6bd 9163 45bd
00000190: 8fb8 57bd 5b07 773e cdb6 c33d a35a 9e3d
000001a0: 915c 113e bbbc 363e 25a7 fa3d f0ed 9f3d
000001b0: 3257 6c3c 8a54 d53c 3825 ca3d 4240 393e
000001c0: 8f79 793c 0659 df3d 6250 9f3c e021 abbb
000001d0: fcc9 f2bc ae03 af3d 0856 863d 9356 2d3e
000001e0: 001f 323e f02b 893b 582a 00be ea52 bebd
000001f0: 4dbd fa3d 7cf0 64bd c121 d3bb aa85 3fbd

decoder_lstm.weight_ih_l0 f4 [64, 32]
0.017805846 0.10237263 0.32804248 0.26951396 -0.017886383 -0.20994668 0.15197836 -0.16041188
-0.23601675 -0.040777974 0.035565726 -0.24245717 -0.21162513 -0.19619383 0.3226189 0.14633529
-0.32993436 -0.100197695 -0.08533239 0.18064298 0.08011983 0.29312828 -0.14736201 -0.0028049294
0.033813994 0.27524325 -0.029007304 0.11741359 0.113560215 0.19664204 0.23960182 0.36636293
0.26050702 0.051217955 0.031067964 -0.024741264 -0.092506714 0.07954521 0.18558146 -0.30479723
-0.10133869 0.069175944 0.09236384 0.18256533 -0.09375944 0.14690234 -0.16540991 -0.16278735
0.050765067 0.30768245 0.18189019 -0.062340222 0.29568553 0.16937332 0.027706245 0.03490464
0.06547122 0.08756217 0.063468404 0.13814092 0.23230307 0.12399852 -0.12205436 0.0590806
-0.26873803 -0.09018733 0.2711805 0.69263023 0.022466581 -0.5883767 0.37441579 -0.15111928
-0.29589146 0.6603643 -0.04111084 0.166212 -0.13720377 -0.13884273 0.41712233 0.46654233
-0.45479083 0.35905984 0.16530852 0.13409804 0.7533217 0.01187144 -0.70903593 -0.6447279
-0.054593526 0.008272892 -0.53340805 -0.0060510603 0.62466174 0.30640778 -0.019144781 0.2174687
0.10194248 -0.0876078 0.46859497 -0.115883864 0.379301 0.055308755 0.039734222 -0.3040416
-0.39828762 -0.21461403 0.39425766 -0.08715611 0.038139835 -0.34534693 -0.17615223 0.004420827
0.24548838 0.25847745 -0.5062237 -0.25138125 0.24802545 0.32591438 -0.24913432 0.035838984
0.4435756 -0.19441615 -0.24378295 -0.10049318 0.18875784 0.47388774 -0.05563865 0.25730425
0.19139136 0.20287073 -0.06697305 -0.1438773 0.15987952 0.024103578 0.042393003 0.028703265
-0.2890317 0.106110364 0.06771405 0.1429271 -0.25283766 -0.11500713 -0.10246703 0.24990992
0.00893978 0.23584074 -0.2751669 -0.32409558 -0.030739171 -0.23678707 -0.01646337 0.14136352
-0.10688024 0.108702265 -0.14620247 0.083230995 0.27200213 -0.15804818 0.07503668 0.15434545
0.26023597 0.4112097 0.5032349 0.14154293 0.445523 -0.19650386 0.08454422 -0.58161205
-0.04084689 0.03132266 -0.02226988 -0.08400802 -0.24114893 -0.31978258 0.13515107 0.55928636
0.5128748 0.61772096 0.1526959 -0.20293981 0.3059026 -0.26688516 0.06449485 0.3470993
0.49399084 0.05067693 0.026063131 0.2114849 0.2500132 0.004677491 -0.13148427 -0.09896836
-0.11540555 0.06542876 0.27349216 0.26032373 0.054331202 0.14101453 0.10138879 -0.049183007
-0.11566507 0.2440598 -0.1836742 -0.334268 0.22842549 -0.29639372 0.22771983 -0.23033375
-0.23069878 0.080795564 -0.33339888 -0.10501425 0.06923049 -0.12240204 0.11492389 0.2037882
-0.02561385 0.30339685 -0.06572177 0.042628143 0.40681407 0.3362515 0.30493248 0.33249375
-0.0009704425 0.43546438 0.3179931 0.22284925 0.8000665 -0.59638387 0.21071175 -0.12530613
-0.019565506 0.088473454 -0.34556416 -0.29887992 -0.13157551 -0.10655115 0.5040933 0.42408746
-0.17299965 0.23594345 -0.029687678 0.23405479 0.454742 -0.30855516 -0.57384765 0.10468047
0.4930375 0.2589108 -0.079174824 0.13644241 0.5312559 0.15678826 -0.35011774 0.13808107
00000000: 91dd 913c bea8 d13d 2ff5 a73e bcfd 893e
00000010: 7786 92bc 43fc 56be 37a0 1b3e 0343 24be
00000020: 60ae 71be ce06 27bd 5ead 113d b146 78be
00000030: 42b4 58be 09e7 48be 4e2e a53e ebd8 153e
00000040: 28ed a8be 7334 cdbd c0c2 aebd 79fa 383e
00000050: de15 a43d e914 963e 11e6 16be e8d2 37bb
00000060: 8b80 0a3d afec 8c3e baa0 edbc 8976 f03d
00000070: 4292 e83d 885c 493e 2e5a 753e ec93 bb3e
00000080: 2d61 853e ebc9 513d 3e82 fe3c 31ae cabc
00000090: 2974 bdbd 99e8 a23d 1109 3e3e 620e 9cbe
000000a0: a98a cfbd 1eac 8d3d 4129 bd3d 68f2 3a3e
000000b0: f304 c0bd 916d 163e 3761 29be bab1 26be
000000c0: 08ef 4f3d 8e88 9d3e 6c41 3a3e 7658 7fbd
000000d0: 1864 973e 3370 2d3e 35f8 e23c 2bf8 0e3d
000000e0: c615 863d cc53 b33d b9fb 813d d074 0d3e
000000f0: dbe0 6d3e f0f2 fd3d a3f7 f9bd 80fe 713d
00000100: 0898 89be 23b4 b8bd 2cd8 8a3e 3750 313f
00000110: d60b b83c db9f 16bf 6db3 bf3e 03bf 1abe
00000120: 167f 97be a20d 293f d763 28bd 7b33 2a3e
00000130: 257f 0cbe ca2c 0ebe 0f91 d53e a3de ee3e
00000140: 58da e8be b1d6 b73e a346 293e ff50 093e
00000150: b1d9 403f 6e80 423c 6183 35bf e30c 25bf
00000160: 769d 5fbd 068b 073c 6e8d 08bf f947 c6bb
00000170: d5e9 1f3f 7be1 9c3e 84d5 9cbc 1db0 5e3e
00000180: 38c7 d03d b86b b3bd aeeb ef3e 8554 edbd
00000190: be33 c23e 6f8b 623d 5ac0 223d 57ab 9bbe
000001a0: 5bec cbbe c8c3 5bbe 24dc c93e e77e b2bd
000001b0: 8438 1c3d 50d1 b0be 4061 34be 96dc 903b
000001c0: 4e61 7b3e 2857 843e e097 01bf 0bb5 80be
000001d0: 62fa 7d3e 40de a63e 111d 7fbe e6cb 123d
000001e0: 571c e33e 0715 47be 3da2 79be 5ecf cdbd
000001f0: bc49 413e 6aa1 f23e 5ae5 63bd 62bd 833e
00000200: 19fc 433e 58bd 4f3e 2b29 89bd 9254 13be
00000210: 75b7 233e de74 c53c 49a4 2d3d 1c23 eb3c
00000220: f7fb 93be 6450 d93d aaad 8a3d 7b5b 123e
00000230: f073 81be dc88 ebbd 3cda d1bd 63e8 7f3e
00000240: 2878 123c 3c80 713e ade2 8cbe dbef a5be
00000250: b7d0 fbbc 4f78 72be 30de 86bc 99c1 103e
00000260: 07e4 dabd 4b9f de3d 1ab6 15be 0375 aa3d
00000270: dd43 8b3e 62d7 21be d5ac 993d bc0c 1e3e
00000280: a63d 853e 148a d23e 01d4 003f a1f0 103e
00000290: 971b e43e 4f38 49be 8525 ad3d 87e4 14bf
000002a0: 124f 27bd 314c 003d 536f b6bc 660c acbd
000002b0: bfef 76be 8bba a3be 0b65 0a3e 642d 0f3f
000002c0: c34b 033f f622 1e3f 505c 1c3e 74cf 4fbe
000002d0: 449f 9c3e 2ca5 88be e015 843d 00b7 b13e
000002e0: 5eec fc3e 9d92 4f3d 5982 d53c 7f8f 583e
000002f0: bb01 803e a345 993b d0a3 06be ecaf cabd
00000300: bf59 ecbd 84ff 853d 2a07 8c3e 2749 853e
00000310: 658a 5e3d 1d66 103e eda4 cf3d 1f74 49bd
00000320: cfe1 ecbd d0ea 793e 1715 3cbe 2d25 abbe
00000330: 5fe8 693e ebc0 97be 632f 693e 9cdc 6bbe
00000340: 4d3c 6cbe 2578 a53d 42b3 aabe b611 d7bd
00000350: b7c8 8d3d ecad fabd 375d eb3d dbad 503e
00000360: 23d4 d1bc d556 9b3e 2399 86bd d99a 2e3d
00000370: ef49 d03e 2829 ac3e 1c20 9c3e 9f3c aa3e
00000380: 4b65 7eba 30f5 de3e fecf a23e 9832 643e
00000390: 28d1 4c3f 9dac 18bf d2c4 573e 4050 00be
000003a0: d747 a0bc 9231 b53d c9ed b0be ca06 99be
000003b0: bbbb 06be 7d37 dabd 420c 013f fe21 d93e
000003c0: d226 31be 299b 713e 9333 f3bc 0fac 6f3e
000003d0: f2d3 e83e f1fa 9dbe aee7 12bf b762 d63d
000003e0: 696f fc3e f58f 843e 6926 a2bd 8fb7 0b3e
000003f0: 6300 083f 1a8d 203e a242 b3be 2065 0d3e

decoder_lstm.weight_hh_l0 f4 [64, 16]
-0.09438917 0.26841387 0.106730446 0.3197323 -0.44262624 0.024830356 0.05997444 -0.089931615
-0.11523275 0.20715742 0.22648774 -0.07047255 -0.33366552 0.05775349 0.23982093 -0.2773153
0.027580922 0.2925488 0.28635502 -0.058193885 -0.17851014 0.14174204 0.036003284 -0.20457812
-0.21506391 -0.15242152 -0.04017498 0.25448936 -0.2861606 -0.31324014 0.23026653 -0.22282037
-0.16028872 0.38076815 0.0019014279 -0.18250124 -0.057492312 -0.17632934 -0.39258626 -0.18580215
-0.059404813 0.26080146 -0.03448603 0.12461823 -0.32035276 0.34710312 -0.31374964 0.09729782
-0.24295649 0.0954538 0.28259942 -0.18037364 0.006648809 -0.24378407 0.02098172 0.14927599
-0.13469543 0.16135867 -0.104316555 0.49781796 -0.15697831 -0.010696378 0.09367617 -0.23870373
-0.14146084 -0.08667129 0.11860021 0.2887823 -0.048527762 0.10317634 0.10404153 -0.28365022
0.08330209 0.22466221 -0.026771113 -0.055999078 -0.13416994 -0.058304317 0.010334209 -0.35295543
0.14091921 0.2945978 -0.041604184 -0.2072555 -0.34767914 0.12069947 -0.16555558 -0.2120832
0.058625814 0.14389227 -0.11575356 0.17016906 0.11003735 -0.41794032 0.44561753 -0.20822082
0.3379077 0.08362842 -0.041207112 -0.065504774 0.03192686 -0.26276442 0.013072868 -0.30029434
0.08009517 0.2594398 0.24340041 0.25641802 -0.27410784 0.00933698 0.027121622 -0.04216763
0.26366276 0.37358466 0.06523947 0.08667455 -0.3690858 0.14614807 -0.22356121 -0.34994256
-0.061286952 -0.13773876 -0.13868889 0.15452749 -0.11063643 -0.39718804 0.45543623 0.0867574
-0.05435127 0.1911972 0.1760971 0.20731428 -0.32048455 -0.044845887 -0.32712153 -0.30691427
0.25750107 0.06523876 -0.03645159 0.5382683 -0.35973942 0.0467466 -0.10537319 -0.12624368
0.26064035 0.6812392 0.2365865 -0.093094744 -0.37591302 -0.13688871 -0.3172491 -0.24354658
-0.0904867 -0.13261117 -0.04097947 -0.023825757 -0.2466545 -0.30010918 0.2617177 -0.15018828
0.015190892 0.1956103 -0.15195946 0.08825604 -0.479401 -0.036191627 -0.2903431 -0.2936328
-0.03137376 0.12205617 -0.07560326 -0.037990637 -0.315457 -0.25709334 0.3070972 -0.31953648
-0.0788564 0.19747323 -0.15700711 -0.03561963 -0.3054031 -0.32100293 -0.34857613 -0.40061337
0.21571098 0.46338105 -0.21791904 0.117155544 -0.24688339 -0.11111785 -0.009248734 -0.19954476
-0.07533625 0.041221865 0.21320345 -0.015949162 -0.09475529 -0.14719208 -0.12312779 0.12737256
0.18633097 -0.1252193 0.03289476 0.07616178 0.050028324 -0.0080960775 -0.08481564 0.13205966
0.14835264 0.13937107 0.26748303 -0.20416531 -0.23570383 -0.103778355 -0.59333557 -0.4211423
0.27890706 0.4022079 -0.095034875 0.6874132 -0.32320327 -0.13611978 -0.16351852 -0.41478914
-0.33900985 0.38433105 -0.12651387 -0.0052275998 -0.012638543 0.14887896 -0.2793791 -0.064084806
-0.11818194 -0.1470649 -0.4122215 0.35898036 -0.051937275 -0.0037456441 -0.2808937 -0.30508313
0.19394517 0.40983248 0.23785858 -0.15385135 -0.55229324 0.42592347 -0.39799702 -0.47587392
-0.17155501 0.013295188 -0.21635836 0.37158322 -0.09382473 -0.6209394 0.2636923 -0.024612356
00000000: 1c4f c1bd 8b6d 893e 7e95 da3d f4b3 a33e
00000010: e89f e2be 0869 cb3c c2a7 753d 112e b8bd
00000020: 26ff ebbd 1321 543e 67ec 673e ea53 90bd
00000030: 35d6 aabe ec8e 6c3d 9e93 753e 45fc 8dbe
00000040: 63f1 e13c f5c8 953e 209d 923e b65c 6ebd
00000050: 5dcb 36be d324 113e 2e78 133d ed7c 51be
00000060: b739 5cbe 6314 1cbe 858e 24bd 6e4c 823e
00000070: a483 92be 0361 a0be fdca 6b3e 062b 64be
00000080: ba22 24be 0bf4 c23e 5539 f93a 9be1 3abe
00000090: 0f7d 6bbd ae8f 34be 1101 c9be eb42 3ebe
000000a0: 7652 73bd c587 853e 3941 0dbd d837 ff3d
000000b0: 4705 a4be 80b7 b13e cba3 a0be 1444 c73d
000000c0: 96c9 78be 487d c33d dfb0 903e deb3 38be
000000d0: 41de d93b 88a2 79be dbe1 ab3c cedb 183e
000000e0: 99ed 09be 353b 253e eba3 d5bd ffe1 fe3e
000000f0: ecbe 20be dc3f 2fbc 4bd9 bf3d c06e 74be
00000100: 1cdb 10be b880 b1bd abe4 f23d 46db 933e
00000110: 0cc5 46bd 1e4e d33d ba13 d53d 9a3a 91be
00000120: 499a aa3d da0d 663e 184f dbbc 4a5f 65bd
00000130: d863 09be 82d0 6ebd d050 293c 93b6 b4be
00000140: 204d 103e 86d5 963e 2669 2abd c93a 54be
00000150: 0003 b2be 4931 f73d 6787 29be 572c 59be
00000160: 9f21 703d 7f58 133e 3410 edbd cc40 2e3e
00000170: 435b e13d 46fc d5be fb27 e43e d737 55be
00000180: 3d02 ad3e 6145 ab3d cac8 28bd 5e27 86bd
00000190: bdc5 023d 0f89 86be 952f 563c 2ec0 99be
000001a0: f008 a43d 4bd5 843e f53d 793e 3949 833e
000001b0: dd57 8cbe 22fa 183c 2a2e de3c f7b7 2cbd
000001c0: cefe 863e 7d46 bf3e 459c 853d 6d82 b13d
000001d0: d0f8 bcbe d7a7 153e 3bed 64be ac2b b3be
000001e0: 0708 7bbd 640b 0dbe 7604 0ebe 743c 1e3e
000001f0: 5a95 e2bd 3b5c cbbe f02e e93e ddad b13d
00000200: 709f 5ebd 33c9 433e cc52 343e 324a 543e
00000210: 8d16 a4be 52b0 37bd 797c a7be de23 9dbe
00000220: 2ed7 833e e69b 853d 434e 15bd f4cb 093f
00000230: c42f b8be 5d79 3f3d e6cd d7bd 0646 01be
00000240: a772 853e b165 2e3f bb43 723e 75a8 bebd
00000250: ac77 c0be 8e2c 0cbe 796e a2be 4664 79be
00000260: 1751 b9bd 39cb 07be 17da 27bd 3c2e c3bc
00000270: ff92 7cbe e9a7 99be ddff 853e f5ca 19be
00000280: 38e3 783c 114e 483e 439b 1bbe 95bf b43d
00000290: 0c74 f5be ac3d 14bd daa7 94be 0a57 96be
000002a0: c681 00bd 96f8 f93d e2d5 9abd 129c 1bbd
000002b0: 9483 a1be bda1 83be d83b 9d3e 499a a3be
000002c0: 777f a1bd 6c36 4a3e 79c6 20be e4e5 11bd
000002d0: cc5d 9cbe 7f5a a4be 9278 b2be 321d cdbe
000002e0: 57e3 5c3e 4840 ed3e 2b26 5fbe 3fef ef3d
000002f0: 00cf 7cbe c191 e3bd 0188 17bc 7655 4cbe
00000300: e449 9abd 42d8 283d 0152 5a3e d1a7 82bc
00000310: 100f c2bd 85b9 16be 6c2a fcbd f46d 023e
00000320: 8ccd 3e3e 7d39 00be a8bc 063d b5fa 9b3d
00000330: 80ea 4c3d 69a5 04bc d2b3 adbd a63a 073e
00000340: c1e9 173e 4ab7 0e3e 89f3 883e b610 51be
00000350: 585c 71be bf89 d4bd d7e4 17bf f79f d7be
00000360: e8cc 8e3e 32ee cd3e a5a1 c2bd 50fa 2f3f
00000370: e67a a5be fc62 0bbe 6671 27be 3e5f d4be
00000380: b392 adbe 0ac7 c43e da8c 01be 494c abbb
00000390: e411 4fbc ba73 183e c70a 8fbe e53e 83bd
000003a0: 5f09 f2bd 2e98 16be b20e d3be 46cc b73e
000003b0: 2ebc 54bd 7b79 75bb 4dd1 8fbe db33 9cbe
000003c0: 9099 463e 90d5 d13e 3391 733e 358b 1dbe
000003d0: 1763 0dbf a412 da3e 44c6 cbbe bfa5 f3be
000003e0: 1eac 2fbe 0fd4 593c 0c8d 5dbe 2840 be3e
000003f0: 2e27 c0bd e2f5 1ebf ad02 873e da9f c9bc

decoder_lstm.bias_ih_l0 f4 [64]
0.27561215 -0.07251221 0.39085156 0.25653434 -0.08132604 0.14810462 0.20845242 0.116969265
0.19616792 -0.02336992 0.09024482 0.37618917 0.20838846 0.47353455 0.2634709 0.2982355
0.20169045 0.09277755 0.0012077224 0.07867742 -0.12142482 0.08323744 0.005938707 0.10016528
-0.14571315 -0.093110345 0.007162948 -0.08384179 -0.10465564 -0.3156904 -0.10957686 -0.14743331
-0.101229444 0.19910336 0.16217732 -0.08984702 -0.2822455 -0.20924905 0.058090072 0.06313971
-0.03061475 0.121312164 -0.0029690778 0.1453256 -0.12198994 -0.13834105 0.19958423 -0.022162652
-0.018022578 0.09619633 0.43984413 0.30842292 -0.10310538 0.46187297 -0.018424695 0.42838168
0.2365298 0.4296172 0.40103275 0.3066667 0.10668952 0.34074503 0.1415743 0.0617971
00000000: 091d 8d3e 4881 94bd b21d c83e 7858 833e
00000010: 448e a6bd bda8 173e 8d74 553e 958d ef3d
00000020: 3ee0 483e 4672 bfbc 47d2 b83d de9b c03e
00000030: c963 553e 1f73 f23e a8e5 863e 53b2 983e
00000040: f187 4e3e 2802 be3d 704c 9e3a a121 a13d
00000050: 93ad f8bd 6478 aa3d 7c99 c23b 7423 cd3d
00000060: d435 15be a3b0 bebd 2ab7 ea3b 3fb5 abbd
00000070: b255 d6bd 2ca2 a1be d569 e0bd c2f8 16be
00000080: 6251 cfbd c0e1 4b3e d011 263e b701 b8bd
00000090: 7b82 90be 6245 56be dbef 6d3d 644f 813d
000000a0: c9cb fabc 8372 f83d dc94 42bb 3cd0 143e
000000b0: ddd5 f9bd 47a9 0dbe cf5f 4c3e 738e b5bc
000000c0: 16a4 93bc 9502 c53d 4033 e13e 9ce9 9d3e
000000d0: ea28 d3bd 9d7a ec3e 63ef 96bc d854 db3e
000000e0: de34 723e c9f6 db3e 2a54 cd3e 6b03 9d3e
000000f0: 0980 da3d 2276 ae3e daf8 103e f51e 7d3d

decoder_lstm.bias_hh_l0 f4 [64]
0.096450984 0.055813655 0.09073677 0.21980385 0.043572005 0.30293357 0.1615988 0.36349028
0.29591787 -0.009265193 0.26913977 0.14762644 0.21228032 0.31540215 0.31918705 0.45540842
-0.0997268 0.29860675 0.013452993 -0.111813344 0.049282633 0.24183828 -0.11280327 0.2471465
0.035958204 0.13791497 0.02664547 -0.08405744 0.20027383 -0.29665363 -0.1785666 -0.18562177
0.10172151 0.21456692 -0.07748568 0.20490867 -0.15679523 0.15000576 -0.13150734 0.07473311
0.14988892 -0.06432327 0.14877243 -0.06687702 -0.28452587 -0.13571854 0.25909686 0.096431345
0.14633885 -0.013186823 0.59424555 0.06431441 0.258572 0.2728754 0.07126148 0.039282735
-0.06647392 0.43315178 -0.041413646 0.516292 0.24840578 0.38571167 0.34819904 0.14440872
00000000: 1888 c53d dc9c 643d 33d4 b93d 4314 613e
00000010: 8f78 323d 1c1a 9b3e 287a 253e 661b ba3e
00000020: 8c82 973e 09cd 17bc b0cc 893e 632b 173e
00000030: 0360 593e 647c a13e 7c6c a33e 4b2b e93e
00000040: 913d ccbd fce2 983e f169 5c3c 65fe e4bd
00000050: 96dc 493d 74a4 773e 6705 e7bd f913 7d3e
00000060: e948 133d 9539 0d3e 9a47 da3c 4f26 acbd
00000070: 9514 4d3e fce2 97be 2ada 36be a213 3ebe
00000080: 5e53 d03d 6eb7 5b3e d0b0 9ebd 94d3 513e
00000090: ee8e 20be 1c9b 193e dca9 06be ac0d 993d
000000a0: 7b7c 193e ebbb 83bd cd57 183e d2f6 88bd
000000b0: 60ad 91be cdf9 0abe 58a8 843e cc7d c53d
000000c0: dad9 153e 8b0d 58bc 7a20 183f 46b7 833d
000000d0: 8d63 843e 53b6 8b3e 8af1 913d efe6 203d
000000e0: 7b23 88bd 12c6 dd3e 5ba1 29bd b62b 043f
000000f0: 165e 7e3e 007c c53e 2547 b23e e1df 133e

fc.weight f4 [20, 16]
-0.4639014 -0.948721 0.8521336 0.6635434 1.2011974 -0.8514367 -0.30537882 1.054169
-0.7140696 0.79427415 0.6863166 1.0089065 -0.18993528 -0.85590184 -1.0354515 0.82763916
-0.07736187 -0.42728192 0.33578995 0.3149485 0.33123648 0.22400652 0.29886746 0.026093755
-0.00462649 -0.5802929 -0.13953015 -0.31429687 -0.06911958 0.0693883 0.24455965 0.086125664
-0.41853538 0.00014016744 -0.7466342 0.5357148 -0.22271465 0.037317052 -0.36019197 -0.59081656
-0.45234892 0.505271 -0.8590973 0.5085279 -0.24194027 0.65104514 -0.58412963 -0.33514917
-0.124845006 -0.43443972 -0.2358565 -0.74941796 -0.15012698 0.24223961 0.085861556 -0.7078422
-0.29121107 0.3043464 0.64831734 0.66650563 -0.35002637 -0.3490793 0.62934846 0.3837109
0.18082657 -0.13394669 -0.37322068 -0.039010216 0.32373145 0.10893165 0.5067439 0.14772797
-0.13500018 0.08270967 0.30797532 -0.35941076 0.19369397 0.24553597 -0.048441254 -0.013779265
-0.1816369 0.02480076 -0.40168062 -0.18730146 0.124930315 -0.039562084 -0.05584317 0.16042191
0.06680948 -0.32532057 -0.4190504 -0.22253557 0.28036448 0.46687937 -0.16542418 0.54106677
0.23550071 -0.5144599 -0.3126511 -0.06506659 0.14717074 0.5247665 0.2436449 -0.15885064
-0.046422377 0.29887214 -0.5265604 -0.5997032 0.063800596 0.08620641 0.31372443 0.6270893
0.0768853 0.27254772 -0.6750239 -0.10061105 -0.21757111 0.5303507 -0.06768192 -0.28908235
0.067672 -0.5190396 0.3368386 0.695512 -0.30426064 -0.08027118 -0.3273887 -0.17819127
0.74151206 0.79923385 0.13675515 -0.49773812 -0.4877792 -0.6967818 -0.1725901 0.6393228
0.6533239 0.5161349 0.43970615 0.23405382 -0.44250256 1.1771827 0.3080682 -0.5519591
-0.75184757 0.81047463 1.2956123 0.43245602 -0.4253117 -0.6500381 0.43441477 -0.09034627
-0.19937006 0.6118483 0.73632723 -1.0524207 -0.20043488 0.5447956 -0.2682529 -0.5454794
-0.06967908 0.24357547 0.1602384 0.43882582 0.13831368 0.4656264 0.04000491 -0.02024112
-0.422932 -0.251073 -0.5014112 -0.20334066 -0.14643382 -0.14400476 0.41266719 -0.22662392
0.7065671 -0.25983787 0.29526833 -0.14077723 0.19812457 -0.41256592 0.12537785 0.88095945
0.6623616 0.19509274 0.006572028 -0.36040258 0.42668942 -0.38507858 0.23909938 1.0794235
0.41630688 0.175737 -0.1173405 -0.07165403 -0.12465867 0.16065468 -0.24759719 -0.24432242
0.6628431 -0.6358435 -0.56379986 0.1412997 -0.18405193 0.05154259 0.17863634 0.3796897
-0.035829667 -0.54245955 -0.77800065 -0.35433945 0.28146064 0.45210454 -0.13096307 -0.039613437
-0.22466926 0.4993447 0.21568401 -0.5374014 -0.33601865 -0.4367444 0.1686701 -0.08586542
-0.5222965 -0.24787924 -0.6675869 0.13364697 0.16896772 0.27151915 0.06778293 -0.030696664
-0.46149844 -0.22900084 -0.25802824 -0.43946648 -0.13348083 0.49397063 -0.0032085073 -0.007954585
-0.31440613 -0.33120042 -0.43294752 0.40321392 0.3807014 0.16069382 0.26391926 0.3850118
0.02732726 -0.19801944 0.23248515 -0.26327315 0.23182125 0.23498444 -0.031566657 -0.046109486
00000000: 7c84 edbe 61df 72bf 6d25 5a3f fbdd 293f
00000010: d6c0 993f c1f7 59bf 9d5a 9cbe 03ef 863f
00000020: 44cd 36bf 8d55 4b3f 72b2 2f3f d923 813f
00000030: 657e 42be 621c 5bbf ad89 84bf 29e0 533f
00000040: e66f 9ebd b2c4 dabe a9ec ab3e ee40 a13e
00000050: d497 a93e f761 653e 2805 993e 92c2 d53c
00000060: d099 97bb 138e 14bf fee0 0ebe 85eb a0be
00000070: 918e 8dbd 741b 8e3d d86d 7a3e a762 b03d
00000080: 454a d6be e9f9 1239 6b23 3fbf 9b24 093f
00000090: 4f0f 64be c4d9 183d 156b b8be c13f 17bf
000000a0: 479a e7be 7159 013f cded 5bbf e22e 023f
000000b0: 31bf 77be e5aa 263f 8589 15bf ac98 abbe
000000c0: bdae ffbd e26e debe 5e84 71be dbd9 3fbf
000000d0: e3ba 19be a90d 783e 2fd8 af3d 2535 35bf
000000e0: 9e19 95be 4bd3 9b3e 20f8 253f 1da0 2a3f
000000f0: a836 b3be 86ba b2be fb1c 213f c175 c43e
00000100: 9a2a 393e 5229 09be c816 bfbe 2dc9 1fbd
00000110: 21c0 a53e 8f17 df3d f8b9 013f 0046 173e
00000120: 7d3d 0abe b063 a93d f1ae 9d3e b004 b8be
00000130: b657 463e c86d 7b3e 566a 46bd 6dc2 61bc
00000140: 06ff 39be f72a cb3c 15a9 cdbe f4cb 3fbe
00000150: 77db ff3d da0b 22bd cfbb 64bd a445 243e
00000160: 69d3 883d 6b90 a6be c68d d6be 5de0 63be
00000170: ef8b 8f3e d00a ef3e f564 29be 5a83 0a3f
00000180: 1927 713e a5b3 03bf ce13 a0be a241 85bd
00000190: edb3 163e 1957 063f 0c7e 793e bea9 22be
000001a0: 6425 3ebd c505 993e aacc 06bf 2686 19bf
000001b0: e3a9 823d fc8c b03d 7da0 a03e ed88 203f
000001c0: 0a76 9d3d 608b 8b3e 5ece 2cbf 2b0d cebd
000001d0: f6ca 5ebe 10c5 073f d29c 8abd 9a02 94be
000001e0: 9e97 8a3d c7df 04bf 1c76 ac3e 130d 323f
000001f0: 0dc8 9bbe 3765 a4bd 7e9f a7be c677 36be
00000200: bcd3 3d3f 979a 4c3f 8b09 0c3e 88d7 febe
00000210: 32be f9be 4b60 32bf 76bb 30be a9aa 233f
00000220: 3c40 273f 6b21 043f 2a21 e13e ceab 6f3e
00000230: b28f e2be ecad 963f 1dbb 9d3e 314d 0dbf
00000240: 1579 40bf 447b 4f3f a0d6 a53f e06a dd3e
00000250: 75c2 d9be e668 26bf 9d6b de3e 7707 b9bd
00000260: aa27 4cbe 17a2 1c3f f17f 3c3f b9b5 86bf
00000270: cd3e 4dbe b977 0b3f 7258 89be 8aa4 0bbf
00000280: e8b3 8ebd d96b 793e 8915 243e c7ad e03e
00000290: 1aa2 0d3e 9566 ee3e 30dc 233d b5d0 a5bc
000002a0: 8b8a d8be a48c 80be 7c5c 00bf 8938 50be
000002b0: bff2 15be fc75 13be 1d49 d33e 1a10 68be
000002c0: 95e1 343f 7809 85be 692d 973e e827 10be
000002d0: 2be1 4a3e d73b d3be 0d63 003e 8f86 613f
000002e0: 8890 293f 64c6 473e 2b5a d73b b086 b8be
000002f0: 0977 da3e 0529 c5be 78d6 743e 8d2a 8a3f
00000300: 2d26 d53e 66f4 333e 3750 f0bd 59bf 92bd
00000310: 0b4d ffbd a982 243e 1e8a 7dbe a82f 7abe
00000320: 16b0 293f a4c6 22bf 3055 10bf deb0 103e
00000330: 1c78 3cbe 531e 533d 72ec 363e b066 c23e
00000340: 21c2 12bd a1de 0abf 0d2b 47bf fb6b b5be
00000350: 9c1b 903e 3f7a e73e 2f1b 06be b341 22bd
00000360: b30f 66be 1caa ff3e 45dc 5c3e 2393 09bf
00000370: a30a acbe f69c dfbe dbb7 2c3e 36da afbd
00000380: 39b5 05bf 0ed4 7dbe fae6 2abf c0da 083e
00000390: e005 2d3e 8f04 8b3e c7d1 8a3d 9277 fbbc
000003a0: 8649 ecbe 327f 6abe 471c 84be c001 e1be
000003b0: 33af 08be b8e9 fc3e d245 52bb f353 02bc
000003c0: d7f9 a0be 1a93 a9be 4cab ddbe 0e72 ce3e
000003d0: 4beb c23e ec8c 243e 6d20 873e 4420 c53e
000003e0: 6bdd df3c 9cc5 4abe 9610 6e3e bdcb 86be
000003f0: 8d62 6d3e c39f 703e 0a4c 01bd 4ddd 3cbd

fc.bias f4 [20]
-0.31959558 -0.028155671 -0.1198578 0.23561509 -0.34244296 -0.021833831 0.0764304 0.19792834
0.020643927 0.3103045 -0.15501022 0.23429401 -0.17853247 0.038396224 -0.028680822 -0.26772684
-0.07772628 -0.37947026 0.09232627 -0.097108774
00000000: 08a2 a3be b9a6 e6bc 0278 f5bd 1545 713e
00000010: af54 afbe dddc b2bc 8b87 9c3d baad 4a3e
00000020: 741d a93c 3be0 9e3e 00bb 1ebe c5ea 6f3e
00000030: 37d1 36be 5c45 1d3d 0bf4 eabc 7e13 89be
00000040: f52e 9fbd ed49 c2be 8e15 bd3d f7e0 c6bd
