lstm_ckpts/lstm-epoch=02-train_loss=1.00.ckpt (torch, 337176 bytes, 33 tensors)

embedding.weight f4 [20, 128]
000000 b8 a8 8d bf b2 b3 8c 3f 25 d2 5c 3e 89 59 af bd
       -1.1067114 1.0992339 0.21564539 -0.08561999
000010 88 30 e3 3e 0a 7f 0d bf b5 88 86 3e 04 65 4f 3f
       0.44372964 -0.5527197 0.26276174 0.8101351
000020 5e 22 d2 bd cf dd 40 be 10 f6 11 3f f1 ca 88 3f
       -0.10260461 -0.18834613 0.57016087 1.0686933
000030 98 4e 04 3f 6c 1c 85 3e 3b 2a 87 bf 43 19 ef be
       0.51682425 0.25998247 -1.0559763 -0.4669896
000040 76 25 9b be 35 7a 0f bf 8e 01 8f bf 52 26 92 3f
       -0.30302018 -0.5604585 -1.117235 1.1417944
000050 84 0b b6 bf 31 e0 09 40 8e ff 7d 3f 82 e8 d3 bf
       -1.4222264 2.1543086 0.9921807 -1.6555331
000060 1e 61 25 40 76 57 5a 3f 97 bd 1c 3f 77 e5 1e c0
       2.5840526 0.85289705 0.6122679 -2.4827554
000070 44 88 25 bf 56 81 61 3f 48 cf 8f 3e 6f 33 a8 3f
       -0.6466105 0.88087976 0.2808783 1.3140696
000080 7e ae 29 3f 8c 3d a2 bf c6 65 c3 3f 55 94 c6 bc
       0.6628188 -1.2675033 1.5265434 -0.024240652
000090 82 f6 17 3f 0a 49 80 bf ac 05 b1 3f f3 84 eb be
       0.59360516 -1.002229 1.3829856 -0.4599987
0000a0 ac 8b 71 bf 3e 0e b6 3f 5a 3e 06 be 49 2b af 3e
       -0.9435375 1.4223096 -0.13109723 0.3421271
0000b0 07 0d f2 3e 15 a2 d8 3f b9 34 8f 3e 93 0a bf 3d
       0.47275564 1.6924464 0.27969912 0.09328189
0000c0 a1 60 9d bf 6a e0 db bf 4d fc 91 3f 39 d8 15 3f
       -1.2295114 -1.7177861 1.1405121 0.58533055
0000d0 df 47 76 bf 30 6e b6 bf 0a 88 a3 bd 1d fb 53 be
       -0.96203417 -1.4252377 -0.07984932 -0.20701261
0000e0 6a ce 5c 3f be 1c e0 be 62 2a 50 3e 07 9f 73 3f
       0.8625246 -0.4377193 0.20328668 0.9516453
0000f0 c7 52 83 bf 19 74 93 bf 9a cc 5b 3e 67 56 34 bf
       -1.0259637 -1.1519805 0.21464768 -0.7044434
000100 5d 67 0a 40 60 3f 93 bf 6b 3b 3c 3e 24 38 91 bf
       2.1625588 -1.1503716 0.18382041 -1.1345258
000110 a9 c3 91 3f 40 70 91 3f 14 26 de bf d9 7f d3 3f
       1.1387836 1.1362381 -1.735537 1.6523391
000120 ee a4 3e bf 2f 3d 0a bf d6 87 99 3e eb 1e 9a bf
       -0.7447041 -0.5399961 0.29986447 -1.2040685
000130 19 dd 3c bf 31 6c 32 bf 45 35 f3 bf 9e 36 6f 3f
       -0.7377487 -0.69696337 -1.9000632 0.93442714
000140 b1 44 ff bf 63 88 1b be f3 06 7a 3d de ab a1 3f
       -1.9942838 -0.15188746 0.061041784 1.2630575
000150 a7 ca 4f be 6f 7c a0 be 74 0c 92 bd 60 af ad bf
       -0.2029215 -0.31344935 -0.071312815 -1.3569145
000160 58 6a 27 bf fc 9e a6 3f 4a 36 06 40 1e e1 06 3c
       -0.6539664 1.3017268 2.0970635 0.008232383
000170 1d 4d 34 3f 30 9e a1 3f b1 fb f5 bf 82 5a ba bf
       0.70430166 1.26264 -1.9217435 -1.4558871
000180 95 91 97 bf e1 aa 8d be 7b ef 98 3f fd e8 4d 3e
       -1.1841303 -0.27669433 1.1948084 0.20108409
000190 84 dc 12 be 19 a5 72 3f 5d 93 ab bf 92 fe 9b bf
       -0.14341933 0.9478317 -1.3404347 -1.2187064
0001a0 d6 c0 60 3e 13 f3 06 bf 8b cb b7 3f 72 41 d3 bf
       0.21948561 -0.5271465 1.4358991 -1.6504347
0001b0 d0 7f 8e bf a1 ac ed bf 94 6b ff bf 34 78 74 bf
       -1.1132755 -1.8568307 -1.9954705 -0.95495915
0001c0 31 3a ca 3e 8e 7d 78 3f 70 c8 48 3f 71 92 3e 3f
       0.39497522 0.9706658 0.78430843 0.744422
0001d0 f6 ca 3b bf 88 28 c5 bf f6 8b ed be c9 19 f0 be
       -0.7335657 -1.5402994 -0.46395844 -0.46894673
0001e0 5d b5 8c be c9 ef 95 be 78 d6 b2 bf bd dc 84 bf
       -0.2748212 -0.29284504 -1.3971701 -1.0379864
0001f0 e0 dc c3 3f 69 4e 50 bf c7 e0 12 bf 48 03 25 c0
       1.5301781 -0.81369644 -0.57374233 -2.5783253
000200 b2 bf 97 bf 1a 35 fe 3f 06 85 ff bd 4e a6 e3 be
       -1.1855376 1.9859955 -0.12476544 -0.44462818
000210 04 43 8e 3f 0e 2e 42 be 5b 74 01 3d 41 55 63 3f
       1.1114202 -0.18962881 0.031605106 0.8880196
000220 bc 15 63 bf 4b d8 b6 3f 7d c2 85 3e 3b 78 7d 3f
       -0.8870504 1.4284757 0.26124945 0.9901158
000230 42 52 0b c0 25 c2 31 3d 5a 1c 46 bd f8 3c 74 3f
       -2.1768956 0.04339804 -0.048366882 0.9540553
000240 fe 9c 4b bf 37 52 80 bf f6 7c b2 bf cf ee 94 3c
       -0.79536426 -1.002509 -1.3944385 0.018180279
000250 d0 c9 85 3f 21 4b fc bd 2a 5c 96 bf 96 00 b1 3f
       1.0452213 -0.12319017 -1.1746876 1.3828304
000260 57 22 5f bf 75 df 23 3f f4 1b 36 bd f0 a5 86 bf
       -0.87161773 0.64012843 -0.044460252 -1.051939
000270 3a fb 54 c0 ee 73 9d 3e 9a b6 21 bf 89 c5 dd be
       -3.3278337 0.3075251 -0.6316925 -0.4331477
000280 c7 be 8a 3f 74 4b 01 c0 35 98 a9 bf 44 4a 8f bf
       1.0839471 -2.0202303 -1.3249575 -1.1194539
000290 53 71 a3 3f 3a 78 20 3f c1 cd ab 3f c0 6d 56 3e
       1.2768959 0.6268345 1.3422166 0.20940304
0002a0 29 ef 47 3d c2 a2 80 bf e9 14 08 c0 8f 78 e9 be
       0.048812065 -1.004967 -2.1262763 -0.4559979
0002b0 11 39 79 bf 5a 9d 03 3f 16 ba 9d 3e fa 08 84 bf
       -0.973527 0.51411974 0.30806035 -1.031524
0002c0 db 7d 68 3f 78 4d 63 3f 3f 96 23 bf b1 a9 e8 3d
       0.9081704 0.8879008 -0.6390113 0.11360491
0002d0 c7 a9 43 3d e5 ee c6 3e 51 75 ba bf c7 6c ad be
       0.047769334 0.38854137 -1.4567052 -0.33872053
0002e0 c0 6b 56 bf ae 55 ee be ea 16 d0 3e f0 c0 26 bf
       -0.83758163 -0.46549743 0.40642482 -0.6513815
0002f0 2f 62 0b bf 87 29 50 3f b9 7a 32 3e 16 16 bf 3e
       -0.5444669 0.81313366 0.17429627 0.37321538
000300 9f 34 97 3f c6 2f 86 bd 48 8b 65 3e 68 4d ac be
       1.1812934 -0.06552081 0.22416413 -0.33652806
000310 bb ec 89 3e c4 48 87 bf 6c 37 14 40 23 d3 a4 3e
       0.26938424 -1.0569081 2.3158827 0.32192335
000320 0f 02 e5 3e b9 61 04 3f 33 d9 02 c0 04 21 e3 be
       0.44728133 0.5171161 -2.0445068 -0.44361126
000330 d5 44 32 bf ed 60 6b 3e a5 e3 a0 bf f3 78 a3 bf
       -0.6963628 0.22986193 -1.2569472 -1.2771286
000340 88 96 13 be cc 48 9b 3e 2c 7b 3a bd 06 c4 10 3f
       -0.14412892 0.30328977 -0.045527622 0.5654911
000350 7e 15 31 bf 79 65 29 bf 60 c8 3d be 46 1b ee bf
       -0.6917342 -0.6617046 -0.18533468 -1.8602073
000360 af 46 a8 be ab a2 ae 3e be 5b 36 c0 74 94 c7 bf
       -0.32866427 0.3410848 -2.8493495 -1.5592179
000370 e1 6e cf bd c3 48 b9 3f df 9e 8d 3f 5c 42 ce 3e
       -0.1012857 1.447533 1.1064109 0.40285003
000380 a1 f5 14 3f f4 5c 9b 3f 9b ab 79 be 0f 50 e5 bd
       0.581873 1.2137742 -0.24381869 -0.111969106
000390 83 cc 74 bf a4 fa 00 bf f9 da 25 bf c5 af 25 bf
       -0.9562456 -0.5038245 -0.6478725 -0.6472133
0003a0 40 d8 1f be 6f a5 88 3f f7 a1 91 3f 47 fe 83 bf
       -0.15609837 1.0675486 1.1377553 -1.0311974
0003b0 7c 2a 38 3f fb 6f 01 3f 3c a8 e2 be e2 9b 6e 3b
       0.71939826 0.50561494 -0.44268978 0.0036408831
0003c0 80 47 89 3f 82 1f 0a 40 1b 4a 36 bf 58 fa 83 3f
       1.0724945 2.158173 -0.71206826 1.0310774
0003d0 b2 87 50 bf 96 62 9b 3f 9f b7 7e bf 99 1d 19 3f
       -0.81457055 1.2139461 -0.99498934 0.5981079
0003e0 5c c4 06 c0 c3 0d d0 be 22 80 83 3e 64 d7 86 be
       -2.1057348 -0.406355 0.25683695 -0.26336205
0003f0 b5 f5 82 bf 7a ac 0c bf 8f 37 b4 3f db 87 3b 3f
       -1.0231234 -0.5495068 1.4079455 0.73254174

encoder_lstm.weight_ih_l0 f4 [128, 128]
000000 f1 d4 90 3e 8c bd 3c be fc de 26 3e f0 3a 0d 3e
       0.2828746 -0.18431681 0.16296 0.13792014
000010 28 87 41 bd b1 8b a3 bc 8f 9d 08 be d4 59 15 3e
       -0.047248036 -0.019964071 -0.13341354 0.14585048
000020 4b f2 79 3d 3f 1b 01 be 66 ff 68 3d 2b 06 e4 bd
       0.061022084 -0.1260805 0.056884192 -0.11133989
000030 1b 44 25 bd 38 2a 16 be c7 da 4a 3e 1c 1e 91 bd
       -0.040348154 -0.14664543 0.1981002 -0.07085821
000040 b9 23 3a 3d 3b 22 7f 3d 32 6d 4f be 65 5b 0e be
       0.045444224 0.062288504 -0.20256498 -0.13902052
000050 a4 21 34 be 62 53 cc bd 89 93 0f 3e 9b 24 1f bd
       -0.17590958 -0.099768415 0.14021124 -0.03885327
000060 24 d4 c1 bd d9 55 da bd 76 47 3f 3d 2e 68 56 3e
       -0.09464291 -0.106609054 0.04669901 0.20938179
000070 a3 4e 19 3e ab d6 38 be 69 61 da bc 05 38 27 3d
       0.14971404 -0.1805064 -0.026657777 0.04082491
000080 f4 40 60 bd 83 56 90 3e 9f 2f 7d bd 22 d2 20 3e
       -0.054749444 0.28191003 -0.061812993 0.1570516
000090 82 93 8c 3d 35 fd 72 bd 07 7f 44 bd 18 c0 04 bc
       0.068640724 -0.05932351 -0.047972705 -0.008102439
0000a0 a4 7a 6c 3d a6 20 25 be 32 fd 10 be 1e 72 0e 3e
       0.057734147 -0.16125736 -0.14159086 0.1391072
0000b0 0f 93 14 bd ad f5 d5 3d 4f a7 fc 3d 15 80 f1 3c
       -0.03627306 0.104472496 0.12336599 0.02948002
0000c0 bf a2 53 3e 2e cf 4e 3d 6f 68 e5 3d de 7a 32 3e
       0.20667551 0.05049055 0.1120156 0.17429683
0000d0 ad d6 41 be 9f 84 91 bd 5c 6f f7 3d cc c4 32 be
       -0.18929549 -0.071053736 0.12081787 -0.17457885
0000e0 b8 ae 1f be 9c d3 34 be 20 32 87 bd 47 06 f8 3d
       -0.15593994 -0.17658848 -0.066013575 0.12110572
0000f0 5c f3 09 bc 60 af 1c 3d dd 71 2f 3c 46 52 d6 3c
       -0.008419838 0.038253188 0.010708299 0.026162278
000100 0a 62 30 3e 8f 13 9f 3d b2 2b ec bd 3a 53 a5 bc
       0.17224899 0.077674024 -0.11531772 -0.020181287
000110 8c bc 24 be 7c f5 a0 3d fb 35 09 3e a4 26 13 be
       -0.1608755 0.078593224 0.13399498 -0.14370209
000120 dd 98 22 3e 96 c6 5b 3d fb 57 7a 3d b6 32 2a be
       0.15878625 0.053656183 0.06111906 -0.16620907
000130 4b 63 1d be 0d 3a a0 3c 44 1e 44 bc c9 3b a9 bd
       -0.15369909 0.01955893 -0.0119701065 -0.08263356
000140 f3 c7 39 3e b2 dd a5 be 7e 21 34 3e 0d de 6e bd
       0.18142681 -0.32395703 0.17590901 -0.058317233
000150 77 e5 06 3d a9 9b 59 3d 55 e5 08 bc 05 b8 fb bc
       0.03293368 0.053126965 -0.008355458 -0.030727396
000160 f0 cf 87 3d c8 05 df 3d a7 f6 10 3e d8 35 5f bd
       0.06631458 0.108897746 0.1415659 -0.05449471
000170 e3 b5 e5 3d d5 90 b3 bb 49 1b 0d 3e 86 24 9f 3b
       0.11216333 -0.005479912 0.1377994 0.004856649
000180 93 96 07 3d dd b6 3e 3e 67 5b ba bc e5 24 df 3c
       0.033102583 0.18624444 -0.022748662 0.027239272
000190 25 fd 81 be 47 d5 e3 bd f4 97 e0 3d ef 82 80 bd
       -0.25388446 -0.11124664 0.10966483 -0.062749736
0001a0 12 4b 0d bd 13 e7 0c 3d c2 3d 1b 3e c5 d7 a2 bc
       -0.03449542 0.034400057 0.15160277 -0.019878278
0001b0 da 81 24 be 7b 1e 6a bd 2c 73 db bd 45 c5 33 3e
       -0.1606516 -0.057157975 -0.10715327 0.17555721
0001c0 73 07 d3 bb 11 d3 82 3d 8d 2f 48 3e a4 43 36 be
       -0.006440097 0.06387914 0.19549389 -0.1779924
0001d0 32 dc 90 3c 1f 2b 16 3e ff ef 91 3e 0c 11 93 3e
       0.017683122 0.14664887 0.28503415 0.28723943
0001e0 36 91 16 be 91 12 d3 bc 2d ba 4b be e4 a4 53 3e
       -0.14703831 -0.02576569 -0.19895239 0.2066837
0001f0 1c 0d 64 bd 95 63 60 bd 4e 58 6c be 0e 1b c3 3d
       -0.055676565 -0.05478247 -0.2308056 0.09526645
000200 38 ed 5d be 63 bb cc 3d 1a ab 07 bd 5a 06 6a 3d
       -0.21672523 0.09996679 -0.03312216 0.057134964
000210 69 a8 95 3c 21 8a 6a 3d 87 2b 6c be 91 e9 db 3d
       0.01826878 0.057260636 -0.2306348 0.10737909
000220 28 d4 39 be ac cc 80 bd 9f 51 1b bd bf 7f a7 3d
       -0.18147337 -0.06289038 -0.037919637 0.081786625
000230 e3 76 db bd ad 5d 2d 3e 65 2a 7a 3d 75 a4 1d ba
       -0.10716035 0.16930266 0.061075587 -0.0006013581
000240 49 ad 48 3e c5 73 6c ba 2d ea 7d be e2 cf 4d be
       0.19597353 -0.00090199366 -0.24796362 -0.20098832
000250 1a 30 f9 3d 7d 43 a9 3c ef 0c a5 3b 4d 47 2b be
       0.12167378 0.020662064 0.005036942 -0.16726418
000260 28 42 73 bd 37 31 7b 3d 26 e4 60 be d6 04 0e be
       -0.059389263 0.06132623 -0.21962032 -0.13869032
000270 72 0a 18 3e 9a 25 f1 bc 63 b5 c9 3d 67 3a 4b 3e
       0.14847735 -0.029436875 0.0984905 0.19846497
000280 a1 97 1c 3e 4c f2 5f 3d ec ff c9 3c f4 a8 9e bd
       0.15292217 0.05467443 0.024658166 -0.07747069
000290 db 03 63 3d ac b3 0f 3e 8c a9 48 3c 19 be 84 3e
       0.0554236 0.14033383 0.012247454 0.25926283
0002a0 5e a6 f8 bd f2 2a 74 bd 69 b3 4e be 53 8b 19 3e
       -0.12141107 -0.05961127 -0.20185627 0.14994554
0002b0 8a c2 29 be 28 b1 e8 bd 7b a5 cf 3d 43 19 c9 3c
       -0.16578117 -0.11361915 0.10138985 0.024548179
0002c0 b2 87 3b be 29 24 3d 3d f4 25 46 3c 79 6a ce 3d
       -0.18313482 0.046177063 0.01209401 0.10078902
0002d0 81 04 a1 3d 85 6c 27 3d 90 2d 62 3e f2 3d 3a be
       0.07862187 0.040874977 0.22087693 -0.18187693
0002e0 bd 24 b1 3c 26 f5 47 be 34 83 aa bb b7 dd 3d 39
       0.021623963 -0.1952711 -0.005203629 0.0001810704
0002f0 1f d9 bd 3d 96 0d 3a bc 1f 22 95 bd 4d 2b 62 3c
       0.09269928 -0.011355778 -0.07281899 0.013804269
000300 db 57 8e 3d e3 d6 21 be 5e 70 a8 be 42 58 4f be
       0.06950351 -0.15804629 -0.3289823 -0.20248511
000310 11 52 36 bd 11 44 ee bc c8 a5 44 3d c6 da c5 3d
       -0.04451186 -0.029085191 0.048009664 0.09660868
000320 cf dc ea 3c aa b5 d4 bd 4c 70 cd bc a0 ee 02 bc
       0.028669743 -0.10386212 -0.025077961 -0.007991463
000330 29 12 18 3e 3b 24 3e bd d0 c0 01 bd 02 9f 93 bc
       0.14850678 -0.04642127 -0.03167802 -0.018020157
000340 05 a4 34 3d 87 3e 53 bd f9 23 dc bd 01 86 b8 3d
       0.044101734 -0.051573303 -0.10749049 0.09009934
000350 03 34 3f 3d 66 8c 1a be b8 58 12 be 41 ed 0e be
       0.04668046 -0.1509262 -0.14291656 -0.13957693
000360 de f8 8a 3d 4e c8 9f bd bf ac b6 3d fc 49 8d bb
       0.06785749 -0.07801877 0.089196675 -0.004311798
000370 14 92 60 3d 40 03 8a 3e 6d b3 90 bb c8 e4 d4 bd
       0.05482681 0.26955605 -0.0044159205 -0.10395199
000380 fd 42 29 3e 47 96 9e bd 93 26 1f bd 9e 04 05 3e
       0.1652946 -0.07743507 -0.038855147 0.12990043
000390 4d 53 fe bc 58 26 de 3c c1 24 9c bd 25 fb c7 bd
       -0.03104558 0.027117893 -0.07624198 -0.09764699
0003a0 67 02 b4 3c 80 00 9e b9 72 b8 e2 3d c4 4f f2 bd
       0.021973802 -0.0003013648 0.110703364 -0.1183162
0003b0 a8 b2 10 be 2b fa 21 be 67 d3 75 be 5d 58 e8 bd
       -0.14130652 -0.15818088 -0.24006425 -0.11344979
0003c0 07 eb b4 3d f6 74 8b be 9d dd 72 3e 08 cf b4 bd
       0.088338904 -0.27237672 0.23717351 -0.088285506
0003d0 fd 0e 28 3e c7 b1 da 3d c2 94 02 3d 7e fe 24 be
       0.16411968 0.106784396 0.031880148 -0.16112706
0003e0 5d f0 2c 3e 16 4e 5b be f8 6b 4a 3d b9 69 f7 3d
       0.16888566 -0.21416506 0.049419373 0.12080712
0003f0 34 e3 7d bd 0f dd 03 bd cf 66 2f 3d c6 4c 2f be
       -0.061984256 -0.03219324 0.042822655 -0.1711913

encoder_lstm.weight_hh_l0 f4 [128, 32]
000000 f5 c8 a4 bd b8 2e 8d 3b 9b 0a 76 bd 8d 4e d3 bc
       -0.08046142 0.004308548 -0.060068708 -0.025794292
000010 7e 4b fe bd 91 87 68 be d0 d2 2c bc c2 ed b8 bd
       -0.12416743 -0.22707964 -0.0105483085 -0.09029724
000020 6c d3 9c be ed c5 2f be b8 59 3d be 4c ba c4 bd
       -0.30630052 -0.17165346 -0.18491256 -0.09605846
000030 77 90 7d be c2 69 bc bc 98 7c bd bd c8 28 26 be
       -0.2476214 -0.022999648 -0.0925228 -0.16226494
000040 60 50 16 3d 18 ec 8e 3d 32 cb 28 3d 47 85 33 be
       0.036697745 0.06978625 0.041209407 -0.1753131
000050 8f cd 5d be 5b 34 f5 3d 69 f2 fc bd e7 19 4a bd
       -0.21660446 0.11972877 -0.123509236 -0.04934111
000060 48 dc 57 bd 74 24 d1 3d e9 dd 15 be f5 ae 28 bb
       -0.05270031 0.10212031 -0.14635433 -0.0025739048
000070 19 cd d5 bd 89 c1 76 3e af 46 9e 3d 1c 3a 6d be
       -0.1043951 0.24097265 0.077283256 -0.23166698
000080 73 1c a8 bd fd 96 8a 3e cb b8 b3 be 34 1a c0 bd
       -0.08208551 0.2706832 -0.35101923 -0.09379998
000090 3c 82 1e be 48 c0 c1 be be dc 8e bd f7 c6 a0 3c
       -0.15479368 -0.3784201 -0.06975697 0.019626124
0000a0 76 84 ad be 5c 00 5e bd e5 bd 80 3e 78 cb 03 bf
       -0.33890122 -0.05419956 0.25144878 -0.51482344
0000b0 79 38 ed 3e 46 ce fc bd f2 bb 37 3e 49 41 df 3d
       0.46332148 -0.12344031 0.17942789 0.10901124
0000c0 85 09 85 3e 2a ab 6a 3e e1 32 23 be 93 4f 17 3e
       0.25983825 0.22916856 -0.15937378 0.14776449
0000d0 c3 7d a5 be 33 1a e5 3e 2e 16 ff be 1b f7 d7 3d
       -0.3232251 0.4474655 -0.4982161 0.105451785
0000e0 8b 4b 23 be 5e d5 ae be 62 84 c9 3d 66 97 81 bd
       -0.15946786 -0.3414716 0.09839703 -0.06327705
0000f0 a5 22 84 3d ce 70 ff 3c b7 c6 e8 be 94 20 77 be
       0.064519204 0.03118172 -0.45464107 -0.24133521
000100 58 9a 8f be a2 45 69 3e 87 35 99 be c0 07 5c be
       -0.28047442 0.22780469 -0.2992365 -0.21487331
000110 a8 2a 62 3c fb a9 71 3c 54 e1 ae 3d 04 fa b7 bd
       0.013804115 0.014749999 0.08539072 -0.089832336
000120 11 90 aa bd bf df 7b be 66 30 cf bd 7f c4 e6 be
       -0.0832826 -0.24597071 -0.10116653 -0.4507179
000130 bc cd c3 3d a0 1a 74 3d 29 ee fd 3d 5a 86 5d be
       0.09560725 0.059595704 0.12398941 -0.21633282
000140 0e a5 9e 3d ec b1 2b 3e f6 94 93 bd d7 ef 6d bb
       0.077463254 0.1676709 -0.072061464 -0.0036306286
000150 3e ef 3f be 1c ff b4 3d 97 55 06 bd 47 47 b3 bc
       -0.18743607 0.08837721 -0.03279647 -0.021884574
000160 c1 84 27 bd 1c f5 e5 3d 34 88 ae bd 3a d6 13 3e
       -0.04089809 0.112283915 -0.085220724 0.1443719
000170 18 7e e5 3c a0 07 5b 3e bc 69 20 be 33 c3 0c be
       0.028014228 0.21389627 -0.15665334 -0.13746338
000180 cb 59 04 3e 78 49 86 be 9c cb f0 3e 31 2b ac bc
       0.12924878 -0.26227927 0.47030342 -0.021016689
000190 91 3b 29 be 33 11 ee bd 82 33 99 bd e8 73 ef bc
       -0.16526629 -0.11624374 -0.074805275 -0.029230073
0001a0 9e 62 bf 3e 22 64 a6 3d 62 c9 c5 3c 64 eb 6c bd
       0.37379926 0.081245676 0.024143878 -0.057841673
0001b0 19 f4 a1 bd 39 dc 7c bd 0a 0c 28 3e 2d 0b 9d 3e
       -0.07907886 -0.06173346 0.16410843 0.3067259
0001c0 2b f5 4c 3e 4c 76 a8 3c ab 7d 1a 3e 30 96 95 3e
       0.20015399 0.02056422 0.15087001 0.29216146
0001d0 9e 76 34 3e 85 81 0b be f4 a5 63 bd ed 7d 81 3e
       0.17623374 -0.13623627 -0.055578187 0.25291386
0001e0 1f 09 26 3d ac a3 59 be ff aa e4 3d 80 fe 8a be
       0.040536042 -0.21253842 0.111654274 -0.27147293
0001f0 94 f1 71 be c9 00 79 be 21 87 2c 3b ed 32 0a be
       -0.23627311 -0.24316706 0.002632566 -0.13495989
000200 46 8d 8f be b9 e5 86 3e a3 b3 77 be 1d 08 de 3d
       -0.2803747 0.2634714 -0.2418962 0.10841391
000210 bb 58 63 3e ef 1f 3d bd a4 6c 42 be 32 aa 62 bd
       0.22201817 -0.046173032 -0.18986756 -0.055338092
000220 ef 92 75 be dd 25 f7 bd cd 56 c5 bb b8 55 12 3d
       -0.23981832 -0.12067769 -0.0060223104 0.03572628
000230 e4 41 96 3e a2 d3 60 be fd e1 4a bd 19 f3 09 be
       0.29347146 -0.21955732 -0.049531925 -0.1347164
000240 0b 1f 3b 3e f6 66 75 3e 8d f7 e8 bd f6 2f c9 bd
       0.1827356 0.23965058 -0.113753416 -0.09823601
000250 2f ec 8a bc 6a 95 05 bb 97 a8 80 be c0 e5 b8 3d
       -0.016958324 -0.0020383247 -0.25128624 0.09028196
000260 9a 0a cc 3d 84 af 6d bd c5 69 c4 3c 13 e5 1d 3b
       0.099629596 -0.058028713 0.023976216 0.0024092838
000270 8d 98 f4 bd 46 a5 df bd c4 01 ca bd 9f 18 86 bd
       -0.11943159 -0.10920195 -0.09863618 -0.06547665
000280 80 2b 79 be 65 fa 4b 3e 02 99 c5 3d 85 3d 93 bd
       -0.24333 0.19919737 0.096483245 -0.07189468
000290 aa 64 c6 bb 97 9e 22 be 6a 0d 80 3d 68 6a 80 be
       -0.0060544806 -0.1588081 0.062525585 -0.25081182
0002a0 8e 92 d0 3d d1 24 95 3e da ec 10 be de b8 7e be
       0.10184203 0.2912965 -0.14152852 -0.24875209
0002b0 ed 96 21 bd 1c 44 0c be ac d2 28 bd 21 1c 16 3d
       -0.039450575 -0.13697857 -0.041216537 0.03664792
0002c0 6f ce 57 3e 43 5c 59 3e 99 af ad 3d 7c 0b a1 bd
       0.21074842 0.21226601 0.08480758 -0.078635186
0002d0 52 e6 bc 3d f1 a2 89 3d e0 30 47 be 13 0d 87 3e
       0.092236176 0.06720532 -0.19452238 0.26377162
0002e0 6e c1 83 3d 53 81 ce bd 6e b3 97 3e 87 ad e4 bc
       0.06433378 -0.100832604 0.2962908 -0.027914776
0002f0 10 ae 02 3e 98 b9 d5 3d ae ba 72 be d3 27 f3 3d
       0.12761712 0.1043579 -0.23704025 0.1187283
000300 f9 58 95 3c 38 d6 02 be 35 f1 be bd eb 7d 43 bd
       0.018230902 -0.1277703 -0.0932335 -0.047727507
000310 d3 a9 7f 3d ee 96 5b bd 0e cc 8a 3e bc 33 32 3e
       0.062417816 -0.053610735 0.27108806 0.17402548
000320 85 c3 d0 3d d9 94 a2 3c 52 9d 09 3d 20 6a 91 3d
       0.101935424 0.019846367 0.033597298 0.0710032
000330 63 85 86 3d d5 c7 79 bd 90 af aa 3c f8 46 3e 3d
       0.0656841 -0.06098159 0.020835668 0.0464544
000340 cc 85 80 3e 57 f9 da 3d 56 6f 0d 3d 41 5d 7d 3e
       0.2510208 0.10692089 0.034530006 0.24742605
000350 75 10 6d 3d 3c 30 54 3e 49 54 77 be 84 6b 30 be
       0.057877023 0.20721525 -0.24153246 -0.17228514
000360 5e 80 46 bd ab 7b ea 3d f4 51 98 bc ce 45 ba 3d
       -0.048462264 0.11449369 -0.018593766 0.090953454
000370 94 96 ab 3d e1 c6 94 be 13 8a 89 be b9 72 a3 bd
       0.0837833 -0.29057983 -0.26863155 -0.07980866
000380 02 27 10 bb 7d 09 e9 3c 72 f0 b3 3d 65 c6 ed bd
       -0.0021995907 0.028446907 0.08786096 -0.116101064
000390 c3 f5 a6 3d 01 1e 0e be a9 37 9d 3d b0 9f 26 3e
       0.08152344 -0.13878633 0.07676632 0.16271853
0003a0 f4 24 ba 3e bc 46 fe bc a5 b5 96 bd c6 25 f3 3d
       0.36356318 -0.031039588 -0.07358865 0.11872439
0003b0 3c 89 ab 3b 6b 89 9d be 1f e2 6d bd 78 0e 05 3e
       0.0052348655 -0.30768904 -0.058076974 0.129938
0003c0 8a 7d ea 3d b0 8e 21 3e bc 7a be 3e b3 c9 1c be
       0.11449726 0.15777087 0.37203014 -0.15311317
0003d0 2a 53 33 3c 4b b9 1f 3d bc be 52 be 53 02 66 3e
       0.010945121 0.03899507 -0.20580572 0.22461824
0003e0 e2 01 1f 3d 34 7d 88 bd e3 85 dd 3e d4 dc e4 3d
       0.038820155 -0.066645056 0.4326621 0.11174932
0003f0 fe 82 50 be 08 d3 b7 3e 40 ae 1f be a3 0d 3e 3e
       -0.2036247 0.35903192 -0.15593815 0.1855989

encoder_lstm.bias_ih_l0 f4 [128]
000000 f7 53 b4 bd de c9 6a 3e 97 31 10 3d b3 35 5a 3e
       -0.088050775 0.22928569 0.035203543 0.21309547
000010 eb 22 b4 3d f2 08 0a bc f0 61 19 3e 66 ee 1f 3e
       0.087957226 -0.008424984 0.14978766 0.15618286
000020 3b bb 09 3d 39 44 2f 3e 24 d2 a4 3e 4b d2 bc 3d
       0.033625823 0.17115869 0.32191575 0.09219798
000030 2f 41 c3 3c fa c9 a2 3d c4 8d cc 3d b5 e5 04 3d
       0.023834793 0.0794868 0.09987977 0.03244563
000040 2e 46 1a 3d 96 6f 9e 3d 51 5c 54 3e 6f 56 be 3d
       0.037664585 0.07736127 0.20738341 0.0929383
000050 65 a2 46 3e 4c ba ba 3d 95 84 9a 3d 93 88 0a bd
       0.19397886 0.091175646 0.07544819 -0.033821654
000060 91 1e 3d 3e 56 0d c8 bc a7 6e 23 3e 88 64 22 3e
       0.18468691 -0.024420422 0.1596018 0.15858662
000070 45 53 49 3e 4b 97 2c 3e 49 01 bb bd c6 15 26 3e
       0.19660671 0.16854589 -0.091311045 0.16219243
000080 1a e8 31 3e a6 c8 69 be f7 85 11 bc 02 0c 80 ba
       0.17373696 -0.22830448 -0.008882037 -0.0009769204
000090 88 1a 39 3e a9 a3 d2 3d 95 65 28 3c c5 91 03 3e
       0.18076527 0.10285122 0.010278125 0.12848575
0000a0 6d 2c 22 be f9 e4 b6 3d 4b d8 98 3d 38 5d c8 3c
       -0.1583726 0.08930392 0.074631296 0.024458513
0000b0 3f 1e 76 3e 24 ad bd 3c 52 34 18 3e 31 ad 00 3c
       0.24034975 0.023153849 0.14863709 0.007853792
0000c0 f8 2d 0f 3c 4c a3 2f 3e 44 48 10 bd a6 d7 47 3e
       0.008738987 0.17152137 -0.035225168 0.19515857
0000d0 2c 52 cd 3d 50 a3 3b 3e be 3c 20 3e 15 64 89 3d
       0.10025439 0.18324018 0.15648171 0.06708542
0000e0 4e 28 18 3e a4 72 90 bd 20 be 7b bc 4d 5b 1b 3e
       0.14859125 -0.07053116 -0.015365154 0.15171547
0000f0 57 b9 3e 3e 77 5f c2 3d 9c 48 6f 3e e1 8c aa bc
       0.18625389 0.09490865 0.23367542 -0.02081913
000100 9a 94 4f 3d e8 4e 99 bd 6e 40 1c be d7 2c 2e bc
       0.050678827 -0.07485753 -0.15258953 -0.010630808
000110 9a 3a 36 3d 72 b9 c0 bd 78 c1 96 bd 29 10 45 be
       0.04448948 -0.09410371 -0.0736112 -0.19244446
000120 7d 9e 58 bd 84 d4 6a 3d 71 24 a1 bd 96 f1 9d 3d
       -0.05288552 0.057331577 -0.07868279 0.077120945
000130 11 aa dd bc cd 3e 09 be a2 44 fc 3d cd 32 8c bd
       -0.027058633 -0.13402863 0.12317778 -0.06845627
000140 40 5b f0 bd 62 39 57 3c 3f 6a ed bb ce fc 37 3e
       -0.117361546 0.01313624 -0.0072453315 0.17967531
000150 12 cb 3f 3d d5 27 ac bd f1 89 8d bd 4b d1 ea 3d
       0.046824522 -0.08406035 -0.06911076 0.11465701
000160 7c 08 13 be 2e 26 1c be 51 3a 3b 3e f9 85 47 3e
       -0.14358705 -0.1524894 0.18283965 0.194847
000170 2a 1f 5c be 87 0c da 3d 3e b0 36 be 39 31 2c be
       -0.21496263 0.10646921 -0.17840669 -0.16815652
000180 8d a2 bf bc c7 cb 25 3e 5e e5 d8 3d b1 6d 18 bc
       -0.02339294 0.16191016 0.10590623 -0.009303496
000190 06 04 aa 3d a3 da ef 3d 05 f5 32 3e 5c 19 b0 3e
       0.08301549 0.117116235 0.1747628 0.34394348
0001a0 e4 03 82 3e 2c 7f ac 3d 1d de 9c 3e 4e 36 53 3e
       0.25393593 0.084226936 0.3063821 0.20626184
0001b0 74 42 c8 3d 22 dc 66 3e a2 53 91 3e 8a 41 95 3e
       0.097783 0.22544912 0.2838412 0.29151565
0001c0 a1 2a 10 3e c5 f4 d9 bc 9f 2c 8b 3e 73 be 21 bd
       0.14078762 -0.026605973 0.2718248 -0.039488267
0001d0 8a 79 1f 3e 88 dd 80 3d a8 d3 22 3e df 3f 9a 3e
       0.15573707 0.06292254 0.15901053 0.30126855
0001e0 6f e5 c5 3d 4b 8d 50 3e fc 18 53 3e d4 46 47 3e
       0.096629016 0.20366399 0.20615 0.19460613
0001f0 76 ba f7 3d 58 e2 5b 3e 27 d0 66 3e 51 44 d3 3d
       0.120961115 0.21473062 0.22540341 0.10315765

encoder_lstm.bias_hh_l0 f4 [128]
000000 f3 13 0c 3e dc b5 36 3e b8 b8 01 3d 8f cd a0 bc
       0.13679485 0.17842811 0.031670302 -0.019629268
000010 2c e5 24 3d f7 c6 04 3e 66 89 97 3e 23 e3 73 3e
       0.040257618 0.12966524 0.29597014 0.23817115
000020 df 07 6b 3e 8b 18 c3 3d b7 35 11 3c 6d bc 64 3d
       0.22952221 0.095261656 0.008862904 0.05584376
000030 f6 e4 bd bd 5e 50 79 3e 97 69 5f 3e 8d 94 8f 3e
       -0.092721865 0.24347064 0.21817623 0.28043023
000040 3d 9c 83 3e a2 79 ef 3d a6 c2 56 3e 77 59 61 3e
       0.25705138 0.116931215 0.2097269 0.22006784
000050 ea 4a 8a 3e 28 4c 5d 3e 41 9b 7b 3d 3c de 21 3e
       0.2701028 0.21611083 0.06142736 0.15807432
000060 51 0d d8 3d e4 62 02 3e 6c f6 91 3e c8 3a 2b 3d
       0.10549415 0.12733036 0.28508317 0.041804105
000070 78 a5 04 3e fd ae 47 3c 0a 46 9e 3d b4 02 8f 3e
       0.12953746 0.012187717 0.07728203 0.2793175
000080 03 05 94 3e 5e 4d c0 bd 5b 8b 3d be 06 a9 08 3c
       0.28910074 -0.093897566 -0.18510191 0.00834108
000090 aa 63 87 bd de 9b 00 3d 9a a5 31 3d 63 ea 66 bc
       -0.06610806 0.031398647 0.04337082 -0.014093968
0000a0 7a 27 1f be 4f 67 16 be d5 e9 b5 3d cc 77 a0 bd
       -0.15542403 -0.14687847 0.088824905 -0.078353494
0000b0 45 44 b5 3d 53 b2 19 3e 49 f5 8c 3d fe 24 d6 3d
       0.08850912 0.15009432 0.06882722 0.104562744
0000c0 25 e7 04 3e 69 37 3d bd 9e 0c 89 bc 4c 2a 81 bc
       0.129788 -0.04619542 -0.01672965 -0.015767239
0000d0 67 e6 a4 bc d3 1c 03 3c 21 f6 38 3d d0 1e bd 3c
       -0.020129396 0.008002478 0.0451566 0.023085982
0000e0 36 f7 30 be f0 22 73 3e 3c fc 34 3d ae 5e 98 3d
       -0.17281803 0.23743796 0.044185862 0.07439934
0000f0 3f e7 97 bd 63 db 91 3d 00 7b 99 3d f0 9f ea 3d
       -0.074171536 0.07121923 0.074941635 0.11456287
000100 29 af 49 3d 4f 09 64 bd 83 92 19 be 39 79 80 bd
       0.04923931 -0.05567294 -0.14997296 -0.062731214
000110 1a 9d cd 3c 99 34 22 3d 41 5e d4 bd 8f d7 86 3d
       0.025099326 0.039600942 -0.1036954 0.06584083
000120 b3 14 c4 3d b9 02 a9 3d 66 19 2b 3d 0a ff 93 bd
       0.095742606 0.082524724 0.04177227 -0.07226379
000130 4e 7c 1f 3e d3 78 94 3d 7d ae 13 be cc 06 0b 3e
       0.15574762 0.07249608 -0.14422031 0.13576812
000140 63 72 93 bd 90 9d b5 bd 8c 05 56 3e e9 bb ae bb
       -0.07199552 -0.08867943 0.20900553 -0.005332459
000150 23 37 0b be 9e 69 01 be cb eb 19 be d6 ed 0f 3d
       -0.13595252 -0.12637946 -0.15031354 0.035138927
000160 c9 c6 1d be a9 5d e3 3d 6a 9a 00 be 95 b8 5e bd
       -0.15407862 0.11101849 -0.12558904 -0.05437525
000170 c2 aa ff 3d fa f0 0c 3e f5 47 9b 3d 02 37 01 bd
       0.12483741 0.137638 0.07582084 -0.0315466
000180 84 dc 9f bd 83 07 ad 3e 65 3a 04 3e c2 b3 5d 3e
       -0.07805732 0.33794793 0.12912901 0.21650603
000190 e9 33 04 3e d2 2e 38 bd 5a cb 67 3d 13 c7 8b 3d
       0.12910427 -0.044966526 0.056590416 0.0682508
0001a0 87 fe 94 3e c0 d7 56 3e 3e c0 83 3e 84 7b 9f 3e
       0.2910044 0.2098074 0.25732607 0.31148922
0001b0 3e 89 16 3e c6 12 dd bc ba 6c 9f 3e 72 2a 4d 3e
       0.14700791 -0.026986491 0.3113764 0.20035723
0001c0 06 af 5f 3e 88 11 15 bd cb 08 72 3e 67 ea 0c 3e
       0.2184411 -0.036393672 0.23636167 0.13761292
0001d0 ea eb 2a 3d 71 fd 99 3d 10 07 51 3e b4 26 9b 3e
       0.04172889 0.07519043 0.2041285 0.30302966
0001e0 20 10 c2 3d 9e b0 5e 3d 64 d2 5d 3e 9f 3c 74 3e
       0.09475732 0.054367654 0.21662289 0.2385125
0001f0 cc f0 d1 3d 4e ac 50 3e 64 b4 f6 3c 2d fb 6e 3e
       0.102510065 0.20378229 0.030115314 0.23338003

decoder_lstm.weight_ih_l0 f4 [64, 32]
000000 9f d0 a7 be 95 51 04 bf 24 11 b5 be 55 b0 71 bd
       -0.32776353 -0.51686984 -0.3536464 -0.059006054
000010 96 d0 c8 be ac 00 e3 be 39 e9 98 3e f9 6e 01 3e
       -0.39221638 -0.4433645 0.29865435 0.12639989
000020 a7 cf 84 3d 88 ad be 3d f1 50 56 bd 2b 18 85 3c
       0.06484919 0.09310442 -0.052323285 0.016246876
000030 3c 39 ad 3e 7c 68 4e be 9e 38 ca 3d ea 8d 7f bd
       0.3383273 -0.20157045 0.0987408 -0.0623912
000040 a0 07 af 3d af 65 b3 3e 65 73 9b 3e a8 18 be 3d
       0.08546376 0.35038516 0.30361477 0.092820466
000050 1c f8 0d 3e ca 7c 8d 3e 7b 84 1b bf ec f7 62 3e
       0.13864177 0.2763427 -0.60749024 0.22164887
000060 fc bb 67 3c 41 8b 84 be 92 35 02 bc a3 1d b3 3e
       0.01414394 -0.25887492 -0.0079473425 0.3498355
000070 30 49 ba be 0c 33 70 3d 23 c2 fb be 76 35 72 be
       -0.36383963 0.058642432 -0.49171552 -0.23653206
000080 97 d0 d8 be c1 ea 79 bd db 29 8d 3d 08 56 f7 be
       -0.4234664 -0.061014894 0.06892749 -0.48307824
000090 91 97 02 3e 27 00 dc be 76 cf b0 3d b5 04 f9 be
       0.1275313 -0.42968866 0.0863332 -0.48636404
0000a0 bb 2f 8e 3d 18 41 b2 be b0 d7 14 be 79 a9 f7 be
       0.069426976 -0.34815288 -0.14535403 -0.48371485
0000b0 0d 7e 86 3d c5 fa 86 bd 76 2c 4d 3d cd 6e 51 3d
       0.06567011 -0.06590799 0.05009123 0.05113106
0000c0 9a 8c 39 3e 74 16 4e 3e 00 51 ce 3e 25 c5 2a 3e
       0.18120041 0.20125753 0.40296173 0.16676767
0000d0 29 82 1c bd 5b 6d 38 3e 03 e5 e4 bd 11 43 a0 bd
       -0.038210068 0.18010466 -0.11176493 -0.07825292
0000e0 c7 70 93 be fc 7c aa 3e da 01 cc 3e c2 2d 9d 3d
       -0.2879698 0.3329848 0.39845163 0.07674743
0000f0 48 75 26 be 71 9f 07 3f fb 4f b1 be 9c e5 cf be
       -0.16255677 0.52977663 -0.34631333 -0.40604866
000100 98 5f 85 be dd bc 29 be 26 e4 7e bc 85 22 8d bc
       -0.26049495 -0.16575952 -0.0155573245 -0.017228374
000110 84 35 44 be f2 5a 5a bd 47 20 c0 3d dd 35 39 3e
       -0.1916104 -0.05330939 0.093811564 0.18086953
000120 84 8b 57 be 72 51 c1 3e aa 95 24 3e 98 b6 8b be
       -0.21049315 0.3775745 0.16072717 -0.27287745
000130 18 15 9e 3e 13 1a fc be f6 17 c6 3e df 49 69 3e
       0.30875468 -0.49238643 0.38690156 0.22782086
000140 09 fb 3f 3e a0 54 eb 3e 9e fe b3 bd 62 0b ae 3e
       0.18748106 0.45963 -0.08788799 0.3399306
000150 21 2b 27 3e 78 c4 03 3f ed 62 22 bf ce 01 e1 3c
       0.16325046 0.5147166 -0.634322 0.02746668
000160 8e 6f 9c be 50 ea 8d bd 27 b8 bf 3e d8 f9 86 3e
       -0.3055386 -0.06929457 0.37445185 0.2636249
000170 00 dc 08 bf a6 1c 84 3d 01 32 13 bf b5 ad d8 be
       -0.53460693 0.06450777 -0.57498175 -0.42320028
000180 13 92 33 be f4 97 18 3d c6 d9 41 be ff 3d c0 be
       -0.17536192 0.03725429 -0.1893073 -0.375473
000190 b6 80 59 be 8f d9 d1 be 6b 82 85 bd 2e 87 5c 3d
       -0.21240506 -0.40986297 -0.06519016 0.053839855
0001a0 3d be d3 be 52 69 22 3e 18 aa 90 3e 1e 04 17 bf
       -0.41356078 0.15860489 0.2825477 -0.5899066
0001b0 2c 94 0d 3e 52 ce 01 be e0 6a bc 3e bf 3b e5 bd
       0.13826054 -0.12676361 0.3680029 -0.11193036
0001c0 5f cc a8 3e 04 3b 39 bd 4e f4 1b be df 1f 6c bd
       0.32968423 -0.045222297 -0.15229914 -0.057647582
0001d0 f4 09 1a bd bd 96 cd 3e dc 5b cc be 56 12 54 3d
       -0.03760715 0.40154067 -0.39913833 0.0517753
0001e0 02 81 aa be 27 af c9 be 8c e0 05 be ee c8 5a 3d
       -0.3330155 -0.39391443 -0.13073939 0.053414278
0001f0 ab b2 b5 3d d3 2c 79 3d 03 26 04 bf f2 85 85 be
       0.08871969 0.060833763 -0.516205 -0.26078755
000200 2f 08 fc bd e3 dd 7b 3d b9 f0 b2 3d 46 81 8f bd
       -0.123062484 0.061490905 0.087373205 -0.07007079
000210 1b 2e b2 be 8e 2d 95 be 55 13 d8 bd f6 de 5b 3e
       -0.348008 -0.29136318 -0.10550562 0.21471772
000220 1c 97 6d be 16 44 03 3f 0c 7a 8d 3d 91 6b c2 be
       -0.23202175 0.51275766 0.06908044 -0.37972692
000230 52 b4 48 3e d3 18 a0 bb a7 32 ca 3e ed c9 88 bc
       0.19600037 -0.004885772 0.3949177 -0.016697848
000240 1e ad 94 3e f2 b2 c8 3e e0 01 e7 3d fb 6f c2 3e
       0.29038328 0.39199024 0.112796545 0.3797606
000250 e8 75 7e bc 2d c2 c2 3e 37 ce 17 bf 61 72 19 3f
       -0.015531041 0.3803877 -0.59299034 0.59940153
000260 11 4f 91 bc 9f 76 51 be e3 85 96 3e 82 97 0e 3e
       -0.017737897 -0.20455407 0.29399022 0.13924983
000270 81 3b 8d be 4c 4b 3f 3d 15 5c ac be e2 88 91 be
       -0.2758446 0.046702668 -0.33664003 -0.28424746
000280 71 30 10 3e 3a 9c fb be 3d 2a 2a bf f1 e4 13 bf
       0.14080979 -0.4914263 -0.664707 -0.5777121
000290 6f aa 9e be 25 5e 47 3e 1d 13 1f bf 6f b4 de 3e
       -0.30989406 0.19469507 -0.6213854 0.43497035
0002a0 54 9b 5b be fa 98 0c 3f 0c 05 54 be ad 15 55 3e
       -0.21445972 0.54920924 -0.2070505 0.2080905
0002b0 1f be 5e 3d 80 92 38 be f7 08 59 3e 42 95 75 bd
       0.054380532 -0.18024635 0.21194826 -0.059956796
0002c0 c2 6f 8c be 05 d5 37 3e 6a b8 a7 be 79 03 ad be
       -0.27429014 0.17952354 -0.32757884 -0.33791712
0002d0 fa c6 1d 3f ee 2d 29 3e e5 d2 da 3d fe f8 f4 3e
       0.6163174 0.16521427 0.10684756 0.47846216
0002e0 bc 7f 59 be fd cb a6 be 64 e8 06 3e 9b 00 06 3f
       -0.21240133 -0.32577506 0.13174587 0.52344674
0002f0 03 3d 37 3d e4 64 ca bd 60 a0 7c 3e 5d 7c 4c bf
       0.04473592 -0.098825246 0.24670553 -0.79877263
000300 f7 06 a7 be e6 5a 28 be 7f cb a3 3d 46 3f 47 bd
       -0.326225 -0.16440925 0.07997798 -0.048644327
000310 e5 97 b8 be 4a fb 77 be 75 12 96 3e c9 d6 ab 3e
       -0.36053386 -0.24216953 0.29310957 0.33562306
000320 0f d9 c9 bd 27 53 16 3e 49 7d 8c 3e e8 3e c6 be
       -0.09855854 0.14680158 0.27439335 -0.3871987
000330 5d eb f4 3e 30 83 9b be eb 19 e8 3e c1 78 02 3e
       0.47835818 -0.30373526 0.45332274 0.12741376
000340 a3 2b d0 3e 0d 38 22 3e 00 53 d5 3d c6 6c 8f bd
       0.40658292 0.15841694 0.104162216 -0.07003169
000350 cd ba 05 3e 1b 05 8d 3e f9 4e 0b bf a3 42 40 3e
       0.1305954 0.27542958 -0.5441738 0.1877542
000360 ee 31 41 be 99 6e 22 bc 77 fd d9 3e 0e 16 01 3f
       -0.18866703 -0.009914064 0.4257619 0.5042428
000370 3a 8e 0b be 12 74 dd 3d fa 18 16 bf 12 df 00 bf
       -0.13628474 0.10813154 -0.5863186 -0.5034038
000380 ab 4e 82 be 19 46 64 be 70 08 4f bd 37 ab 34 be
       -0.25450644 -0.22292365 -0.050545156 -0.17643438
000390 0a 63 a5 3e b0 e6 f6 bc d8 af df 3e 01 2a b6 3d
       0.32302123 -0.030139297 0.43688846 0.0889473
0003a0 6a 44 9b be 28 e3 e3 3d ed 46 40 be a0 5c 1e bf
       -0.30325633 0.11127311 -0.18777056 -0.61860085
0003b0 54 f2 c7 3e a8 89 df be 27 3b 02 3e 96 4f 54 be
       0.3905207 -0.4365971 0.12717877 -0.20733485
0003c0 d3 1f ca 3d 94 76 71 3e fb 7e 9d bd 02 35 b4 be
       0.09869351 0.2358039 -0.07690235 -0.35196692
0003d0 ca d2 cf bd 32 b3 af 3c 31 82 d7 be 50 d1 c9 3d
       -0.10147627 0.021447752 -0.42091516 0.09854376
0003e0 9b eb 34 be d6 e3 a7 3e ff 8f 41 3e 6c 09 ad 3e
       -0.17668001 0.32791013 0.18902586 0.3379625
0003f0 c5 73 b1 bd 1c f0 0b 3f f0 65 56 be a1 3a ab be
       -0.086646594 0.5466325 -0.20937324 -0.33443168

decoder_lstm.weight_hh_l0 f4 [64, 16]
000000 ca 1f 2f bd 26 0f cd 3e 00 0c 04 be 01 37 10 3d
       -0.042754926 0.4005062 -0.12895203 0.035208706
000010 77 76 0e 3e 56 1e ad bd 45 66 a7 3d d3 a8 ac 3d
       0.13912378 -0.08453052 0.08173803 0.08430638
000020 4a 4e a5 3b 68 32 26 be 66 71 96 3e d1 06 04 3e
       0.005044733 -0.16230166 0.2938339 0.12893225
000030 9f 02 3d be a2 cb ac 3d 1f 7d 46 bd 98 61 fd 3e
       -0.18458031 0.084372774 -0.04845917 0.4948852
000040 c1 80 db be e6 8d 94 bb f2 5e ad be 4e 96 a8 be
       -0.4287167 -0.004533517 -0.338615 -0.32927173
000050 16 f0 8d 3d c6 17 35 be e4 ed df bc 4f 18 9c 3e
       0.069305584 -0.1768485 -0.027335115 0.30487296
000060 a6 e7 82 3d 61 46 8b bd c6 81 f5 3d 88 fa 9e 3e
       0.0639184 -0.06800533 0.11987643 0.31050515
000070 59 cc d7 bd f2 55 07 be cb 9d ff be ec a9 05 be
       -0.10537023 -0.1321638 -0.49925074 -0.13053101
000080 31 ef a9 be 22 79 60 3e 4f 55 98 bd 07 fe 0d 3e
       -0.331903 0.21921209 -0.07438146 0.13866435
000090 aa a7 80 3d 5e 8c 5b bd 80 ff e5 bd 55 f8 02 3f
       0.062819794 -0.05360066 -0.112303734 0.51160175
0000a0 8f 24 65 3e fb 0e 81 3e 59 1d f5 3e 42 aa 86 bd
       0.22377227 0.25206742 0.47873953 -0.06575443
0000b0 6d f1 89 be 51 9c 9e bd 7b 88 5c be d2 33 d8 3e
       -0.26942006 -0.07744659 -0.21536438 0.42227036
0000c0 86 d3 ba be 35 55 66 3e d5 6f 80 3a 55 a5 1c be
       -0.36489505 0.22493441 0.0009798954 -0.15297444
0000d0 f3 d0 42 3e 0a 95 a0 bd fa 56 96 bd 06 82 49 3e
       0.1902502 -0.07840927 -0.07340808 0.19678506
0000e0 e9 2d 15 3e a5 09 f1 bd 35 d1 82 3e db 75 69 be
       0.14568295 -0.11769418 0.25550237 -0.22798865
0000f0 ae 9f 87 bd 85 e7 c9 bd 7b c4 06 bf 69 1c e4 3d
       -0.06622253 -0.09858612 -0.52643555 0.11138231
000100 2c 0b bb be a4 67 4d 3d 9e 53 c6 bc c0 eb 34 bd
       -0.3653196 0.050147668 -0.024209794 -0.04417014
000110 21 c5 bd 3e b8 1b 92 be 47 ff af bd 61 e0 d3 3e
       0.3706446 -0.28536773 -0.08593612 0.41382125
000120 39 b6 c5 3e 18 29 a0 3d 77 a4 16 3f 55 39 72 be
       0.38615587 0.07820338 0.58844703 -0.23654683
000130 88 67 d4 bc 2c 59 a6 be 18 83 c7 be 5e 68 f9 3e
       -0.025928274 -0.32489908 -0.38967204 0.48712438
000140 f7 14 6f 3e 3c 55 93 be 5a b7 95 bd e4 8e 6d bd
       0.23347841 -0.28775966 -0.07310362 -0.0579976
000150 27 b0 64 3e e3 8a 10 3e 08 85 03 be 35 db 60 be
       0.22332822 0.14115481 -0.12843716 -0.21958621
000160 f4 d5 c5 bd 0d 10 99 3c 51 72 3d bd 9b 67 9a be
       -0.09659949 0.018684411 -0.0462516 -0.3015717
000170 2e 5f fa 3d bb ba 84 3d 98 2d cb 3b a8 f7 1a 3f
       0.12225185 0.064809285 0.0062005036 0.60534143
000180 f8 5f d6 be f0 ee 2d 3e 22 67 46 bd a1 ba 68 be
       -0.41870093 0.16985679 -0.0484382 -0.22727443
000190 62 fa 1f 3e 8f ff 3c be f6 e4 c5 be a7 48 32 3e
       0.15622857 -0.18456863 -0.38651246 0.17410527
0001a0 b9 b7 b0 3e 56 42 40 3e dd 0d be 3e a4 05 bd bd
       0.3451517 0.18775305 0.37119952 -0.092295915
0001b0 5e c8 15 bd 14 fc cb bd 11 ce ba bc 20 13 eb 3e
       -0.03656804 -0.099601895 -0.022803338 0.4591303
0001c0 6e 62 90 be 69 be 25 be f5 74 af be 9b aa a5 be
       -0.28200096 -0.16185917 -0.3426892 -0.32356724
0001d0 92 2f 9c 3e 12 ea ba be 22 38 46 be 09 25 03 3e
       0.30505043 -0.36506706 -0.1935735 0.12807097
0001e0 5a a7 b3 3d 95 a7 b3 3d 22 62 b6 3d 75 a3 49 3d
       0.08772154 0.08772198 0.08905436 0.04922815
0001f0 0c 84 9f bc 61 47 38 be 3f c3 06 be ef 4e 1f 3e
       -0.019472145 -0.17995979 -0.13160418 0.15557455
000200 89 1e 8e be 14 0e bc 3e 10 91 01 be 7a d6 36 3d
       -0.2775767 0.3672949 -0.12652993 0.044638135
000210 18 47 d0 3e 1f 75 dc be 11 53 cd 3d 1c 4e 76 3e
       0.4067924 -0.43058106 0.10025609 0.24053234
000220 92 75 ab 3e 8e 77 1b bd b4 0f a4 3e cf a7 5b be
       0.33488137 -0.037955813 0.3204323 -0.21450733
000230 6f 9d 21 3d 69 de 10 bd 55 89 d3 bd 33 40 9b 3e
       0.03945678 -0.035368357 -0.103289284 0.30322418
000240 76 ec bb be 23 a3 b1 3d 5c 25 cb be bb 03 e3 bd
       -0.36703843 0.08673694 -0.3967694 -0.11084696
000250 80 3e 82 3e 8c 28 b8 be 45 b3 b7 be 71 ea a7 3e
       0.2543831 -0.35968435 -0.3587896 0.32796052
000260 b0 03 c0 3d 40 42 05 3e 29 b6 9b 3e 01 06 98 be
       0.09375703 0.13013554 0.30412415 -0.2969208
000270 d9 96 5d be 99 04 94 be 3a 22 eb be dd d9 b4 3d
       -0.21639575 -0.28909758 -0.4592455 0.088306166
000280 f8 ed c8 bd 93 b8 5b 3e 81 c6 8e be c4 fc a4 be
       -0.09811014 0.21457128 -0.2788582 -0.32224095
000290 f3 f7 ca 3d 3e 88 7e be 79 58 1e be 3c e6 d3 bd
       0.09910574 -0.2485666 -0.15463437 -0.10346648
0002a0 e5 c4 a2 3e df cb 4c be 13 4a 40 3e 01 b9 40 3e
       0.31790844 -0.19999646 0.18778257 0.18820573
0002b0 21 ac ba bd 2a 86 08 bd 71 7c b3 bc db be f3 3c
       -0.09114862 -0.033331074 -0.021909924 0.029754093
0002c0 1f 90 8b bd bd ec 2e be da 8c 26 bd e3 5c 40 bd
       -0.06814598 -0.17082496 -0.04066167 -0.046963584
0002d0 ad ce 23 3d 0c 32 72 bd 9c 4f 73 be 08 01 dc bd
       0.039992023 -0.05912976 -0.23760837 -0.10742384
0002e0 00 16 70 3e de 50 d2 3e 06 18 f0 3e 01 e7 4a 3e
       0.23445892 0.41077322 0.46893328 0.19814683
0002f0 74 61 ed bd d2 3f bb bd cf 48 93 bd 75 31 24 3f
       -0.11590853 -0.09143032 -0.071916215 0.64137965
000300 f1 1c f8 bd 63 1b 3c 3e 24 a2 eb be 11 6a fd bd
       -0.12114895 0.18369822 -0.4602214 -0.12373746
000310 aa 6a 99 3e 05 d6 0f bf fc ae b1 be 8e b7 9a 3e
       0.2996419 -0.5618594 -0.34703815 0.30218166
000320 ed 31 ab 3d 9b 8f 3d 3e 3e 35 be 3e 0c 32 62 3e
       0.08359132 0.18511812 0.37149996 0.22089404
000330 4d be 0a be 8b 85 c8 3d ca 07 93 be cc 58 fe 3e
       -0.13549156 0.09791096 -0.2871688 0.49677122
000340 29 f3 1c bd 17 74 3c be e5 b3 ad bd 46 5f 43 be
       -0.038317833 -0.1840366 -0.08481578 -0.19079313
000350 8f bc 59 3e a4 50 30 bd 5d 77 99 bd 41 af a6 3e
       0.21263336 -0.043045655 -0.0749347 0.32555583
000360 24 89 15 3e 64 35 1b 3e 0f 33 17 3d 4d a6 dc be
       0.14603096 0.15157086 0.036913928 -0.43095627
000370 3a 6a bb be f7 73 35 3e b0 d6 8c bd bb 04 36 3f
       -0.36604482 0.17720018 -0.06876886 0.7110097
000380 47 8b 29 be 96 9a 10 3e 2b 46 4f 3e f3 02 7a bd
       -0.16557036 0.1412147 0.2024161 -0.06103797
000390 3d b2 36 3d 5a 36 2f be f4 30 d5 3c 7b b4 22 3e
       0.044603575 -0.17110577 0.02602432 0.1588916
0003a0 51 a7 c6 3c d7 11 62 bd 73 fc de 3e 58 98 0c bf
       0.024249705 -0.055192795 0.43551978 -0.5491996
0003b0 c6 21 3a 3b 12 a8 92 be 58 cb 80 be b6 c0 5b 3f
       0.0028401478 -0.28643852 -0.2515514 0.8584093
0003c0 4b 15 e2 be 66 d7 85 be bc 1c 8a be be c4 e0 bd
       -0.4415687 -0.26140898 -0.26975048 -0.109750256
0003d0 ee 83 ab 3e 16 49 62 be 30 25 8f bd e5 1a cf 3d
       0.33499092 -0.22098193 -0.06989515 0.101125516
0003e0 64 2f 85 3e 9d f7 21 bc f2 5e b0 3e 2b 11 90 3e
       0.2601272 -0.009885696 0.34447438 0.28138098
0003f0 ee 6e 1b 3e ec 2c 6d be fc 14 aa be 22 2e 4d 3e
       0.15179035 -0.23161668 -0.33219135 0.2003713

decoder_lstm.bias_ih_l0 f4 [64]
000000 92 f9 bb 3e 38 24 fe 3e 92 1c 9c 3e 9b db a6 3e
       0.36713845 0.49637008 0.30490547 0.3258942
000010 a8 cd 9b 3e f5 03 5a 3e 2d 3e b0 3d 02 29 da 3e
       0.3043034 0.21290572 0.08605609 0.4260941
000020 8a f8 19 3e 01 14 a9 3e 76 02 0d 3d ec 59 92 3e
       0.15036216 0.33023074 0.034426175 0.2858423
000030 19 ba b6 3e 83 50 6a 3e c6 a1 b5 3e da da 11 3f
       0.35688856 0.22882275 0.35474986 0.56974566
000040 24 b6 4a bd c3 35 25 3e 3c 3b 09 3b 60 3f da bd
       -0.04949011 0.1613379 0.0020939847 -0.10656619
000050 cb 78 70 be 4e 8d 8b 3e 29 86 82 3d 2b cd 8f bd
       -0.23483579 0.27256244 0.06373245 -0.070215546
000060 e5 06 5b be 68 0b 1d be b6 99 34 3e 4e 23 6f 3d
       -0.21389349 -0.15336382 0.17636761 0.05838328
000070 2c f6 e4 bb b7 b0 2b be dd 90 cb bd 0a e2 fb 3c
       -0.006987354 -0.1676663 -0.0993974 0.030747432
000080 af ec 85 bc 6e 29 63 bd 00 22 e5 3d e8 db 10 bd
       -0.016348211 -0.055459432 0.111881256 -0.03536597
000090 e1 00 99 3d 5a 90 94 bd 94 14 8d 3d 7c da 9f 3d
       0.07470871 -0.072540954 0.068886906 0.078053445
0000a0 d6 75 0b 3e 06 02 84 be d0 12 9f 3c 66 d1 88 3e
       0.1361917 -0.25782794 0.01941815 0.26722258
0000b0 2b a9 83 be 79 ee 3e bd 30 84 6d 3d 33 6c 4d 3e
       -0.25715002 -0.046614144 0.057987392 0.20060806
0000c0 76 a6 24 3d 7f 6f d0 3d 0e 12 bc 3e 34 74 8a 3e
       0.040197812 0.10177516 0.36732525 0.2704178
0000d0 8b 3c bb 3e f0 b0 90 bd da 9f 40 3e 66 99 85 3e
       0.36569628 -0.07064998 0.18810979 0.26093596
0000e0 15 39 67 3d f4 dc 56 3e f0 02 63 be 4d 72 81 3d
       0.056450922 0.20982724 -0.2216909 0.06320629
0000f0 68 77 ea 3e 95 f4 fb 3e db b8 02 3f ba b4 df 3e
       0.45794225 0.4921004 0.5106332 0.4369257

decoder_lstm.bias_hh_l0 f4 [64]
000000 6b 6f b6 3e 15 3b d1 3d cb 79 cc 3e 75 bd c9 3e
       0.3563188 0.10216347 0.3993667 0.39402357
000010 4a e5 5a 3e ea aa fc 3d 9b a5 92 3e 6b ef ed 3e
       0.2137653 0.12337287 0.28641972 0.46471724
000020 55 17 c8 3d 64 6c 2a 3e 9e 19 45 3e 9a 5f 4b 3d
       0.09770075 0.1664291 0.19248053 0.04965172
000030 c3 e6 94 3e 40 66 12 3e 6f 92 d1 3e 2d 01 10 3e
       0.29082307 0.14296818 0.40932032 0.14062949
000040 78 74 01 3e 84 99 be 3d 57 65 8b 3c 79 7c 01 be
       0.12642086 0.093066245 0.017016096 -0.12645139
000050 18 42 1c 3d db 3a e7 3d e3 00 48 3c 5e eb 34 3e
       0.03814897 0.11290523 0.012207243 0.1766791
000060 9d 37 2d bd 2c 7a a8 3d 4b b1 af bd 5d 94 52 3e
       -0.042289365 0.082264274 -0.08578738 0.20564409
000070 f1 3f 18 3c d3 b0 1b be 18 c7 b5 3d c6 a8 2c be
       0.009292589 -0.15204172 0.08875865 -0.16861257
000080 cc 10 8b be 5a 9f 8b 3e 21 fa 67 be af eb 83 bc
       -0.27161252 0.27270013 -0.2265401 -0.016103594
000090 0c 10 8e bc ff ca 5d be 7d 05 79 bd a3 80 53 be
       -0.017341636 -0.21659468 -0.06079625 -0.2065454
0000a0 a0 23 2b 3e 4e a6 9b be a3 0e 1d 3e 3f a4 76 3e
       0.16712809 -0.30400318 0.15337615 0.24086092
0000b0 8d a8 28 3c 99 0a 28 be 54 7f c2 3c 19 39 0f bd
       0.010294092 -0.16410293 0.023742355 -0.034966562
0000c0 60 b7 9c 3c 5d 41 c0 3e d0 2e 75 3c 4b 9f fa 3e
       0.019130409 0.37549868 0.014964774 0.48949656
0000d0 c6 93 42 3e 2d 5a a3 3e dc a9 8f 3e 91 03 e7 3e
       0.19001684 0.31904736 0.2805928 0.45119908
0000e0 4d 61 d8 3e e5 31 5b 3e d4 da 34 3e 5b fc 2f 3e
       0.42261735 0.21405752 0.17661601 0.1718611
0000f0 3a 18 d8 3e 45 e4 46 3e 5c 9e 96 3e b1 7d ca 3e
       0.42205983 0.19423015 0.29417694 0.3954902
