lstm_ckpts/lstm-epoch=01-train_loss=1.28.ckpt (torch, 336478 bytes, 33 tensors)

embedding.weight f4 [20, 128]
00000000: bbbb a53f 038f 0ac0 b24d 28bc 98d1 67be
00000010: c835 bc3f b3e8 9fbe 200d 493f 5128 a03d
00000020: 8a21 5e3f d837 c9bf 277e debd db7b e8bf
00000030: cd1d e8bf 4610 13c0 d230 e6be efb0 673f
00000040: 618f 2ebf de3f 263e fd06 acbf 4474 e8be
00000050: 9fe9 bf3d 3ddb 1740 d07f 24be 061c 293f
00000060: 893b 263e 6889 bb3f 21d1 d0be 7ec3 aabe
00000070: c1b8 8cbf 1f3e 2c3f 4b4e 4e3f 480d 27bd
00000080: b3e5 453f debd d1bf f546 a0bd 35de 61be
00000090: 6778 74bd edde 1a40 530c 863f 664a ee3f
000000a0: c8bd 533f ba7f 833f cfa9 80be d892 0bbf
000000b0: 1cdb 2f3f 5e6b 933f 4f93 febe e18d ec3e
000000c0: bdf4 823f 6177 30bf 7fdd 0f3f 65b0 d7bf
000000d0: 3472 8e3f 3464 bbbe 1bb1 ca3f b2c9 b7bf
000000e0: 78f0 d83e 74d2 d1be 4545 793e 4f29 b1bf
000000f0: ac9e ddbe a07e 28bf a5b7 8e3e cd38 e73e
00000100: 8924 00c0 5dc5 4f3f 5905 ab3d 6d4e 87bf
00000110: 7ce4 4340 f9c8 c1be 15a7 f13f d273 82bf
00000120: d22a 52bf f5a4 11be a9f4 6dbf 26b8 e8bf
00000130: ee65 613f 1d07 90bf 669c 13c0 404c fb3e
00000140: 218d afbf 5565 edbf b132 573f 8e7d acbd
00000150: 56cb 013f 53ba 88bc d081 2840 0e7f 86bf
00000160: 57c3 8d3f 727b 9bbd 57d6 403f 9ebd 9dbf
00000170: ed0e a0be c6ca 64bf df6a a1bf b9d9 553f
00000180: af92 d63f ca87 cd3f a47e 9ebf ab88 37be
00000190: 8532 18bf 5351 15c0 7db8 52bf c220 bbbf
000001a0: 4746 c1bf 574e 36c0 7e9e d63f 88ab 2bc0
000001b0: 36ab 24bf 5f37 a53d d16f aa3f 70e1 fd3e
000001c0: cd80 9b3f f9b8 e9be d180 fe3c cba6 5cbe
000001d0: 1be2 f8bf 3e2e 41bf a882 adbc 30c5 3c3f
000001e0: 2719 acbf fa49 0940 59ca 4d3f 57dd 7c3f
000001f0: b7e2 2dbf 3077 d1bf fedb af3f 2c41 b9be
00000200: fe2e ed3f 6d56 2040 8056 f1bf 37b1 333f
00000210: dc84 9abd fd75 84bf 9a6d 6cbe a53c 41bf
00000220: ac78 0abf 2e3b 8bbb b6c6 77bf 837b 42be
00000230: e082 f1be 30fb 8cbf 34f7 8c3f 2ceb 7d3f
00000240: 3118 523f 7942 8c3f 6602 d5bf 2797 943f
00000250: 3b0a cc3f 3534 a6bf 2141 073f 1af4 ea3e
00000260: 1609 bd3e b192 b53f a002 823f 4af1 f9bf
00000270: 2cef 87be e356 1e40 2c7e 0abf 5f17 ddbf
00000280: 9f5b 853f 350c 7cbf 4697 bd3f d7f3 ed3e
00000290: ec61 cebf 3f98 bfbf 2628 a13f 139b b43f
000002a0: 36f8 1f3f 753f 38be 1050 853e 22db c1be
000002b0: 4062 64bf 512c 4cbf bab6 273e 1fb0 aa3e
000002c0: 4c92 a83f b0ed 4c3f 9907 1c3f 1f6b 2040
000002d0: 601a e83f 65e4 b2bf e35a 363f 4b13 9abd
000002e0: d60e 783e a497 abbf f603 143f d3ec f7bb
000002f0: 28f5 e03e afa4 90be 8603 21bf 74ed 1cbf
00000300: a680 d63e 3c96 8ebd d68d 57be 5e71 8c3d
00000310: 1430 7dbe ebc4 d9be 4440 8a3f 2da3 9e3d
00000320: a5c1 933e 637f 83bf 3da1 0340 12a8 a63e
00000330: 8dbd e43d d3db 85be 95f9 b93e 8df3 25c0
00000340: cac7 7dbe 7acb 143f 1c2a c7bf dcc6 ed3f
00000350: 62f4 0abe 52be d1be da5f 6f3e 245a 3f3f
00000360: 03fb 57be 3e4d 4f3f 2857 a8bf b840 d3bf
00000370: 5ae2 093f c672 603f 0a6c f1bf 7366 87bf
00000380: cf80 4b3f a8e0 383f f274 993f f02e 263f
00000390: 2384 833f 2ab3 493e 90e1 803f 879f babe
000003a0: d1bc 0cc0 d209 17bf 0f97 1a3f fd07 1740
000003b0: d5bd f93e 2c71 c5be d28e a6bf 1361 cfbe
000003c0: 0bae 03c0 9bd0 773e 3fea 47bf 74f9 0ebf
000003d0: f802 0ebe 1707 9b3d 6403 2c3e f4a5 c6be
000003e0: 498a 1f3f 0b3b 663f 3dc4 80bf 7bcf 703f
000003f0: 7c8b 2ec0 51c0 173f 0a27 d83c d79e 51bf
1.2947916 -2.1649787 -0.01027243 -0.22638547 1.4703913 -0.31232223 0.7853565 0.0782019
0.86769927 -1.5720167 -0.108639054 -1.8162798 -1.8134094 -2.2978683 -0.44959122 0.90504354
-0.6818753 0.16235301 -1.3439633 -0.45401204 0.093707316 2.3727562 -0.16064382 0.66058385
0.16233648 1.4651308 -0.40784553 -0.33352274 -1.0993882 0.6728229 0.80588216 -0.04078415
0.7730362 -1.6386068 -0.07826034 -0.22057422 -0.059685137 2.4198563 1.0472511 1.8616455
0.8271146 1.0273354 -0.25129554 -0.5452094 0.6869371 1.1517141 -0.49721763 0.46201995
1.0230938 -0.6893216 0.5619735 -1.6850706 1.1128602 -0.36599886 1.5835298 -1.4358428
0.42370963 -0.40980875 0.2434283 -1.3840731 -0.4328512 -0.65818214 0.27874485 0.45160523
-2.00223 0.8116053 0.08350629 -1.0570809 3.0608206 -0.37848642 1.8879114 -1.0191596
-0.8209659 -0.14223082 -0.92951447 -1.8181198 0.8804616 -1.1252171 -2.3064208 0.49081612
-1.3714944 -1.8546549 0.84061724 -0.08422385 0.5070089 -0.016690409 2.6329231 -1.0507524
1.1075238 -0.07591905 0.75327057 -1.2323492 -0.31261387 -0.8937191 -1.261074 0.83535343
1.6763514 1.6057065 -1.2382398 -0.17923228 -0.59452087 -2.3330886 -0.82312757 -1.4619372
-1.5099572 -2.8485315 1.6767118 -2.6823444 -0.6432375 0.08067202 1.3315374 0.49586058
1.2148682 -0.45648935 0.031067284 -0.21548001 -1.9444002 -0.75461185 -0.021180466 0.73738384
-1.3445176 2.1451402 0.80386883 0.9877524 -0.67924064 -1.6364498 1.3739011 -0.36182535
1.8529966 2.505275 -1.8854523 0.70192283 -0.07544872 -1.0348507 -0.23088685 -0.7548316
-0.5409038 -0.004248998 -0.96787584 -0.18992428 -0.47170162 -1.1014156 1.101294 0.9918697
0.82068163 1.0957786 -1.6641357 1.1608628 1.5940622 -1.2984682 0.52833754 0.4588936
0.36920995 1.4185392 1.0157051 -1.952676 -0.2654966 2.4740531 -0.54098773 -1.7272757
1.0418586 -0.98456126 1.481179 0.46475098 -1.6123633 -1.4968337 1.2590377 1.4109825
0.62488115 -0.17992957 0.26037645 -0.37862498 -0.8921242 -0.7975512 0.16378298 0.33337495
1.3169646 0.8005018 0.60949093 2.5065382 1.8133049 -1.397595 0.7123243 -0.07523211
0.2422441 -1.3405652 0.57818544 -0.0075660734 0.4393704 -0.28250644 -0.62896 -0.61299825
0.41895026 -0.06962249 -0.210502 0.068575606 -0.24725372 -0.4253305 1.0800862 0.07745967
0.28858677 -1.027325 2.0567162 0.32550102 0.111689664 -0.26144275 0.36323228 -2.5929902
-0.24783245 0.5812298 -1.5559726 1.8576312 -0.13569787 -0.40965515 0.23376408 0.7474692
-0.21091847 0.8097724 -1.3151598 -1.6504126 0.5386101 0.8767513 -1.8861096 -1.057814
0.7949342 0.722178 1.1988814 0.6491537 1.02747 0.19697252 1.0068836 -0.36449835
-2.1990244 -0.5899936 0.6038675 2.3598626 0.48777643 -0.38562906 -1.3012335 -0.4050375
-2.0574977 0.2420067 -0.78091806 -0.55849385 -0.1386832 0.07569712 0.16798168 -0.38798487
0.6232038 0.8993384 -1.0059887 0.9406659 -2.7272635 0.59277827 0.026385803 -0.81882995

encoder_lstm.weight_ih_l0 f4 [128, 128]
00000000: a7fb e23d fe75 e1bd 8d9f 8d3d 2761 12be
00000010: 494b 603e 3e0d edbd 3ed0 7dbb f7f5 c2bc
00000020: 48ce 823c 0617 033e 1507 aabd be3a 2fbc
00000030: b7f5 76be 5bd0 4ebd 2144 8fbd ef65 303e
00000040: ff1b c03d 2def 8d3a 917f 2dbd dcc2 b03c
00000050: bbb2 0dbc 3ce8 0dba 71c4 903d d2ad 09be
00000060: bf2b 073e 6fe7 b33d 2d7e 2d3e 7571 2abe
00000070: 9612 ca3d 96ee bebc eae1 2cbe 945c 3d3e
00000080: e226 283e 6fbf c0bd 64cf f73d 5cee cfba
00000090: 49f1 7eba 4647 583d 0788 6f3b 28b6 8cbb
000000a0: 3ee6 76bd b268 a8bc 57d2 7dbc 3eba a6be
000000b0: 856b 31be 8113 d8bb 0fc0 b7bc c8de 2a3d
000000c0: 5298 bcbd dc50 203e bbd9 683e 5a7a 8ebd
000000d0: 0408 02be 5ec3 8fbc 230e 043e 089d 25be
000000e0: fae3 2e3e 571d af3d 6c6b da3b 009d 0abd
000000f0: 81e7 063e dc28 363e 3d7e cb3d 85fd 5ebe
00000100: 7e14 f6bd 7a23 60bd 8fdf 13be c328 fa3d
00000110: 6a81 28bd 746f 0abc 6a46 b3bc 2dab 953d
00000120: 63e9 8f3d 7cbe 40bc 4129 77be b283 0b3e
00000130: ace1 003e 2719 103e 686e 35bc e6a5 173d
00000140: f1fb 6a3c 5d19 f13d fc0a 85bd a170 c4bc
00000150: a210 233c 663f aa3d 674c d63d a187 b0bd
00000160: e584 43be 57c1 81bd 2ef3 2dbe 90f9 a3bc
00000170: 4f5b a6bd a11f ba3b e2d5 2e3d 8ad4 09be
00000180: 578b 6dbd a3f9 15bd 2295 afbe 05ab e73d
00000190: 72d0 8bbd 77d6 07be 8081 233e c758 3cbe
000001a0: 8b67 39be fdbc b8bd 42e1 c7bd 6f17 6a3d
000001b0: 3eca a9bd 1a25 9ebd fe83 e3bc 4d3c f3bc
000001c0: e19d 85bd 6ef7 643d 3cfd 32bc edd0 90bb
000001d0: 72e3 fdbb 570f be3d ae64 0cbe b3ca 9dbd
000001e0: 3dd2 bc3c a6e8 333e 2ef1 2d3e 21ac 44bd
000001f0: 0233 a4bd cdb0 cd3d 95d1 8ebd 021f c2bd
00000200: 7690 e03d 8ed6 f0bc fd8f babd a80f 723d
00000210: eb32 09be 14a2 36bd 0fa7 5c3e 0cee 7abd
00000220: 29af 98bd 40b0 5bbe 8329 e9bd d744 bcbc
00000230: d365 23bd 6078 60be 203d c1bd 0133 093e
00000240: 616a 04bc ab6d 963d 613d b43d 6780 d23d
00000250: 86e3 443e 0208 e13d c40b 07be 9402 453e
00000260: 3c00 373b be8d 263c 9775 e3bd 40aa 2cbe
00000270: 9547 29be e562 aa3d 4298 5d3e acb9 6c3e
00000280: 27b5 e23d 61ff e0bd 0217 3cbe 651e 6b3e
00000290: cb32 0c3b 2db7 b03c 58a0 283e 8efc 90bd
000002a0: ac2c d8bd cff9 b6bd 85a2 33be 7285 073e
000002b0: 2445 8dbd 11aa 27bb c903 e23d 1dd4 8abd
000002c0: 68d4 09be 8621 dcbd 14c7 623d e35c 543d
000002d0: b740 bf3d c8e9 b1bd 2d66 143e afc9 f2bd
000002e0: d779 39bd 1be8 26be 54c6 343e ca8f ca3d
000002f0: d581 733d 4601 13be 02e2 c73d 8305 be3d
00000300: f4bf efbd 8c93 573d 4252 653d 1a3c e2bd
00000310: 2a26 f9bd 21ec 22be 71f1 f23d 735b ee3d
00000320: 83b6 a63d e4a2 c4bc c40c 9d3c 04c4 fc3d
00000330: e4f1 a0bd e34a 033e e759 34be eee0 b4bd
00000340: a74e 12be 2da1 91be 213b 3abe ac1a f33d
00000350: b712 5fbd 5846 853d 3147 163e bf68 993c
00000360: 41a2 1e3e 6cc2 f13d d88a c0bd 2652 5a3c
00000370: 4702 2e3e d4ac 3ebe e1d2 313d 307a 08be
00000380: 8eb3 fabc dd76 cfba 63ab 283e 33d1 243e
00000390: 60e7 03be 2c32 303d 70f3 8dba 4741 a1bd
000003a0: 61f8 cebd 23b9 aa3d 1e4a f1bd 40c7 06bd
000003b0: 3819 293d c177 103e 6b96 ac3d 4ecc 353e
000003c0: dd66 d7bd c96c 7dbd fe1b 2b3e 8a49 d3bd
000003d0: 61bf 163d d662 793c 1748 62bd 5542 453e
000003e0: 9c5a 26be 7dd9 3a3c 420d 2cbd 8b20 663d
000003f0: 32ce c13d 799f c53d fed5 863e 3b5f 3f3e
0.11083155 -0.11008833 0.069151975 -0.14294873 0.21903719 -0.11574791 -0.0038728858 -0.023798926
0.015967503 0.12801751 -0.08302132 -0.010695158 -0.2411717 -0.050491672 -0.069954164 0.17226385
0.0938034 0.0010828726 -0.042357985 0.021577291 -0.00864857 -0.0005413329 0.07068718 -0.13445213
0.13200282 0.08784377 0.16942663 -0.16644843 0.09866826 -0.023307126 -0.16883054 0.18492347
0.16421083 -0.09411513 0.121001035 -0.0015863883 -0.00097252853 0.052802347 0.0036549584 -0.0042941757
-0.06027817 -0.020557735 -0.015492043 -0.32563967 -0.17326172 -0.006594122 -0.022430448 0.041716367
-0.0920874 0.15655845 0.22739308 -0.069569305 -0.1269837 -0.017549213 0.12896018 -0.16173184
0.17079154 0.08550518 0.0066656377 -0.033841133 0.13174249 0.17789024 0.099361874 -0.21776398
-0.12015627 -0.054721333 -0.1444075 0.12214806 -0.041139044 -0.008449424 -0.021884162 0.0730804
0.07026937 -0.011764165 -0.24136831 0.13624457 0.12586087 0.14072095 -0.011073686 0.037023447
0.014342294 0.11772416 -0.06496236 -0.023979487 0.009952696 0.083128735 0.10463791 -0.08619619
-0.19093664 -0.06335705 -0.16987297 -0.020016462 -0.081228845 0.00568004 0.042684443 -0.13459983
-0.057994213 -0.036615025 -0.34293467 0.11311916 -0.06826867 -0.13265406 0.15967369 -0.18393241
-0.18105905 -0.09020422 -0.097597614 0.057151254 -0.08290528 -0.0772192 -0.0277729 -0.02969184
-0.06524254 0.05590003 -0.010924634 -0.004419437 -0.007748061 0.092802696 -0.13710281 -0.077046774
0.023049468 0.17569217 0.16986534 -0.048015717 -0.080175415 0.10043488 -0.06973568 -0.094785705
0.10965054 -0.029399183 -0.09109495 0.059096962 -0.1339833 -0.044588163 0.21548103 -0.061262175
-0.07455284 -0.21453953 -0.11384871 -0.022982044 -0.03989203 -0.2192092 -0.09435487 0.13398363
-0.008082003 0.07345136 0.088007696 0.10278397 0.19227418 0.109878555 -0.13188082 0.19239265
0.0027923724 0.01016563 -0.11106413 -0.1686182 -0.16531213 0.08319644 0.21640113 0.23117703
0.11069708 -0.1098621 -0.18368152 0.22960813 0.002139258 0.02157172 0.16467416 -0.07079421
-0.105553955 -0.08934366 -0.17542465 0.13234499 -0.06897953 -0.0025583545 0.11035878 -0.06778739
-0.13459933 -0.107485816 0.055365637 0.051846396 0.09338515 -0.08687168 0.14492102 -0.11854874
-0.04528221 -0.16299479 0.17653781 0.09890707 0.05944999 -0.14355955 0.097599044 0.09278395
-0.11706534 0.052630946 0.05598665 -0.1104662 -0.12165482 -0.15910389 0.118624575 0.11638536
0.0814028 -0.024003454 0.019171126 0.123420745 -0.07858637 0.12821536 -0.1761242 -0.088319644
-0.14287816 -0.2844328 -0.18186618 0.11870322 -0.054461207 0.06507558 0.14675595 0.018726705
0.15491582 0.11804661 -0.09401482 0.01332525 0.16993056 -0.18620616 0.043414 -0.13327861
-0.030603196 -0.0015828271 0.16471629 0.16095428 -0.12881231 0.043016598 -0.0010829996 -0.07873779
-0.10105968 0.08336093 -0.11781715 -0.032904863 0.041283816 0.14108182 0.084271275 0.17753717
-0.105176665 -0.061871324 0.16709897 -0.10316761 0.036803607 0.015221318 -0.05524453 0.19263585
-0.16245502 0.011404392 -0.04200483 0.05618338 0.09463157 0.096495576 0.26335138 0.18688671

encoder_lstm.weight_hh_l0 f4 [128, 32]
00000000: e986 7bbb d767 8b3e 2bcb 80be 9fb9 cbbd
00000010: 1fe9 3fbe 44c5 383e e764 243c b4cb 153e
00000020: a7d8 8fbe e3cd 853d 681b 5f3e 5b0b c4be
00000030: bc65 573d b62c 5dbb e89d 133e 32ec 7e3d
00000040: bcc7 b73c cf10 053e bedd 543e ceee cfbc
00000050: 896d c93d 3a3b 24be 81d9 d3be 5193 f63d
00000060: 8117 35be 5e3d b6be 83f3 3a3e e0dc 643d
00000070: c189 633e 6300 613e c8cb 133d 8202 2abc
00000080: 9837 54bd 89ea 68be 33a6 61be 2118 cb3d
00000090: 8fb0 3b3c 8f77 323e 9c1c 42bb 4e42 6a3e
000000a0: 0d20 9a3b 7eab 413e 7e3b 8a3b cf4b 74be
000000b0: 5bf7 43bd ea84 bf3d b0c1 b9bd 1a0b 33bd
000000c0: 0465 7f3e 0c1c d13d 2843 7b3e 9e7b 0ebd
000000d0: f884 203e 11d0 c5bd 05c3 15be dbdc e73d
000000e0: 31ec 903d 6378 57be 195c 15be 29e6 573e
000000f0: 5a39 dabd 014b a13e 2385 36bd 605f be3c
00000100: 242a 25be 39e2 f2bd 2d30 dabb c458 cf3d
00000110: fd9a 2a3e 2f5a f8bd 309b e0bd a744 36bd
00000120: 7de9 f5bd aaeb a13d 2a2a 00be 8cd0 313d
00000130: 9e37 983d 92ae ce3d 2073 7bbd b569 013c
00000140: d11e eb3c 2a2e 7e3c 4006 d3bd 107b eb3d
00000150: 0ffc 34bd 06a6 5a3e 94fd 67bd dc12 033e
00000160: a7af c8bd 3b06 3ebe 52f9 e33d e4a9 483e
00000170: 3f3f 35bd 79b8 6ebd 3acb 4e3e b40a 1a3d
00000180: 3f0e d5bd 4844 1ebe db01 7b3b 404d 8abd
00000190: f66c b03d bd73 42be 41d1 a6bc e775 b53e
000001a0: 9a02 283d cea4 613d 8c67 ab3e 0add 8bbd
000001b0: 0a4d d3bd 8d1a aebd eaec 38bc 273c 7b3e
000001c0: 073b c43e 0935 99bc fd5f a93e d2e0 a3bd
000001d0: a33e 69be 9bf1 fc3d 16e2 e93d 5060 56be
000001e0: 8c64 4e3c 06c5 9dbe 827b d7bd 94c5 893e
000001f0: b339 d63d e12e 7a3d d271 7d3e 6137 103d
00000200: 52e5 52be 7070 59bd fa7b 253a 6bd1 103e
00000210: 64a6 39be ae62 a73d 41d6 f83d 2302 a63e
00000220: dd9b 663c e4f3 f43d 7f54 743e 7a53 d8bd
00000230: 09c2 4dbe dc0b 7f3d ba89 afbc 60f4 043e
00000240: 8e81 a33d 8c29 f1bd a453 03bd 4b3f f63d
00000250: 6849 aebd 33bd 5b3d 0940 6ebe 6610 013e
00000260: c419 6abe 0b40 1c3c 1ca2 ec3d 79b0 56bc
00000270: 3bf1 4c3e f099 c83d 8327 603e 1511 b83c
00000280: dbca 36be 05cb aa3d 91ae 513d a55d 453e
00000290: b19e f8bb 38bb 8a3e 9419 d6bc 4643 b83d
000002a0: fd92 6cbd e22e 573e f29a 833d 2fff e4bd
000002b0: 47c7 55be c20b d7bd a342 40bd d8c4 f0bd
000002c0: 58ec 513d 44c6 1dbd 26f8 373d 8aba dabd
000002d0: 5ff5 8dbc fac6 753d 7aab 5f3d 26ac 963d
000002e0: 8728 493d 51dc a8bd cb61 07bd efc2 883d
000002f0: 86ab 243e 9867 183e 96b6 d43d 7f63 fc3c
00000300: d6ec 76bd c7af 3fbe 9985 c0bd 63c4 3f3d
00000310: a87d 2e3e e37d 313e d443 47be 2057 df3c
00000320: ffd0 aebd e0fa ee3b 572c 193e d58c 133d
00000330: 582d 21bc 65dd 343e a451 273e 6cd0 823d
00000340: 9d0d aa3b ab66 e73d d0f3 353e f512 cbbd
00000350: 6c0a 15be 87c5 253e 86e8 53be 57f4 c93d
00000360: 41f2 69bd e09f 9bbc 6231 96be b362 a13d
00000370: cb63 4e3e d67a d03d ff7f 863e 7ffe 47be
00000380: 63f2 fbbd e124 abbe 1946 7d3c 655b d7bd
00000390: 64b9 52be 0c43 1bbc 399f 993d 26fb 4d3e
000003a0: fcaa a03d f47c e2bd bef1 f63d 2164 153e
000003b0: 9330 4ebe faaa 483d 10a4 093d cdc2 183d
000003c0: 9966 53bc 4d15 0dbe 1faf 95bd 4684 61be
000003d0: d4a6 233d b856 0d3c 35c3 303c 8f52 193d
000003e0: 4a78 733d 6b54 aa3d 58fa 083d fb53 b93c
000003f0: b618 453e bdca 503d 89f7 413e 2a31 08bd
-0.0038379973 0.2722766 -0.25155005 -0.09947514 -0.18741272 0.18044001 0.010033823 0.14628488
-0.2809498 0.065334104 0.21787798 -0.38289914 0.052587256 -0.0033748574 0.14415705 0.062236972
0.022434108 0.12994693 0.20787713 -0.025382426 0.09835345 -0.16038218 -0.4137688 0.12039817
-0.17684747 -0.35593694 0.18256955 0.055874705 0.22220518 0.21972804 0.036083013 -0.0103765745
-0.05181083 -0.22745718 -0.22036056 0.099167116 0.011455669 0.1742842 -0.0029619103 0.22876856
0.004703528 0.18913075 0.004218518 -0.23857044 -0.04784332 0.09351523 -0.09070146 -0.04371176
0.24940878 0.10210428 0.24537337 -0.03478586 0.15675724 -0.09658826 -0.14625175 0.11321422
0.070763 -0.21042018 -0.14585914 0.21083893 -0.1065547 0.31502536 -0.044560563 0.023238838
-0.16129357 -0.11859555 -0.006658575 0.101243526 0.16660686 -0.12126576 -0.109671 -0.044499066
-0.12007425 0.079062775 -0.12516084 0.043411776 0.07432483 0.100918904 -0.06138909 0.007898738
0.028701218 0.015513936 -0.103039265 0.11498082 -0.044185694 0.21352395 -0.056638315 0.12800163
-0.09799128 -0.18557064 0.111315385 0.19596058 -0.04424977 -0.058281396 0.20194712 0.037607864
-0.10403108 -0.15455735 0.0038300666 -0.067530155 0.08614533 -0.18989463 -0.020363452 0.35441515
0.041018106 0.05508881 0.33477437 -0.06829269 -0.103174284 -0.08501158 -0.011286953 0.24534665
0.38326284 -0.018702047 0.33081046 -0.080018654 -0.227778 0.1235077 0.114200756 -0.20935178
0.012597214 -0.3081438 -0.10521604 0.26908553 0.10460224 0.061079863 0.2475045 0.035209063
-0.20595291 -0.053085744 0.00063127244 0.14142387 -0.18129879 0.081731185 0.12150241 0.32423505
0.014075247 0.11960581 0.23860358 -0.10562797 -0.2009355 0.06226717 -0.021427978 0.12983847
0.07983695 -0.117755026 -0.032062188 0.12023791 -0.08510095 0.05364723 -0.23266615 0.12603912
-0.22861391 0.009536753 0.115543574 -0.013103598 0.20013897 0.09794986 0.21890073 0.022469083
-0.1785082 0.08339504 0.05119187 0.19274004 -0.007587277 0.27095962 -0.026135243 0.089972064
-0.057757366 0.21013978 0.06426038 -0.11181485 -0.208768 -0.105002895 -0.04693855 -0.11756295
0.051250786 -0.03851916 0.044914387 -0.10680111 -0.017328916 0.060004212 0.054606892 0.073570535
0.049110916 -0.08245147 -0.033052247 0.06677806 0.16081056 0.14883268 0.10386388 0.030809162
-0.060284458 -0.18719397 -0.09400482 0.04681815 0.17040122 0.17333178 -0.19459468 0.027263224
-0.085359566 0.00729309 0.1495832 0.03602298 -0.009837471 0.1766258 0.16339737 0.063874096
0.005189611 0.11298879 0.17768788 -0.09915725 -0.14554757 0.16188632 -0.2069417 0.09861057
-0.057115797 -0.018997133 -0.2933455 0.078801535 0.20155255 0.10179679 0.26269528 -0.19530676
-0.12302091 -0.33426574 0.015458607 -0.10515479 -0.20578533 -0.009476434 0.075010724 0.20115337
0.07845113 -0.11058989 0.120578274 0.14588977 -0.20135717 0.04899118 0.033603728 0.03729515
-0.012902879 -0.13777657 -0.07308792 -0.22023115 0.03995402 0.008626632 0.0107887285 0.03743225
0.05944089 0.08316883 0.03344187 0.022623053 0.19247708 0.050974596 0.18942083 -0.03325001

encoder_lstm.bias_ih_l0 f4 [128]
00000000: fec7 703e 4d10 5d3e f45a 863d 452d ca3d
00000010: e669 03bd d95f 103e ece9 613e 1bc5 e1bc
00000020: 1bc6 a03e 3890 8b3e 7f15 293e 76ad 153e
00000030: 6ddb ad3c d7e1 513e 40fd 683e ebd3 2f3e
00000040: 4007 2b3d bcae 883e 4154 093c 1e31 b93d
00000050: 0ec5 ff3d bc94 ad3d 7249 aa3c 98ca eb3d
00000060: 32b5 2ebd 7d03 2dbc 44c8 da3d 174c 4a3e
00000070: e20e 663d 87bd 213d 7978 6d3d ce12 a33c
00000080: 2501 f7bd 6efb 85bc 0910 813e 74ff 283e
00000090: 5eb5 8e3c 4cef 6c3d fef6 dabc 821b 303e
000000a0: d754 e93d c7b1 093e 26ed 6b3e b37e 253e
000000b0: 4dd0 dd3d 5cf6 3bbc ab7e 313e 6e89 93bd
000000c0: 631a 113e 918f ff3c 276e 403d f55b 493e
000000d0: 11d8 b9bd 206d 1c3e 4004 823e 56f9 893d
000000e0: 48c2 82bd a4f2 fabc 652d ebbd ad7a 2a3e
000000f0: d625 82bc e4bc 033e 7f01 c63d 3c7d 7a3c
00000100: 731f 033e 44ff 913c 48ae bbbd 0f29 a5bb
00000110: ced6 d439 5f29 a4bd fd98 013d 6f8b 473e
00000120: b45c 2abe a70c 453e fcfc 4e3e abec 45be
00000130: 12d9 023e e89b 113e 95a6 0fbd f5e5 c5bc
00000140: 1307 173e 0420 8d3c fef0 06bd 651d 2abe
00000150: b91b bd3d 238c 4abd cdd2 ed3d 66c3 c6bd
00000160: f42e 033e 140f 19be 035a 893b 05d4 bdbd
00000170: 39b3 ec3d d5f2 3a3e 35b5 cf3b 9e29 20bd
00000180: 6a88 503e 0812 b1bc e131 63bd 57fa 963d
00000190: 77aa f83c 0143 863e 6d3e 763e e010 453e
000001a0: f845 57bd 89f3 893d 75c5 283e 49e0 cf3d
000001b0: b6b2 993d fa57 ee3d 78c3 c43d 3485 df3d
000001c0: 254a 6f3c f9f7 8a3e d401 323e 6b46 793e
000001d0: ca28 293e 804a a63e a189 033e 2aca 283e
000001e0: 15e3 ae3d 554c 0d3e 924b d43d f4e3 063e
000001f0: cf75 ba3d edf5 b73c a05c 233c ba43 b23d
0.23513791 0.2158825 0.06560317 0.09871916 -0.032083414 0.14099063 0.2206189 -0.027559808
0.31401142 0.27258468 0.16512106 0.14616951 0.021222794 0.20496307 0.22752857 0.17170684
0.04175496 0.26695812 0.008381904 0.090425715 0.12488757 0.084756345 0.020786975 0.11513251
-0.04265327 -0.010559914 0.10682729 0.19755588 0.056166537 0.039487388 0.05797622 0.019906428
-0.12060765 -0.016355243 0.25207546 0.16503698 0.017420467 0.0578454 -0.026729103 0.17197993
0.11393135 0.13446723 0.23039684 0.16161613 0.10830746 -0.011472311 0.17333476 -0.07203947
0.14170222 0.031196387 0.04698005 0.19663985 -0.090744145 0.15276003 0.25393867 0.0673701
-0.063847125 -0.030633278 -0.11483268 0.1664836 -0.015887182 0.12865025 0.09668254 0.015288647
0.12804966 0.017821915 -0.09164101 -0.005040295 0.00040595833 -0.080157034 0.03164004 0.19486783
-0.16636926 0.19243108 0.20213693 -0.19328563 0.12778118 0.1421963 -0.035070974 -0.024157504
0.14748792 0.01722718 -0.03294467 -0.16612776 0.09233803 -0.04945005 0.11612473 -0.09705238
0.1281088 -0.14947158 0.0041916384 -0.09268955 0.115576215 0.18256696 0.0063387402 -0.03910219
0.20364538 -0.021615043 -0.05546749 0.07371967 0.030354721 0.26222995 0.24047251 0.19244719
-0.05255696 0.06735904 0.16481574 0.10150201 0.075047895 0.11637874 0.09607595 0.10914078
0.01460508 0.27142313 0.1738351 0.24343269 0.16519466 0.32478714 0.1284547 0.1648337
0.08539406 0.1379865 0.103659764 0.13172895 0.091045015 0.022456134 0.009970814 0.08704324

encoder_lstm.bias_hh_l0 f4 [128]
00000000: e631 fc3d 4769 1c3e 9537 62bd 0fc5 863e
00000010: e23d 193d 8d57 ce3d d602 05bc a1a8 403e
00000020: 53f3 013d 0930 863e 65bd 88bc 5711 d63d
00000030: 7254 d23d b676 8d3e c34e af3d a41b 6dbd
00000040: d754 2f3e aa17 903e bf27 023d d7d8 913d
00000050: e570 113e 52d1 123d aaaa eabb 1409 1f3e
00000060: 035f 703e 19b5 673d 1c49 0aba 134c 2ebd
00000070: 4aef 143e 0d78 a33d 337f 5d3e b4de 443e
00000080: f716 c63d 38f9 533e 86bd 58bd 6acc ae3d
00000090: 6b06 e8bc f7a4 373e 8ed3 d13d 67a3 5d3d
000000a0: e4fb 65bc 3f84 cfbc ff6f 843d 849a edbd
000000b0: 8791 9ebd d1da 133e c036 093e 9585 9b3d
000000c0: 16fc 70bc 3d93 a73d ade6 17bd 2936 cfb9
000000d0: 9ccc 023e 0f20 a9bc 2ac1 283e ab63 093e
000000e0: b395 6b3d 3a75 b93c 579d 153e 3bd0 853d
000000f0: b87b f03d 7ffd 1d3e c0f0 0a3e bc5d b83d
00000100: e237 083e bdd0 903d 57c1 ffbc 3b09 173e
00000110: 183c 613d 97f0 bd3d 1ff4 c13d 9bf0 9abd
00000120: 9a2b 3a3c 41a5 cc3d b9ad aa3b ec69 01bd
00000130: 4ec3 06be 4454 0bbe ea00 78bc 90ec 133e
00000140: 15dd 4e3e c677 0c3d e8d8 c43d af20 dabc
00000150: 049e 2bbe 5806 1fbc 86d1 a3bc fd7f 863d
00000160: e91e e73d 7eb0 923d 9821 afbd 2bc5 8c3d
00000170: 1ed5 c13d 83b3 653e c7b6 36bc 7706 30be
00000180: 5a58 723e 4f35 283e 04af 97ba a1b4 17bd
00000190: 61f3 343d 1027 90bc 4ee7 cb3d 8735 9fbd
000001a0: 1284 1fbc ba5f d33d a65d 7dbd 75b6 2f3d
000001b0: cf1e 413d 8136 493e 1231 80bd 80d9 e33d
000001c0: f38d 8ebd dfed 063e 4191 1ebd 1a39 5b3e
000001d0: 1c8e c23c cf69 0a3e 97d4 243e f5d2 453e
000001e0: b92b b63e 0ed8 7d3d 3c19 643a 5d60 4cbd
000001f0: c1bd ddbd 41a4 403e 36e7 36bd 06c2 953a
0.12314205 0.15274535 -0.05522879 0.2632222 0.03741253 0.10075293 -0.008118352 0.18814327
0.031726193 0.26208523 -0.016691873 0.10452526 0.10270013 0.27629632 0.085599445 -0.05788769
0.17122208 0.28143054 0.031776186 0.07121437 0.14203222 0.035844155 -0.007161458 0.15530807
0.23473744 0.056569193 -0.00052751764 -0.04255302 0.14544407 0.07981882 0.21630554 0.1922558
0.09672349 0.20700538 -0.05291512 0.08535083 -0.028323373 0.17934023 0.10245429 0.05411091
-0.014037106 -0.025331615 0.06466674 -0.11601737 -0.07742601 0.1443894 0.13399792 0.07593838
-0.0147085395 0.0818238 -0.037085224 -0.0003952247 0.12773365 -0.02064517 0.16479936 0.13416927
0.05751581 0.022638906 0.14610802 0.065338574 0.117423475 0.15428732 0.13568401 0.090022534
0.13302568 0.07071064 -0.031220121 0.14749615 0.05498895 0.092744045 0.094703905 -0.07565423
0.0113629345 0.09992457 0.0052086976 -0.031595156 -0.1316044 -0.13606364 -0.015136937 0.1444571
0.20201524 0.034293912 0.09611684 -0.026626913 -0.16759497 -0.009706102 -0.01999737 0.065673806
0.112851925 0.071625695 -0.085513294 0.06873544 0.09464477 0.2243176 -0.011151976 -0.17189966
0.23666516 0.16426586 -0.0011572544 -0.037037496 0.044177417 -0.017596751 0.09956227 -0.077738814
-0.009736078 0.10320993 -0.06185689 0.042898614 0.047148522 0.19649698 -0.062593594 0.11125469
-0.069606684 0.13176678 -0.038712744 0.21408501 0.023749404 0.13516925 0.16096722 0.19318755
0.35580233 0.061973624 0.000870127 -0.049896587 -0.10827208 0.18812658 -0.044654094 0.0011425621

decoder_lstm.weight_ih_l0 f4 [64, 32]
00000000: bd35 a63d ad22 92be b5fd 73be 0ae7 023e
00000010: 8caf debd 9481 853e ae62 08be 3097 a73d
00000020: bec4 c3bd 3d7a 973c 1b75 413e edec 50be
00000030: 4e92 12be 7048 f43d 645e ef3e 0e62 f83d
00000040: 1cc7 f6bd 83be b9be 0cf9 a63e 8d05 1c3e
00000050: 656f bbbe 7196 283e f7ee a9bc b90a 823e
00000060: f947 03be 59fe 81bd af10 3fbc 6909 913e
00000070: b40d ca3e 03d7 c43d 1f15 a43e c4c1 eabe
00000080: 83fc bb3d 0415 f73d 5292 9fbe 1de6 573c
00000090: 0b42 fe3d 71a7 973e 0d50 dabd 24fe 623e
000000a0: 9a82 29bd b247 963e 80f4 903e 490c 91be
000000b0: dbc0 5ebd 9a6d 233e 0df9 823e 8e64 98bd
000000c0: 251e bbbe 1513 7b3d 36c5 b63e 1106 df3c
000000d0: 71d8 d8be ab5e 423e f5b8 9ebe 5ceb 9d3c
000000e0: c7a0 cdbc 8455 4dbe 32b1 ddbd ec0e 103e
000000f0: b025 f43d fc4a 28be 9e6b 323e 426a 74be
00000100: e544 03be 7aba f6bd 7660 b8bd 9920 903d
00000110: 0625 c93d 5cf0 773e 7073 383e af2c 26be
00000120: fbe9 5abe 0ce2 3e3e bdff 403e 81e8 0ebc
00000130: 7020 0c3e 964f 3b3b a0e2 753e 786d 41bd
00000140: ec05 7e3e 8178 d4bd 41e1 f7bd b981 efbd
00000150: 65fa bc3d 9cd0 453e 1b90 91be 0488 9ebd
00000160: 1c79 543d a450 41be d03e 203d 1bf1 3a3e
00000170: 2394 30be 3ce9 2ebe 5030 283e a3a4 81bd
00000180: 8034 1bbe c8d2 74bd 2f42 cd3d eb53 61bd
00000190: db7a 863e b494 773e d017 1e3e fa91 943e
000001a0: 60f0 28bb cbf2 833e 0ae8 d63d f099 643e
000001b0: 92fe 13be e13d 0ebe 87ff 24be 8e67 1bbe
000001c0: af1c a1bb 3723 89bd d8b6 8bbc 2fcf eb3d
000001d0: 1da8 9c3d 774b bcbd 67ad 813d 0dbb cdbd
000001e0: 5f58 5f3e 26e6 68be 73eb 423d d260 33bc
000001f0: 07a1 69bd 8ded 753e 6c69 883e 3d40 1d3d
00000200: ea03 333e 20c1 3d3e d861 463e 3a7b ca3d
00000210: 34d9 16be 9a86 0cbe 6870 f03e 734a 1c3d
00000220: 75b8 b93e 44f2 8c3e df85 873e f2c1 4a3d
00000230: 7988 a4be 38ae 39be facf 4b3e 6fed 453e
00000240: 24bd e0bd 030d d2be 2f8d 983e bb05 753e
00000250: 3b68 04be 63c5 553e 1e52 82be 179e afbd
00000260: 1efb fd3c 8d42 95bd 4926 25be 90de 183e
00000270: 9232 643e 84ad 76bd 6912 7f3e f5c5 d1be
00000280: c309 333d bd04 12be f306 33be 14f7 e83e
00000290: 8b32 98be 4d33 8b3e 5b73 cd3e d4c7 ec3e
000002a0: 4163 133d f521 3b3e dbe0 b03e 66b9 93be
000002b0: 4ec7 cbbc 16c3 1f3e d6ef 3e3e 757a 3c3e
000002c0: e357 24be 1bea eabe f1e7 283e 1da0 ad3d
000002d0: 8be1 84be 9924 8e3e 0379 f0be cec6 243e
000002e0: acd1 173e 0907 8abe 18a7 8dbe f2d4 163e
000002f0: 4df9 023f 31b7 0c3e 6326 433e b615 c1be
00000300: 54a2 15be dc61 57be c7aa 00be d5d4 cf3d
00000310: 59e1 1e3c 8821 533e 37e4 9b3e bcdd c83e
00000320: 1b31 a0be 4475 6cbd 187c d83e ed5b 89be
00000330: d24e d13b 61dd 0d3e 5be1 ee3e 53cd dd3e
00000340: 0aa1 2ebd 0395 d7bd 04cc 043f 56c0 6d3e
00000350: 0b0a fcbd 4eee 623d 0731 dabe 295a 51ba
00000360: 5f6f e63d 35a4 e2be 5b3a 193e 3323 933e
00000370: cda8 d63e 448a d13e f2c5 003f dec1 81be
00000380: 189a 46be 8706 7bbe 2398 94be 1e93 a23e
00000390: ebdc 2f3e e895 56bd e401 09bd 5536 84bb
000003a0: a52c e23b b45e dc3e 375a 9f3e 5981 c0bd
000003b0: 3c4d aebe 98fc 533d aea6 e03e 22bc d43e
000003c0: d942 f6bc 4ad7 5cbe 9c39 be3e 1cb2 db3d
000003d0: 71d6 20be 61e2 a23e 2939 86be 8fcc 8e3e
000003e0: 5fee b83e 8009 debe d537 77be bfd1 9f3e
000003f0: 974f 673e eaea 873e 80eb cc3e b702 1fbe
0.081157185 -0.2854208 -0.2382725 0.12783447 -0.10873327 0.26075423 -0.13318893 0.081831336
-0.0955901 0.018490905 0.18892328 -0.2040288 -0.14313623 0.11927879 0.46751702 0.121280774
-0.12049696 -0.3627816 0.32611883 0.15236492 -0.36608425 0.16463639 -0.02074383 0.25398806
-0.12820424 -0.06347341 -0.0116616925 0.28327492 0.3946358 0.09611323 0.32047364 -0.45850956
0.09179022 0.12064555 -0.3116632 0.013177422 0.124149404 0.29619935 -0.106598 0.2216726
-0.041384317 0.29351574 0.2831154 -0.28329685 -0.05438314 0.15959778 0.25580636 -0.07441054
-0.36546436 0.061297495 0.35697335 0.027224572 -0.42352632 0.18981425 -0.31000486 0.019277267
-0.025101079 -0.20052153 -0.10824813 0.14068192 0.11921251 -0.16434854 0.17423865 -0.23868659
-0.1281925 -0.12047286 -0.090027735 0.070374675 0.09821515 0.24212784 0.18012786 -0.16227983
-0.21378319 0.18640918 0.18847556 -0.008722425 0.13684249 0.0028581372 0.24012232 -0.04722354
0.24806947 -0.10374547 -0.12103511 -0.116946645 0.092274465 0.1931786 -0.28430256 -0.07740787
0.05187331 -0.18878418 0.039122403 0.18256037 -0.1724401 -0.1708116 0.1642468 -0.0633023
-0.15156746 -0.05977133 0.10022389 -0.05501167 0.26265606 0.2417782 0.15438771 0.2901762
-0.002577804 0.25771174 0.10493477 0.22324347 -0.1445258 -0.13890792 -0.16113101 -0.15176222
-0.0049167494 -0.0669617 -0.01705496 0.115141265 0.076492526 -0.09194081 0.06331902 -0.10045443
0.21811055 -0.22744045 0.047587823 -0.010948377 -0.057038333 0.240164 0.2664293 0.03839134
0.17481962 0.18530703 0.19373262 0.09886785 -0.14731294 -0.13723221 0.4696076 0.038156938
0.36273542 0.27528584 0.26469323 0.049501367 -0.3213537 -0.18132865 0.19903556 0.19328855
-0.10973576 -0.41025552 0.29795215 0.23927967 -0.12930386 0.20876078 -0.25453275 -0.08575075
0.031003531 -0.07288084 -0.16127886 0.14928651 0.22284916 -0.06022407 0.24909367 -0.40971342
0.04371048 -0.1425962 -0.1748312 0.45501006 -0.2972606 0.27187577 0.40127072 0.46246207
0.035983328 0.18274672 0.3454655 -0.28852385 -0.02487531 0.15601763 0.18646178 0.18406089
-0.16049151 -0.45881733 0.16494729 0.08477805 -0.25953326 0.27762297 -0.46967325 0.16091463
0.14826077 -0.26958492 -0.27666545 0.1472967 0.5116165 0.13741757 0.19057612 -0.37711877
-0.14612705 -0.21033424 -0.12565146 0.10148016 0.009697282 0.2061826 0.30447552 0.3923167
-0.31287464 -0.05772902 0.42282176 -0.26827946 0.00638757 0.1385398 0.46656308 0.43320712
-0.042634048 -0.105264686 0.51873803 0.23217902 -0.12306603 0.055403046 -0.4261553 -0.0007986152
0.11251711 -0.44265905 0.14963667 0.28737792 0.4192566 0.409258 0.5030204 -0.2534322
-0.1939472 -0.24514209 -0.2902232 0.31752867 0.17174117 -0.052389055 -0.03344907 -0.004034797
0.0069022947 0.43041003 0.31123516 -0.09399671 -0.340433 0.051754564 0.43877167 0.41549784
-0.030061172 -0.21566501 0.37153327 0.10727331 -0.15706803 0.31813338 -0.26215485 0.2789044
0.36119363 -0.43366623 -0.24142392 0.3121471 0.22588955 0.26546413 0.40023422 -0.1552838

decoder_lstm.weight_hh_l0 f4 [64, 16]
00000000: 426e babe 32fe d7bc 3ca5 f83d faca db3e
00000010: 4c29 64be 4f59 ef3d 1bad 523e 7b94 4cbe
00000020: ce46 993e 326d fd3c 8177 c33d 5d8c 19bd
00000030: 2333 acbe 12da fdbd 276e 79be 3f8c bc3e
00000040: 0512 81be 05c3 57be f6d8 193d b31a 25bd
00000050: adb8 afbe 5304 193e 05d6 55bd 3a05 d03d
00000060: cd41 853e 0a37 cc3d ca9c 9bbe ef4f 91be
00000070: 1e30 db3d c481 9cbd 9577 9fbe 47a6 2c3d
00000080: 040f 8fbc f7c1 8bbe b3d8 d13d 1995 953d
00000090: 8240 38be b2bd 05bd 6e4a 6cbd 0577 19bc
000000a0: 3ca9 ba3d b796 383d e84b df3d ef54 06be
000000b0: b7ef 41bc a754 3ebc 6c79 093e ef2a 0d3e
000000c0: f7a3 95bd 56af 303c 12e3 893c 97c7 ac3d
000000d0: bb65 e4bc 238a b73e 6f8e fdbc e74b 223e
000000e0: dd13 9a3e 66f8 9dbd 0ac0 ffbd e63b b3bd
000000f0: 12d4 6cbe c78b 943d e6ca fe3d d25c 8bbb
00000100: 5098 6a3d 2e1f 8ebe e78a ab3e 6e73 0b3e
00000110: 0f33 39be 49dc 9f3e 5c96 0ebd a377 9e3e
00000120: 5f5f bc3d ec83 4abc ed9b 913d fe01 523e
00000130: d3c7 91be adfa a03e 122d 6d3d 18d2 323e
00000140: 08f3 21be 76ff 62be 7136 c43e cefb da3e
00000150: a5d6 a6be 17bd ad3e 0711 673e 5a65 c8bc
00000160: 151c ab3e bb60 72be d772 7c3d 0a2c 85be
00000170: 5aaa 9fbe 42b4 893e c622 aebe 3d75 943e
00000180: 0cf8 9ebd dd3d fabe 1f16 be3d ff4c 553e
00000190: 230d 9dbe 9716 1dbd 3a68 6c3d 6097 8dbe
000001a0: d3e9 4f3e 131e 61bc 1380 42be 835d 063e
000001b0: 6907 c9be 4759 933e bd86 12be 7583 873e
000001c0: b8ba bebe 2cfb 24be c13e a43e 7630 323e
000001d0: 5b09 a8bd 0367 e53d 59a3 fabd e2b4 073e
000001e0: 1c12 273e 9017 523d 9701 30be 7679 bfbd
000001f0: 061a 863c 3adb d93b 2281 31be 7d8f 013e
00000200: ba7c 91bd a573 773d df72 14be 4872 463e
00000210: 6c05 8abe 84b7 29be 2b6a 0f3d 06ff 88bd
00000220: 3f7d 5f3c 875f 863e 0f73 1bbe 82eb e03d
00000230: e840 d1bd fc5b 7a3d b818 55bc e15e a7bc
00000240: a1d0 2ebe fecb a8bd 6641 db3e 37f6 ce3d
00000250: 8d32 bdbe 293d 273e 058c ac3d 3276 af3d
00000260: 6832 cc3e b245 683c 6360 87be a60c 59be
00000270: a045 e6bd 0534 4cbc c97d d73c 6ba8 933c
00000280: 0731 90be b018 09be 894d 353e 8964 603e
00000290: e78b 0cbd b883 2fbe f7a8 0bbe 0a82 01be
000002a0: cb98 dc3e ff50 663e e23c 92be eb4e fdbd
000002b0: d7ea ecbd afc2 2cbc f5eb d4be fad3 8b3e
000002c0: 7c44 aabe f8ae 6bbd 4ae8 1e3e c20d 343e
000002d0: 4464 06be 496a 393d 4e36 a63d 462a bf3d
000002e0: f7f0 173e 5dc7 16be 8c1f 323e 1f97 d83d
000002f0: a7bd 64be b887 733d b998 3bbe 5bfb ad3e
00000300: 4f7a 9fbe 4860 993d 3d73 ae3e 0f94 fb3e
00000310: e750 8fbd 0820 1e3e 2fbf 1c3e 6592 77bd
00000320: e7ad 063d e100 d33b abc1 f1bd 6301 35be
00000330: 998a 0bbe 90df 523e c654 3d3d 4a31 633e
00000340: f733 b1be 4c7d 82be 825a 043e 72e9 073e
00000350: 7325 4ebe de12 c83e 8881 b23e 3381 adbe
00000360: fbfd 9e3e 4757 62be 1806 8abe 0783 a83e
00000370: 4e1e 44be a582 97be 294d e9be 98d3 933e
00000380: c8ee 413e f310 a0be 7f87 643e a050 b43e
00000390: 64dd b93d fc69 c2bd 3f85 733d 4f52 3d3e
000003a0: 08ae 7b3e f60e 963d 86d5 143d d808 8d3e
000003b0: a616 173d 2c61 3f3e 0109 273a d7d3 9f3e
000003c0: 1422 1abe 3037 8cbe 8421 f63e 269f a63d
000003d0: 2607 babe ca3f 53bd a6a6 2c3e d45a 053e
000003e0: cbef 083f 8536 10bd 6c2c 94bc 7362 993e
000003f0: 239b a3be 74ab 8b3e 91fe 05bf 554b 973e
-0.36412245 -0.026366327 0.12140891 0.42928296 -0.22281379 0.11686956 0.20573847 -0.19978516
0.29936832 0.030935857 0.09544278 -0.037487376 -0.33632764 -0.12395109 -0.24358426 0.3682575
-0.2520906 -0.21070488 0.037560426 -0.040308665 -0.34320584 0.14943056 -0.052206058 0.10157247
0.26026765 0.09971435 -0.30393058 -0.28381297 0.10702537 -0.07641938 -0.3114592 0.042150762
-0.017463215 -0.2729642 0.1024641 0.07303829 -0.17993358 -0.03265161 -0.05768817 -0.009366755
0.0911431 0.045065608 0.1090315 -0.13118337 -0.011836938 -0.011616862 0.13425225 0.13785909
-0.073066644 0.010783991 0.016831908 0.08436506 -0.02788054 0.35847577 -0.030951707 0.15849267
0.3009328 -0.07713394 -0.124878004 -0.08751659 -0.23127773 0.07253223 0.124410436 -0.0042530084
0.057274163 -0.27758163 0.33504412 0.13618252 -0.18085884 0.31222752 -0.034811363 0.3095065
0.09197878 -0.012360554 0.071098186 0.20508572 -0.28472766 0.3144125 0.05790431 0.17462957
-0.15815365 -0.22167763 0.38322785 0.42770237 -0.32585636 0.33933327 0.22565089 -0.02446239
0.33419862 -0.23669712 0.061632957 -0.26010162 -0.31184655 0.26895338 -0.34010905 0.28995696
-0.07762155 -0.48875323 0.09281563 0.20830153 -0.30674085 -0.03835162 0.057716586 -0.27654552
0.2030404 -0.01374008 -0.18994169 0.1312161 -0.39263466 0.2877905 -0.14309211 0.2646748
-0.3725183 -0.1611144 0.32079127 0.17401299 -0.082049094 0.112012886 -0.12238187 0.13252595
0.16315502 0.051292002 -0.17188106 -0.09349339 0.01636983 0.0066484483 -0.17334417 0.12652393
-0.07103868 0.06041302 -0.14496945 0.19379532 -0.26957262 -0.16573912 0.03501336 -0.06689267
0.013640701 0.26244757 -0.1518061 0.109824196 -0.10217458 0.06112288 -0.013006382 -0.020430984
-0.17071773 -0.082420334 0.42823333 0.101055555 -0.3695263 0.16331924 0.08425144 0.08567466
0.39882207 0.014176773 -0.26440725 -0.21196231 -0.11243749 -0.012463574 0.026305096 0.018024644
-0.28162405 -0.13388324 0.17705359 0.21913351 -0.03431311 -0.1714009 -0.13638674 -0.12647262
0.43085322 0.22491835 -0.28562075 -0.12368568 -0.1156823 -0.010544463 -0.4158627 0.27310163
-0.33255374 -0.05753991 0.15518299 0.17583373 -0.13124186 0.045267377 0.081158265 0.09334235
0.14838015 -0.14724489 0.17394847 0.10575699 -0.22337972 0.059455603 -0.18319978 0.33980832
-0.31148002 0.07489067 0.34072295 0.49136397 -0.06997853 0.15441906 0.15307306 -0.060442347
0.03288069 0.0064393138 -0.11804517 -0.1767631 -0.1362709 0.20593095 0.046223424 0.22186771
-0.3460996 -0.2548622 0.12925151 0.13272646 -0.20131473 0.39076895 0.3486445 -0.33887634
0.31053147 -0.22103606 -0.26957774 0.32912466 -0.19152185 -0.2959186 -0.4556668 0.2887237
0.18938744 -0.3126293 0.22317313 0.35217762 0.0907543 -0.09492871 0.059453245 0.1848843
0.24578106 0.07327072 0.036336444 0.2754581 0.036886834 0.18689412 0.0006371886 0.31216308
-0.15052062 -0.27385855 0.48072445 0.08135824 -0.3633358 -0.051574506 0.16860446 0.1302293
0.53490895 -0.035208244 -0.018087588 0.29957923 -0.31954297 0.27279246 -0.5234156 0.2954966

decoder_lstm.bias_ih_l0 f4 [64]
00000000: 6dc9 543e c363 143e c37c 8b3e 45cf 98bd
00000010: d489 e03d a65c 5e3e ba57 663e 2b05 6e3e
00000020: 6732 8d3d 2cc8 a5bd bd97 c43e 5b01 363e
00000030: 5d96 b83e 7b95 633e fdde 633e 8a4e ba3c
00000040: 2a18 4e3d acfa 423e e73f 843e 23ee 573d
00000050: a218 aa3d 09fe 2dbe e74d 3ebe 4e6b 393e
00000060: 3792 723c e679 833e fcdd b6bd 03f4 c23d
00000070: 3bda 323e 7a19 183e 27b5 12be 41f3 3b3d
00000080: a26d 2b3c b946 61be 0c98 563e adf9 2cbd
00000090: c9a8 a4bd d652 d8bd a495 5cbe c40b 133c
000000a0: ea9e 273e 259a 1b3e 8593 813e b111 5e3d
000000b0: 8afb 933b 6255 533e 8618 863d 9b3a 3e3e
000000c0: 85be d33e 7ba0 513e e6c6 23be 855a 23be
000000d0: 9e41 673d 9f29 f43d 93fa b73e ce98 3c3c
000000e0: 9449 1f3e 002a 99bd 6283 043e a473 c93e
000000f0: c75a 5f3c d51a 703d 31b5 763e 5243 133e
0.20779963 0.14491181 0.27243623 -0.074614085 0.10963789 0.2171503 0.22494403 0.23244159
0.06894379 -0.080948204 0.38397017 0.17773955 0.36052218 0.22224991 0.22253032 0.022742528
0.050316013 0.19040936 0.25830004 0.05271734 0.083054796 -0.16991438 -0.18584405 0.1810734
0.014805368 0.2567894 -0.08929059 0.09519198 0.17466061 0.14853469 -0.14326917 0.045886282
0.01046315 -0.21999635 0.20956439 -0.042230297 -0.08040006 -0.10562675 -0.21541458 0.008974973
0.16369215 0.1519552 0.2530786 0.05421609 0.00451607 0.2063804 0.06547646 0.18577044
0.41356292 0.20471375 -0.15993842 -0.15952499 0.05645906 0.11922001 0.3593336 0.011511041
0.15555412 -0.07478714 0.12940744 0.3934604 0.013632483 0.05861934 0.24092557 0.1438115

decoder_lstm.bias_hh_l0 f4 [64]
00000000: 28c4 ce3e 1a7f 903e b9dd dc3d 1fba dc3d
00000010: 109d 923d 6eaf 1a3e 3c07 f33c bba5 a03e
00000020: e098 d93d 5f3e 8d3e c359 9d3d 62f9 e13e
00000030: d005 4d3e 2f57 b53d 451c 033d fe95 503e
00000040: af06 443e 3447 3ebe aa02 013e dbd5 9d3e
00000050: 7374 74be 3aa4 09bd f18a 093e 3140 033d
00000060: b171 a43e 22c8 173e b40f 9abd 99e6 b5bd
00000070: 2a2e 96bd 7ae0 adbd 0e13 4e3e 92e2 433e
00000080: bebf 83be 6908 22be 7ba7 66bd b0dc b23d
00000090: 2137 b83c df4a 213e 9478 4d3e f906 dd3d
000000a0: 82a2 443d 9721 ebbd a1ef 14be 1a41 6d3b
000000b0: 1dc6 d63c d07f 2f3e 8294 91be 8cba a93d
000000c0: 2aac 8b3d 2e00 03be 01f8 493e 588b 823e
000000d0: 64fc 08bd 0c6a 6d3e d086 4439 258a 803e
000000e0: 438f 4cbe 02a7 913e e04e 9cba f9ba 8b3e
000000f0: 4464 93bc 9735 9d3d 4a1e 813e 2f07 013e
0.4038403 0.2822197 0.10784478 0.10777687 0.071588635 0.15105984 0.029666536 0.31376442
0.10624862 0.27586648 0.07683136 0.44135576 0.20021749 0.088545196 0.03200938 0.20369717
0.19143175 -0.1858185 0.12598673 0.3082722 -0.23872547 -0.033603884 0.13431908 0.03204364
0.3211799 0.14822438 -0.075225264 -0.08881874 -0.07333024 -0.08490081 0.20124456 0.19129398
-0.25732225 -0.1582352 -0.056312066 0.08733499 0.022487225 0.15751217 0.20065528 0.107923456
0.048006542 -0.11481016 -0.14544536 0.0036202134 0.026217515 0.171386 -0.28433615 0.08287534
0.06819947 -0.12793037 0.19723512 0.25496936 -0.033443823 0.23184985 0.00018742238 0.25105396
-0.19976525 0.2844773 -0.0011925362 0.27291086 -0.017992146 0.07676237 0.2521842 0.12600397

fc.weight f4 [20, 16]
00000000: 5e17 3cbf 8ad7 1bbf 4932 17bf 36d4 19be
00000010: f8a7 2bbf e6b7 dd3e 1cb7 793e 0ae8 4f3f
00000020: ffb6 d9be 3ec6 303f 52eb abbe 9d0f 5bbf
00000030: 571a 37bf 6ac4 33bf 488c 5d3f ba0f f43e
00000040: 451f 4e3e f189 a53d 1c7b 913d ac5d 9cbe
00000050: 137b 8a3e e851 0f3e 0a51 47be c2e7 86bd
00000060: 7d9b c0be aeba 4e3d b0b7 a5be 20b7 a73e
00000070: ba3b 23be b36b c43c 8fe2 043d bb4c fc3c
00000080: a64f d4be 83b7 243f 9284 8a3e 23f7 793e
00000090: 1d70 05bf 7c23 0cbf 2be9 d53e 2d69 263e
000000a0: f693 d03e f37e 003f 10a9 00bf 4236 a4bd
000000b0: 7f9f 343f 5bd0 023e 30ae 8cbe 1c43 923c
000000c0: 90d0 b6be cef8 8dbd d621 2e3e c083 a63e
000000d0: 874e bfbe 8757 73bf 7f5b 1ebf fd40 89be
000000e0: 2212 203e 30fd dcbe c2e9 9d3e 7122 d43e
000000f0: 3292 b8bd b57e ef3e 9d12 903d 69ac 933e
00000100: eef8 793e 0892 f43d 0dea 36be 1f9a 90be
00000110: 5f6b 1a3d 64de 8fbe de5a 07be 1ab0 d73d
00000120: be44 f1be 9796 afbd 1b65 373e 233c f73d
00000130: 8688 9f3e d5dc 463d 8f13 a23e 0023 a7be
00000140: c4b7 453e 54fe 613e 5d5c 27bd c7b9 cb3c
00000150: b2bf a63c 4831 b4bd 9e95 45be 6486 85be
00000160: f0ab 9dbe db61 593e e5df af3e 7292 de3d
00000170: 36b3 8f3e 56e7 de3b e049 723d 7aa3 89be
00000180: 568f d83e 43db d33d 3671 2fbe 3ca5 49be
00000190: dbcc 083e 9d45 18bd ef19 acbd e95f e4be
000001a0: 856d 36be 91ab 653d 9002 8dbc 5adc 523e
000001b0: 7f1e bbbd 6872 f5be 9573 0a3e 047d 5c3e
000001c0: 15ce 2a3d a911 38be a6b6 353e f52b 8e3e
000001d0: 6115 0c3e 9eef 10bf 3a5b c03e 9eba 7bbe
000001e0: a012 0c3d ab3b 9fbe 9ac9 043e 90d6 873e
000001f0: 0afa 873e a459 2b3f d0d6 71be 4d24 0abe
00000200: 4873 013f 0a88 7cbe 3419 a43e 0f37 f73e
00000210: cdcc febe d742 0e3f ef2e 0a3f f43f f13e
00000220: 205b e73e d4ea e5be 3bb7 173f 3193 d7be
00000230: d667 efbe 2361 38bf 5f7e 95bd 2025 2bbf
00000240: 4527 89be 47bb 003f cdc3 b23e 837f e43e
00000250: 0f06 b4be 3af0 5f3f ac7e e2bc 6ed8 363f
00000260: ee3f 3fbf d66d 5f3e 59ef c7be c194 59be
00000270: 4bca 093f 14ae 483f 4f16 00bf b1a4 8a3e
00000280: 8a1e d4bc 1780 5abe d1af 3f3e 4430 c8be
00000290: f2b6 823e 1916 a63e 7de3 b43e b6df c5be
000002a0: 9f3f 123e 7ed1 a33e 92b5 c4bd 9be8 223e
000002b0: 5c6b fcbd b348 af3d 4057 76be 0c07 b63e
000002c0: b135 6b3e 9f78 8abe 8a92 093d 0506 d2be
000002d0: 928d 0a3f 0044 d43e 4e6a 04bf 719c b2be
000002e0: ce19 92be 125a 683c 9a63 273f 73d8 2dbe
000002f0: 4fc7 a5be 4e95 88be 44d1 993e 945c 16bf
00000300: c635 d43e 396d b6be 3fdd cbbc 9c9c 0e3e
00000310: 1345 d53e e06b 2b3d 5a85 1abe c6c6 10be
00000320: 191c 943e 392e b3be 8f54 123d 9906 8b3e
00000330: 99f4 b7be 2b0d 1c3e 6b79 dbbc 40ce aa3e
00000340: ca84 b63e 04c7 383e f643 b33d d582 043e
00000350: 8a5a 4e3e 8429 20bf d66f dcbe b872 abbe
00000360: 4e80 64be 6d94 6b3e 07fb e3bb 1393 9d3b
00000370: 1625 c6bd a4b6 b9bd 3995 88be 6ced 9d3e
00000380: a439 19bd 21b8 b93e 62bc 0ebe b696 b43d
00000390: a323 203d e311 edbe 6b34 b73e 7e59 d6be
000003a0: e7c4 573e 4d7c 8d3e 36a1 05be e67d f23d
000003b0: 2dfd abbd d0bc 8e3d d305 a83d 2fa5 adbd
000003c0: 9ab6 ab3e 7041 d23e 89f0 c0be d22e e3be
000003d0: 94de ee3d f617 47be 0972 92bd 255c 333e
000003e0: e847 c0be 39ce 853d c7cb 47bd e9d1 4b3e
000003f0: 094f 0f3d 5ad5 7a3d 4bff 693d bc0a f4bd
-0.73473155 -0.6087576 -0.59061104 -0.15022358 -0.67053175 0.43304366 0.24386257 0.8121344
-0.42522427 0.69052494 -0.33577973 -0.855707 -0.71524566 -0.7022158 0.8654218 0.47668248
0.20129116 0.08082951 0.071035594 -0.30540216 0.27047023 0.13996089 -0.19464508 -0.06587173
-0.37618628 0.050471 -0.32366705 0.327569 -0.15940753 0.023977136 0.032442626 0.030798307
-0.41467017 0.64342517 0.27054268 0.24410681 -0.52124196 -0.54741645 0.41779456 0.16251059
0.40737885 0.5019371 -0.5025797 -0.08018161 0.7055587 0.12774794 -0.27476645 0.017854266
-0.35705996 -0.06932221 0.17005095 0.32522392 -0.373646 -0.9505543 -0.6185836 -0.26807395
0.15631917 -0.43161917 0.30842406 0.41432527 -0.090122595 0.46776357 0.070348 0.28842476
0.24411365 0.11941916 -0.17862721 -0.28242585 0.037700053 -0.28099358 -0.13218257 0.105316356
-0.4712276 -0.085736446 0.17909662 0.12072017 0.31158847 0.048550446 0.31655547 -0.3264389
0.19308382 0.22069675 -0.04085957 0.024868859 0.02035508 -0.08798462 -0.19295356 -0.26079094
-0.3079524 0.21228735 0.34350505 0.10867776 0.28066415 0.0068024797 0.059152484 -0.26882535
0.42296857 0.10344555 -0.1713303 -0.19691938 0.13359396 -0.037175763 -0.08403384 -0.44604424
-0.17815216 0.05607182 -0.017213136 0.2059187 -0.09136676 -0.47938848 0.13520654 0.21532065
0.04170044 -0.17975487 0.17745456 0.27767912 0.1368003 -0.56615627 0.375696 -0.24582908
0.03419745 -0.3110021 0.1296753 0.26530886 0.26557952 0.66933656 -0.236171 -0.1349041
0.5056653 -0.2466127 0.32050478 0.48284194 -0.49765626 0.5557074 0.53977865 0.47119105
0.4518671 -0.44905722 0.5926396 -0.42104486 -0.46758908 -0.7202322 -0.07299494 -0.66853523
-0.26787773 0.5028576 0.3491501 0.44628534 -0.35160872 0.8747593 -0.027648292 0.71423995
-0.74706924 0.21819243 -0.39049795 -0.21248151 0.538243 0.7839062 -0.5003404 0.27078775
-0.025893468 -0.21337925 0.18719412 -0.39099324 0.255302 0.32438734 0.3532981 -0.3864724
0.14282082 0.31995767 -0.09604944 0.15909044 -0.12325165 0.08558788 -0.2405672 0.3555225
0.229697 -0.27045152 0.033587016 -0.41020218 0.5412227 0.4145813 -0.5172471 -0.3488498
-0.28535312 0.014181631 0.65386355 -0.169771 -0.32378623 -0.2667641 0.3004247 -0.58735013
0.41447276 -0.35630205 -0.024885772 0.13926929 0.41654262 0.041850924 -0.15089932 -0.14138326
0.28927687 -0.34996203 0.035725173 0.2715347 -0.359288 0.15239398 -0.026791295 0.3336048
0.35648185 0.18044668 0.08753197 0.12940533 0.20151725 -0.6256335 -0.43054074 -0.3348596
-0.2231457 0.23005839 -0.006957415 0.0048087924 -0.09675042 -0.09068039 -0.26676348 0.308452
-0.037408486 0.36273292 -0.1393905 0.08817808 0.039096486 -0.4630271 0.3578218 -0.41865152
0.21071206 0.27633896 -0.13049778 0.118404195 -0.08397899 0.06969607 0.08204236 -0.08478772
0.3353775 0.4106555 -0.37683514 -0.4437166 0.11663547 -0.19442734 -0.07150657 0.17515619
-0.3755486 0.065334745 -0.04877832 0.19904293 0.034987483 0.061238624 0.057128232 -0.1191611

fc.bias f4 [20]
00000000: 5bc9 3bbe 3f14 b53d e8e7 873d c27e 573d
00000010: 2251 36be 34e3 23be 07d1 203e 691f 2dbd
00000020: b99f 84bd d677 983e 0e8a 7f3d 6ae0 3cbd
00000030: 0919 4abe 952f 52bd 9279 54be 4f48 3ebb
00000040: 297d 59be 0bbe 5fbd d9d7 bf3e 17d5 47be
-0.1833853 0.08841752 0.066360295 0.05261112 -0.17804387 -0.1600464 0.15704738 -0.042266283
-0.06475777 0.29778928 0.06238752 -0.046112455 -0.19736113 -0.05131491 -0.207495 -0.0029034798
-0.21239151 -0.0546246 0.37469366 -0.19514881
