lstm_ckpts/lstm-epoch=00-train_loss=1.94.ckpt (torch, 336033 bytes, 33 tensors)

embedding.weight f4 [20, 128]
1.2928262 -2.1826198 -0.006116958 -0.23245737 1.4565318 -0.3075805 0.7827656 0.079740226
0.87471116 -1.565786 -0.10767875 -1.8073659 -1.8067241 -2.2983432 -0.4451328 0.9146179
-0.68454444 0.16684987 -1.3345501 -0.44825342 0.09453109 2.369941 -0.16547811 0.6673727
0.17884824 1.4653847 -0.40290165 -0.33461216 -1.103748 0.6732317 0.79675305 -0.038737513
0.7696363 -1.6331785 -0.07621953 -0.21586084 -0.047134973 2.4137604 1.055518 1.8645979
0.8224662 1.0349514 -0.25684747 -0.5470248 0.70200586 1.1440257 -0.5002852 0.4437876
1.0213828 -0.6826603 0.5468385 -1.6833915 1.0921059 -0.3761996 1.5761279 -1.4380759
0.42362487 -0.39864594 0.25370252 -1.3847123 -0.4285704 -0.65351087 0.28356975 0.4611387
-1.9931306 0.8234442 0.088457555 -1.0693898 3.0708678 -0.3845862 1.8835742 -1.0445045
-0.84208834 -0.15099214 -0.94128263 -1.8317477 0.8728538 -1.1186619 -2.3147006 0.49657863
-1.3677843 -1.8484592 0.8442022 -0.09488326 0.5061765 -0.004192621 2.6201408 -1.0467082
1.1073568 -0.08721597 0.75564224 -1.2283062 -0.31091124 -0.88089865 -1.2626543 0.8303668
1.6610826 1.601691 -1.2457411 -0.18347143 -0.6038098 -2.3304584 -0.82725286 -1.4648938
-1.4945433 -2.8607366 1.677133 -2.692567 -0.6450392 0.081013165 1.3288279 0.49075812
1.2200196 -0.46982062 0.014484518 -0.21852376 -1.9093939 -0.75094676 -0.02305026 0.7317538
-1.3286781 2.1471837 0.79959756 0.9897086 -0.6896545 -1.6380523 1.3704834 -0.36115912
1.8628563 2.472925 -1.8531396 0.7019041 -0.066366225 -1.0277287 -0.26084733 -0.79617196
-0.55346674 -0.0026448332 -0.9688047 -0.19142947 -0.43991688 -1.0980062 1.1132094 0.98243415
0.8123867 1.0931027 -1.6648643 1.1517868 1.5913626 -1.325101 0.52745926 0.4749449
0.33888757 1.4103255 1.0140977 -1.9715353 -0.24927607 2.4640474 -0.52194244 -1.7219217
1.0172601 -0.95527714 1.460728 0.45227674 -1.6176674 -1.4871614 1.2585719 1.3966141
0.6302182 -0.19588952 0.24413936 -0.35727647 -0.8570592 -0.79746914 0.15727732 0.38016492
1.3203095 0.83515185 0.6099993 2.5413642 1.7957791 -1.3924369 0.70915884 -0.037551306
0.24832404 -1.32334 0.5818961 -0.020204782 0.40133905 -0.30618155 -0.62858564 -0.6327623
0.42321995 -0.07207813 -0.24489577 0.05918538 -0.24053663 -0.4658426 1.0708121 0.057710912
0.24610755 -1.0210539 2.0276463 0.3243112 0.0940471 -0.2707281 0.35303944 -2.5683925
-0.23657711 0.59223586 -1.5467303 1.8658124 -0.1294238 -0.3606198 0.20805882 0.72957593
-0.21328959 0.8006511 -1.3463496 -1.668679 0.50830716 0.8803541 -1.9095535 -1.0486364
0.7638011 0.7577336 1.1752697 0.6858875 0.99042314 0.22151951 1.019118 -0.3908916
-2.1969876 -0.56932515 0.62495846 2.3571742 0.45124897 -0.3896404 -1.2687744 -0.38466996
-2.0413613 0.23917378 -0.7956165 -0.57322353 -0.14765687 0.08414474 0.09424298 -0.35588413
0.63832486 0.90233374 -0.983342 0.98791707 -2.7448864 0.5895463 0.028180966 -0.79561937
00000000: 547b a53f 0bb0 0bc0 c370 c8bb 4e09 6ebe
00000010: a26f ba3f 317b 9dbe 5463 483f d84e a33d
00000020: 12ed 5f3f ad6b c8bf ad86 dcbd c457 e7bf
00000030: bc42 e7bf 0e18 13c0 72e8 e3be 6624 6a3f
00000040: 4e3e 2fbf b1da 2a3e 8ad2 aabf 7981 e5be
00000050: 8499 c13d 1dad 1740 1873 29be f0d8 2a3f
00000060: fe23 373e ba91 bb3f 2049 cebe 4952 abbe
00000070: 9d47 8dbf ea58 2c3f 02f8 4b3f 3aab 1ebd
00000080: e206 453f fe0b d1bf fc18 9cbd a00a 5dbe
00000090: 9a10 41bd 0d7b 1a40 371b 873f 25ab ee3f
000000a0: 258d 523f 4a79 843f 8381 83be d109 0cbf
000000b0: a8b6 333f 6f6f 923f b112 00bf 2138 e33e
000000c0: acbc 823f d3c2 2ebf 9cfd 0b3f 5f79 d7bf
000000d0: 20ca 8b3f 3c9d c0be 8fbe c93f df12 b8bf
000000e0: 5ce5 d83e 521b ccbe 4ce5 813e 413e b1bf
000000f0: 946d dbbe 7d4c 27bf 0e30 913e 5f1a ec3e
00000100: e71e ffbf 3dcd 523f 3c29 b53d c4e1 88bf
00000110: 1989 4440 7be8 c4be f618 f13f 53b2 85bf
00000120: 1a93 57bf af9d 1abe e6f7 70bf b576 eabf
00000130: 5973 5f3f 5030 8fbf 0e24 14c0 8e3f fe3e
00000140: 8e13 afbf 509a ecbf a31d 583f 2852 c2bd
00000150: c894 013f 4162 89bb 63b0 2740 89fa 85bf
00000160: debd 8d3f 499e b2bd c571 413f 2339 9dbf
00000170: c22f 9fbe 9382 61bf a89e a1bf eb92 543f
00000180: 5b9e d43f 3604 cd3f 7274 9fbf efdf 3bbe
00000190: 4793 1abf 3b26 15c0 d8c6 53bf a481 bbbf
000001a0: 324d bfbf 4f16 37c0 4bac d63f 0553 2cc0
000001b0: 4a21 25bf 3bea a53d 0817 aa3f a644 fb3e
000001c0: 9a29 9c3f 548c f0be 7950 6d3c b1c4 5fbe
000001d0: 0567 f4bf 0c3e 40bf e6d3 bcbc 3854 3b3f
000001e0: 2012 aabf 756b 0940 6db2 4c3f 8b5d 7d3f
000001f0: 338d 30bf b3ab d1bf 006c af3f d9e9 b8be
00000200: 1372 ee3f 6744 1e40 ae33 edbf fdaf 333f
00000210: 04eb 87bd 9d8c 83bf c88d 85be edd1 4bbf
00000220: ffaf 0dbf f054 2dbb 9603 78bf 1606 44be
00000230: c93c e1be 788b 8cbf a57d 8e3f ce80 7b3f
00000240: 93f8 4f3f caea 8b3f 461a d5bf c06d 933f
00000250: c5b1 cb3f e99c a9bf 9207 073f fa2b f33e
00000260: ac82 ad3e 8c85 b43f f4cd 813f 455b fcbf
00000270: 3a42 7fbe f4b2 1d40 059e 05bf ee67 dcbf
00000280: 9435 823f 0b8d 74bf 23f9 ba3f d190 e73e
00000290: ba0f cfbf 4e5b bebf e218 a13f 40c4 b23f
000002a0: fb55 213f 4397 48be abff 793e f1ec b6be
000002b0: 3b68 5bbf f026 4cbf 4e0d 213e faa4 c23e
000002c0: e7ff a83f 83cc 553f ea28 1c3f b6a5 2240
000002d0: 17dc e53f 5f3b b2bf 6f8b 353f 66cf 19bd
000002e0: a848 7e3e 3563 a9bf 25f7 143f 8084 a5bc
000002f0: 507c cd3e d4c3 9cbe fdea 20bf b6fc 21bf
00000300: 49b0 d83e b39d 93bd f5c5 7abe 5e6c 723d
00000310: 3c4f 76be ec82 eebe 5f10 893f 4762 6c3d
00000320: 9e03 7c3e e5b1 82bf f5c4 0140 1e0c a63e
00000330: c49b c03d e09c 8abe 96c1 b43e 8b60 24c0
00000340: 4541 72be c59c 173f 42fb c5bf f1d2 ee3f
00000350: ac87 04be 29a3 b8be 5f0d 553e 7dc5 3a3f
00000360: 9668 5abe 78f7 4c3f 2f55 acbf 4697 d5bf
00000370: 6b20 023f e35e 613f 406c f4bf b839 86bf
00000380: 7888 433f d4fa 413f 3d6f 963f 5396 2f3f
00000390: 5f8c 7d3f 03d6 623e 7572 823f f222 c8be
000003a0: 729b 0cc0 4bbf 11bf 47fd 1f3f f1db 1640
000003b0: 1b0a e73e f27e c7be 3367 a2bf 76f3 c4be
000003c0: aaa5 02c0 f9e9 743e 86ad 4bbf c7be 12bf
000003d0: 5d33 17be 1454 ac3d 7702 c13d 7236 b6be
000003e0: 4269 233f 58ff 663f 4dbc 7bbf 22e8 7c3f
000003f0: 38ac 2fc0 82ec 163f c5db e63c b6ad 4bbf

encoder_lstm.weight_ih_l0 f4 [128, 128]
0.107028246 -0.15412307 0.13907544 -0.11445887 0.13553974 -0.13549075 0.010139597 -0.07166389
0.026039133 0.14399043 -0.077002354 0.02284239 -0.23615436 -0.08155811 -0.043871094 0.18330874
0.059481274 -0.020003492 0.019931985 0.021074258 -0.039954618 0.018976534 0.09575393 -0.09116065
0.1561464 0.10137103 0.14139223 -0.19353081 0.08152889 -0.031226736 -0.21098453 0.14783268
0.17030996 -0.104173996 0.18074 -0.01592339 0.02133182 0.011372085 -0.02105233 0.015365107
-0.052362002 0.015089078 0.031157605 -0.24480118 -0.17613073 -0.015358348 -0.06902877 -0.0110622775
-0.12969007 0.19268827 0.19802745 -0.069646545 -0.14415987 -0.043668587 0.16095184 -0.1647954
0.15454926 0.13297002 0.0027348355 -0.0553659 0.10930044 0.15997241 0.10389432 -0.15107219
-0.16620971 -0.045944247 -0.080261774 0.10216068 -0.02533801 -0.025361761 -0.022772318 0.037741352
0.059277404 -0.021135723 -0.22355463 0.09916668 0.08931176 0.14889428 -0.030085245 0.05725883
0.055918906 0.10949243 -0.070958935 -0.0125986 0.07738237 0.07626601 0.10815341 -0.033118695
-0.16094933 -0.0172077 -0.14156069 -0.01223776 -0.10965404 0.07497366 0.026859444 -0.16420789
-0.09600357 0.026179127 -0.23261596 0.07715897 -0.06788621 -0.10345457 0.1310712 -0.17795408
-0.13415402 -0.12886286 -0.08473091 0.01984538 -0.07870921 -0.080012836 -0.0412464 -0.05606547
-0.10560472 0.029664455 0.034703508 -0.05067702 -0.009764302 0.08039369 -0.16210446 -0.12049257
-0.021219691 0.17839372 0.133934 -0.07678445 -0.098234884 0.04495104 -0.13207603 -0.11755323
0.102560684 -0.03233788 -0.07943182 0.040404305 -0.1099493 -0.0059321932 0.24121909 -0.034457397
-0.0777961 -0.2495593 -0.11445794 -0.0019456848 -0.057833854 -0.20909591 -0.07291746 0.13362801
0.016884066 0.07741817 0.07480636 0.11229054 0.18524376 0.089099094 -0.14750247 0.20184247
-0.002050138 0.03764774 -0.09573483 -0.16789748 -0.14870764 0.09575965 0.19227353 0.22877632
0.11659149 -0.13256404 -0.1880688 0.19511712 0.013091297 0.0106322635 0.17626117 -0.07451271
-0.11995024 -0.09638202 -0.18036515 0.13302593 -0.062388673 -0.0035469925 0.12109664 -0.05285244
-0.12419709 -0.07529264 0.06188069 0.051238295 0.061446708 -0.11411166 0.15559594 -0.113851205
-0.02439177 -0.15879223 0.15707463 0.08165553 0.037085403 -0.1564226 0.12039563 0.095801726
-0.13287266 0.069796056 0.048594162 -0.108873636 -0.101387404 -0.1522375 0.08861641 0.10683109
0.11359456 -0.022870958 0.007838516 0.14503568 -0.0626498 0.09618744 -0.15430222 -0.08923984
-0.15861237 -0.24833672 -0.19227636 0.1277856 -0.065420814 0.034522064 0.14000863 0.0054421
0.14778508 0.10384487 -0.09693328 0.0030096883 0.17154747 -0.17422296 0.026363121 -0.13574001
-0.006106642 0.011228016 0.12874788 0.13341738 -0.17671286 0.022915235 -0.005820116 -0.082259506
-0.10457759 0.10361919 -0.11379595 -0.053951606 0.040323816 0.11496152 0.0999814 0.18147291
-0.084586084 -0.07573497 0.12777261 -0.11089799 0.03887814 -0.005273226 -0.06317148 0.16721663
-0.16927025 0.027908422 -0.028888086 0.032322302 0.0779778 0.099014215 0.24294624 0.17552823
00000000: a031 db3d 70d2 1dbe cb69 0e3e 6969 eabd
00000010: eeca 0a3e 16be 0abe 8d20 263c 84c4 92bd
00000020: 0550 d53c 3a72 133e 69b3 9dbd f71f bb3c
00000030: 73d2 71be f007 a7bd 2db2 33bd 49b5 3b3e
00000040: a3a2 733d 5dde a3bc 6748 a33c eca3 ac3c
00000050: 74a7 23bd ad74 9b3c a31a c43d 6fb2 babd
00000060: d8e4 1f3e 9d9b cf3d 20c9 103e f12c 46be
00000070: 9ef8 a63d 36cf ffbc 540c 58be 7361 173e
00000080: bc65 2e3e 2d59 d5bd e813 393e c571 82bc
00000090: 12c0 ae3c fb51 3a3c f075 acbc eebd 7b3c
000000a0: 8a79 56bd 2e38 773c 3c3e ff3c 29ad 7abe
000000b0: 9d5b 34be 95a1 7bbc f55e 8dbd 8e3e 35bc
000000c0: 79cd 04be 1350 453e b5c7 4a3e d9a2 8ebd
000000d0: a59e 13be d5dd 32bd 8fd0 243e 20c0 28be
000000e0: 2942 1e3e 4b29 083e ed3a 333b 5bc7 62bd
000000f0: e9d8 df3d cfcf 233e 8cc6 d43d abb2 1abe
00000100: e132 2abe 0930 3cbd 4960 a4bd 9e39 d13d
00000110: a991 cfbc 78c3 cfbc 038d babc ad96 1a3d
00000120: ddcc 723d d324 adbc 81eb 64be e617 cb3d
00000130: 16e9 b63d be77 183e 5575 f6bc 3c88 6a3d
00000140: 390b 653d 913d e03d eb52 91bd 5c6a 4ebc
00000150: a67a 9e3d 5b31 9c3d 897f dd3d 78a7 07bd
00000160: e7cf 24be 2af7 8cbc 49f5 10be e380 48bc
00000170: 4c92 e0bd ca8b 993d 5608 dc3c 1d26 28be
00000180: 859d c4bd 9c75 d63c e132 6ebe 8605 9e3d
00000190: ed07 8bbd fddf d3bd 8737 063e 9839 36be
000001a0: ac5f 09be a0f4 03be 6687 adbd c792 a23c
000001b0: 4b32 a1bd c5dd a3bd fcf1 28bd e8a4 65bd
000001c0: 4a47 d8bd df02 f33c 4425 0e3d b592 4fbd
000001d0: 73fa 1fbc 72a5 a43d b6fe 25be cfc4 f6bd
000001e0: ebd4 adbc d8ac 363e ff25 093e 2a41 9dbd
000001f0: 5f2f c9bd 951e 383d f03e 07be bfbf f0bd
00000200: 560b d23d ba74 04bd 26ad a2bd fc7e 253d
00000210: 192d e1bd d862 c2bb 2302 773e 3323 0dbd
00000220: 9053 9fbd 798c 7fbe ed68 eabd 5906 ffba
00000230: 31e3 6cbd 3d1d 56be c055 95bd c8d5 083e
00000240: 7450 8a3c 6b8d 9e3d 1434 993d 95f8 e53d
00000250: 8ab0 3d3e 9679 b63d e30a 17be cbaf 4e3e
00000260: 9c5b 06bb 8434 1a3d 9f10 c4bd 51ed 2bbe
00000270: d146 18be a31d c43d 5ae3 443e 5744 6a3e
00000280: 85c7 ee3d debe 07be 1c95 40be c8cc 473e
00000290: e17c 563c f232 2e3c cf7d 343e 1f9a 98bd
000002a0: 79a8 f5bd f063 c5bd a4b1 38be f337 083e
000002b0: 448b 7fbd a974 68bb 8401 f83d cd7b 58bd
000002c0: 0b5b febd 0733 9abd 9b76 7d3d 3fdf 513d
000002d0: 8baf 7b3d 60b3 e9bd 8b54 1f3e d22a e9bd
000002e0: 40d1 c7bc 6e9a 22be 2cd8 203e 043b a73d
000002f0: dde6 173d 3f2d 20be fc91 f63d b233 c43d
00000300: c50f 08be 3cf1 8e3d ac0a 473d 24f9 debd
00000310: 33a4 cfbd 26e4 1bbe 857c b53d 42ca da3d
00000320: 44a4 e83d e05b bbbc 1e6d 003c 3c84 143e
00000330: 8a4e 80bd ecfd c43d 6701 1ebe 61c3 b6bd
00000340: 486b 22be fb4b 7ebe 18e4 44be 3ada 023e
00000350: 59fb 85bd 0267 0d3d 6c5e 0f3e a553 b23b
00000360: f954 173e 9fac d43d f584 c6bd 313e 453b
00000370: 24aa 2f3e 8167 32be 79f7 d73c 6eff 0abe
00000380: 3a1a c8bb b6f5 373c 7cd6 033e 919e 083e
00000390: 37f4 34be bbb8 bb3c acb6 bebb ac77 a8bd
000003a0: c72c d6bd 4c36 d43d da0d e9bd 5cfc 5cbd
000003b0: 962a 253d f270 eb3d 0cc3 cc3d 09d4 393e
000003c0: 783b adbd f01a 9bbd d3d6 023e 7c1e e3bd
000003d0: af3e 1f3d 07cb acbb 0d60 81bd d63a 2b3e
000003e0: 2e55 2dbe 34a0 e43c b5a6 ecbc 6464 043d
000003f0: d3b2 9f3d f7c7 ca3d e6c6 783e acbd 333e

encoder_lstm.weight_hh_l0 f4 [128, 32]
0.041526884 0.25170404 -0.15956569 -0.11015687 -0.11238218 0.066236325 0.06359132 0.08076095
-0.15370189 0.11359 0.19404966 -0.25767726 0.027115958 -0.024286712 0.09638611 0.07957179
0.0013102883 0.08124151 0.11197028 -0.0023134158 0.10559621 -0.12546451 -0.28300485 0.14564049
-0.07058221 -0.2251189 0.24047859 0.03514203 0.1818647 0.23884554 0.027002085 -0.113426834
-0.0579477 -0.18405174 -0.22200939 0.13205749 -0.0075805257 0.1839874 -0.0632367 0.17949858
0.017441716 0.19820593 0.025020389 -0.19491096 -0.06913537 0.05132099 -0.08993782 -0.052896176
0.20293996 0.079974435 0.2410536 0.040383648 0.08265131 -0.047556423 -0.1682618 0.1442587
0.0064351964 -0.18122822 -0.13627377 0.24543674 -0.04993739 0.23510385 0.010582278 0.0051152008
-0.15986097 -0.1158824 -0.0035783185 0.09942895 0.1664035 -0.1170056 -0.109162115 -0.047044247
-0.11366913 0.07704479 -0.12622263 0.047224533 0.077123344 0.098635264 -0.064138696 0.009148757
0.028339555 0.017276915 -0.104857564 0.12350972 -0.04239516 0.21286589 -0.05346385 0.12770267
-0.098039396 -0.18313082 0.10922375 0.19387259 -0.045323897 -0.0618571 0.20086497 0.0392638
-0.09340992 -0.07831905 0.028461872 -0.022998698 0.13315094 -0.19166951 -0.041211296 0.27563637
0.06204685 0.040801585 0.3203717 -0.042045664 -0.10557016 -0.057663515 -0.019262098 0.19474193
0.30555522 -0.03452293 0.30313498 0.0031749634 -0.21175262 0.12921216 0.10782476 -0.17017545
0.048373327 -0.23652436 -0.048427388 0.2547711 0.092295446 0.06303042 0.24859087 0.051941603
-0.16972233 -0.06193934 0.036305163 0.09205294 -0.15408319 0.046020016 0.11645686 0.2943549
0.033359468 0.13713257 0.20501354 -0.105032966 -0.17340247 0.09662681 -0.030973887 0.08855172
0.06455668 -0.114541575 -0.07530706 0.14677034 -0.09679243 0.029053746 -0.187873 0.09347895
-0.16630371 0.021508096 0.14136449 -0.039556783 0.17810842 0.0819782 0.2195883 -0.0018338299
-0.15646389 0.08769006 0.0685968 0.20369606 -0.00997077 0.18766059 -0.013579834 0.07404509
-0.053008545 0.20933428 0.052657705 -0.0924964 -0.16800576 -0.10117452 -0.04503649 -0.12159865
0.06655077 -0.033985887 0.02883224 -0.0935352 -0.015446186 0.044806547 0.06452954 0.040484272
0.071338676 -0.16635121 -0.016569072 0.037314672 0.13831437 0.14749081 0.10459562 0.0077476148
-0.047633592 -0.15380046 -0.038891897 -0.009649174 0.13840955 0.12871946 -0.17751923 0.016775813
-0.06012707 -0.048545036 0.11626909 0.06721629 0.04574945 0.12929305 0.11683975 0.082946725
0.012364629 0.12276544 0.14096071 -0.10495443 -0.138627 0.2178729 -0.17364901 0.0721078
-0.07065806 -0.056999087 -0.25352865 0.061966255 0.16935234 0.091024384 0.2500029 -0.18167561
-0.09974748 -0.32448304 0.01378909 -0.1361681 -0.26373333 -0.037449952 0.10050001 0.19387239
0.08651229 -0.10682297 0.0990343 0.18890831 -0.18013033 0.03287272 0.02043287 0.03965422
-0.004069492 -0.15442179 -0.079309694 -0.19933216 0.08435226 -0.00048817194 0.02460207 -0.01581819
0.041115385 0.08115544 0.044108037 0.0063018557 0.1788602 0.03264895 0.17594871 0.008331965
00000000: 1818 2a3d 5adf 803e 3065 23be ed99 e1bd
00000010: a128 e6bd e9a6 873d 2a3c 823d ff65 a53d
00000020: 0764 1dbe e0a1 e83d f4b4 463e 46ee 83be
00000030: 4922 de3c edf4 c6bc 1566 c53d 89f6 a23d
00000040: fbbd ab3a f361 a63d ad50 e53d ad9c 17bb
00000050: d342 d83d c579 00be 03e6 90be c822 153e
00000060: 688d 90bd 9285 66be 0540 763e 17f1 0f3d
00000070: bd3a 3a3e ed93 743e 7a33 dd3c 544c e8bd
00000080: 915a 6dbd 0f78 3cbe 6e56 63be 143a 073e
00000090: 0f66 f8bb 3167 3c3e 3e82 81bd 7ace 373e
000000a0: eee1 8e3c 7ff6 4a3e 8ff7 cc3c bd96 47be
000000b0: d896 8dbd f535 523d 5231 b8bd a9a9 58bd
000000c0: 7ecf 4f3e a3c9 a33d c1d6 763e 5369 253d
000000d0: 1745 a93d 86ca 42bd d24c 2cbe 8db8 133e
000000e0: 57de d23b e493 39be 5a8b 0bbe c553 7b3e
000000f0: 268b 4cbd 10bf 703e 4a61 2d3c 6a9d a73b
00000100: 98b2 23be c053 edbd 3982 6abb 68a1 cb3d
00000110: ae65 2a3e a2a0 efbd 6390 dfbd 78b1 40bd
00000120: 5ccb e8bd a9c9 9d3d 8140 01be 836e 413d
00000130: d8f2 9d3d 4901 ca3d 265b 83bd abe4 153c
00000140: 5b28 e83c 5188 8d3c 90bf d6bd aaf2 fc3d
00000150: 8ca6 2dbd 84f9 593e e9fc 5abd 7dc4 023e
00000160: e1c8 c8bd a586 3bbe b4b0 df3d 8986 463e
00000170: 8da5 39bd df5d 7dbd 8caf 4d3e 14d3 203d
00000180: b34d bfbd bd65 a0bd df28 e93c c467 bcbc
00000190: b858 083e 0345 44be 2dcd 28bd 3620 8d3e
000001a0: d624 7e3d 901f 273d c207 a43e 1338 2cbd
000001b0: 2b35 d8bd 9430 6cbd 8ccb 9dbc 6e6a 473e
000001c0: bc71 9c3e ea67 0dbd 8234 9b3e 0c13 503b
000001d0: aed5 58be 3150 043e 3ad3 dc3d 7942 2ebe
000001e0: 1c23 463d 7133 72be cc5b 46bd 5c71 823e
000001f0: 6505 bd3d 1816 813d 9b8e 7e3e b8c0 543d
00000200: b1cb 2dbe 1bb4 7dbd b9b4 143d 4086 bc3d
00000210: fcc7 1dbe 7c7f 3c3d ef80 ee3d afb5 963e
00000220: f0a3 083d 7b6c 0c3e 12ef 513e 861b d7bd
00000230: 6b90 31be 47e4 c53d f3bc fdbc 9b5a b53d
00000240: 4b36 843d c694 eabd 963a 9abd f74a 163e
00000250: 1c3b c6bd 1f02 ee3c c861 40be e471 bf3d
00000260: 854b 2abe bf31 b03c dac1 103e 4b06 22bd
00000270: 0e62 363e 30e4 a73d c1db 603e 1f5d f0ba
00000280: 1238 20be d996 b33d 7b7c 8c3d b395 503e
00000290: 715c 23bc 192a 403e f47d 5ebc f4a4 973d
000002a0: 7d1f 59bd ba5b 563e 9baf 573d c16e bdbd
000002b0: b409 2cbe 9634 cfbd 2f78 38bd b708 f9bd
000002c0: c54b 883d c934 0bbd 9731 ec3c 628f bfbd
000002d0: 0012 7dbc 1287 373d 1028 843d d6d2 253d
000002e0: 031a 923d f957 2abe ddbb 87bc 45d7 183d
000002f0: 48a2 0d3e d507 173e 3a36 d63d b4df fd3b
00000300: 711b 43bd de7d 1dbe 1c4d 1fbd 9217 1ebc
00000310: 3cbb 0d3e 09cf 033e 9ac7 35be 6e6d 893c
00000320: cd47 76bd 29d7 46bd 7d1e ee3d b2a8 893d
00000330: c663 3b3d 6665 043e ae49 ef3d f9df a93d
00000340: 0395 4a3c 726c fb3d 0158 103e 59f2 d6bd
00000350: 3cf4 0dbe 131a 5f3e 0cd1 31be 41ad 933d
00000360: 2cb5 90bd e077 69bd 82ce 81be 54d0 7d3d
00000370: b36a 2d3e fe6a ba3d 6100 803e 2c09 3abe
00000380: 6848 ccbd a422 a6be a3eb 613c a76f 0bbe
00000390: 0e08 87be 1f65 19bd f3d2 cd3d 7c86 463e
000003a0: 5b2d b13d 00c6 dabd 7fd2 ca3d 2e71 413e
000003b0: 1674 38be 8ca5 063d d662 a73c 776c 223d
000003c0: 6059 85bb bf20 1ebe 1f6d a2bd bb1d 4cbe
000003d0: e1c0 ac3d 54f1 ffb9 488a c93c 2695 81bc
000003e0: 9b68 283d d334 a63d a1aa 343d cc7f ce3b
000003f0: 2127 373e e8ba 053d e62b 343e cb82 083c

encoder_lstm.bias_ih_l0 f4 [128]
0.147925 0.23998661 0.06353158 0.06398126 -0.067020014 0.12361728 0.18427162 -0.05129703
0.29132858 0.2109094 0.1631103 0.12481666 0.020963931 0.119558565 0.20600015 0.16581
0.006599597 0.22214714 0.005304248 0.066959016 0.064611435 0.045390718 0.02132441 0.07958339
-0.0878141 -0.03766397 0.100256205 0.1948978 0.049299754 0.062479887 0.02266479 -0.0010874394
-0.117343314 -0.005102197 0.24699125 0.16776177 0.012580251 0.049107652 -0.033675466 0.16225952
0.12529813 0.14060497 0.22444308 0.18469271 0.111765824 0.0030766553 0.1878929 -0.09806381
0.15066348 0.030053768 0.048649788 0.18988214 -0.10888799 0.18346931 0.24874042 0.06984474
-0.060297135 -0.04217942 -0.12578076 0.1559204 -0.0284528 0.12438427 0.09138578 0.015492292
0.13852428 0.017004408 -0.08958352 -0.014564423 -0.007175856 -0.08189089 0.043063663 0.18935841
-0.16089617 0.1999462 0.20160076 -0.18673758 0.13945943 0.14715888 -0.0420493 -0.029330233
0.13473533 0.02661131 -0.03590798 -0.17213385 0.10246954 -0.02494675 0.12011077 -0.09261592
0.14140053 -0.15724291 0.00274528 -0.09403155 0.11223198 0.17204805 0.02496434 -0.035828996
0.16544543 -0.027303988 -0.051136162 0.07435793 0.011310893 0.23261644 0.22121818 0.2021083
-0.046365913 0.035379473 0.20478302 0.110398546 0.039730836 0.07890419 0.07228808 0.098290764
0.00791007 0.21709989 0.18252067 0.24568582 0.13560517 0.28267977 0.13214134 0.155415
0.046303563 0.15569738 0.104183085 0.14208706 0.093017414 0.020573374 -0.014623255 0.051390294
00000000: a779 173e 0dbf 753e d81c 823d 9b08 833d
00000010: ca41 89bd 0e2b fd3d b3b1 3c3e d61c 52bd
00000020: 0529 953e a2f8 573e 6306 273e e19f ff3d
00000030: 8dbc ab3c 1fdb f43d b4f1 523e 19ca 293e
00000040: 6f41 d83b 8a7a 633e 42cf ad3b cf21 893d
00000050: 0053 843d 9eeb 393d 87b0 ae3c 9efc a23d
00000060: e1d7 b3bd 8945 1abd 2053 cd3d 4a93 473e
00000070: 8aee 493d e9ea 7f3d 82ab b93c 6988 8eba
00000080: b151 f0bd 5530 a7bb 46eb 7c3e bec9 2b3e
00000090: 661d 4e3c 1b25 493d 49ef 09bd 5c27 263e
000000a0: 274e 003e c0fa 0f3e 68d4 653e 1620 3d3e
000000b0: 7be5 e43d b6a1 493b ff66 403e aed5 c8bd
000000c0: 8747 1a3e 5233 f63c 0045 473d 7770 423e
000000d0: ab00 dfbd 61df 3b3e cfb5 7e3e c20a 8f3d
000000e0: 21fa 76bd 54c4 2cbd accc 00be 99a9 1f3e
000000f0: d915 e9bc 2ebd fe3d 7828 bb3d 62d3 7d3c
00000100: 4fd9 0d3e d44c 8b3c 9177 b7bd 9e9f 6ebc
00000110: 7123 ebbb 69b6 a7bd 8663 303d 2ce7 413e
00000120: f7c1 24be b2be 4c3e 6e70 4e3e 2338 3fbe
00000130: 74ce 0e3e d1b0 163e e33b 2cbd f545 f0bc
00000140: 0ff8 093e f6ff d93c 3f14 13bd db43 30be
00000150: 8ddb d13d 205d ccbc a3fc f53d 6aad bdbd
00000160: 4dcb 103e 4904 21be 28ea 333b 9d93 c0bd
00000170: e1d9 e53d 5d2d 303e 0482 cc3c 6dc1 12bd
00000180: 876a 293e 9dac dfbc 2774 51bd f848 983d
00000190: 5351 393c 0133 6e3e 0587 623e 7af5 4e3e
000001a0: 2fea 3dbd 11ea 103d a4b2 513e a218 e23d
000001b0: cdbc 223d 8598 a13d c60b 943d ab4c c93d
000001c0: 3d99 013c 6f4f 5e3e b3e6 3a3e 1095 7b3e
000001d0: 15dc 0a3e 67bb 903e 0f50 073e 1c25 1f3e
000001e0: cea8 3d3d 226f 1f3e f15d d53d 457f 113e
000001f0: ea7f be3d 7e89 a83c 6096 6fbc a17e 523d

encoder_lstm.bias_hh_l0 f4 [128]
0.035929285 0.17684947 -0.057300385 0.22848424 0.0024759201 0.083379425 -0.04446578 0.16440603
0.00904327 0.20040989 -0.018702408 0.0831723 0.10244112 0.19089198 0.06407077 -0.0637846
0.13606662 0.23661953 0.028698549 0.04774771 0.08175612 -0.003521502 -0.006624026 0.11975899
0.1895766 0.029465133 -0.0070985467 -0.045211107 0.1385774 0.10281127 0.18099412 0.17126203
0.09998783 0.21825854 -0.05799942 0.08807534 -0.033163596 0.1706025 0.09550789 0.044390526
-0.0026704012 -0.019194007 0.05871289 -0.09294081 -0.07396766 0.15893832 0.14855605 0.049914073
-0.005747306 0.080681145 -0.0354155 -0.0071529592 0.10958985 0.01006412 0.15960112 0.13664395
0.061065778 0.011092763 0.13515997 0.054775186 0.104857944 0.15002151 0.13038726 0.09022612
0.1435003 0.06989314 -0.02916261 0.13797203 0.04740711 0.09101019 0.10612746 -0.08116363
0.01683605 0.1074397 0.0046725306 -0.025047133 -0.11992616 -0.13110106 -0.022115268 0.13928431
0.18926264 0.043678038 0.09315354 -0.032632977 -0.15746354 0.014797181 -0.016011328 0.07011027
0.1261437 0.063854314 -0.0869597 0.067393444 0.09130053 0.21379869 0.007473617 -0.16862631
0.19846521 0.15857683 0.0031740384 -0.03639917 0.0251336 -0.047210243 0.080307655 -0.068077855
-0.0035450612 0.07123032 -0.021889564 0.051795203 0.011831482 0.1590223 -0.08638148 0.10040467
-0.076301716 0.0774434 -0.030027179 0.21633796 -0.005840085 0.093061715 0.16465387 0.18376885
0.3167118 0.079684414 0.0013934056 -0.03953839 -0.10629968 0.1862438 -0.06924818 -0.034510333
00000000: 962a 133d 0718 353e cfb3 6abd c6f7 693e
00000010: 0c43 223b d5c2 aa3d c021 36bd 0e5a 283e
00000020: 392a 143c 4038 4d3e cb35 99bc 3d56 aa3d
00000030: a6cc d13d 3079 433e 8937 833d 80a1 82bd
00000040: 0c55 0b3e 644c 723e 3819 eb3c 1a93 433d
00000050: c16f a73d 00c9 66bb 5c0e d9bb 3444 f53d
00000060: 5e20 423e dd60 f13c ed9a e8bb 482f 39bd
00000070: 3ce7 0d3e b78e d23d 8656 393e 505f 2f3e
00000080: 6bc6 cc3d 2b7f 5f3e cd90 6dbd d860 b43d
00000090: 8dd6 07bd 6cb2 2e3e a499 c33d d7d2 353d
000000a0: e601 2fbb c03c 9dbc ed7c 703d c057 bebd
000000b0: 5b7c 97bd bac0 223e 141f 183e b372 4c3d
000000c0: e653 bcbb 283c a53d d80f 11bd 5f63 eabb
000000d0: a570 e03d fbe3 243c 7a6e 233e 64ec 0b3e
000000e0: 1c20 7a3d 6cbe 353c 6067 0a3e f25b 603d
000000f0: c3bf d63d 3d9f 193e 3d84 053e 79c8 b83d
00000100: bef1 123e 2224 8f3d 6de6 eebc 8a48 0d3e
00000110: f52d 423d 8d63 ba3d 5b59 d93d 1e39 a6bd
00000120: c2eb 893c 5809 dc3d 071c 993b a52f cdbc
00000130: d99b f5bd 5b3f 06be 142b b5bc 8ca0 0e3e
00000140: 11ce 413e bee7 323d 48c7 be3d 28aa 05bd
00000150: 1f3e 21be e06f 723c 302a 83bc f995 8f3d
00000160: d02b 013e 0dc6 823d ed17 b2bd 9305 8a3d
00000170: c6fb ba3d 0bee 5a3e 3ee5 f43b 60ac 2cbe
00000180: 773a 4b3e f761 223e 8703 503b 4c17 15bd
00000190: fbe4 cd3c 875f 41bd 5778 a43d 676c 8bbd
000001a0: 4254 68bb 34e1 913d be51 b3bc 3527 543d
000001b0: d5d8 413c bed6 223e c6e8 b0bd f7a0 cd3d
000001c0: 1344 9cbd a59a 9e3d 8ffb f5bc b387 5d3e
000001d0: 2f5e bfbb 2497 be3d 069b 283e e72d 3c3e
000001e0: 0d28 a23e 9531 a33d efa2 b63a 02f3 21bd
000001f0: a6b3 d9bd b2b6 3e3e fdd1 8dbd b55a 0dbd

decoder_lstm.weight_ih_l0 f4 [64, 32]
0.14901298 -0.19476637 -0.1539156 0.038141645 -0.032285035 0.14246172 -0.17158026 -0.027152225
-0.041183535 -0.058092635 0.09139939 -0.10047759 -0.10427422 0.008664746 0.33668962 0.019505825
-0.25585914 -0.30824113 0.20868142 0.14507787 -0.35706574 0.12964648 0.089120045 0.24045445
-0.17436394 0.002822801 0.058959235 0.18153167 0.306988 0.0004828271 0.23462492 -0.33249253
0.051120456 0.1278985 -0.3161582 -0.012239268 0.15236574 0.33893067 -0.15212871 0.2702014
-0.059461765 0.27617973 0.2758589 -0.2723145 -0.07514565 0.15679629 0.2663367 -0.074929915
-0.2865659 0.082490325 0.3753506 -0.045352556 -0.37313524 0.20512056 -0.32437313 0.054272823
-0.08162886 -0.19774897 -0.12795982 0.1806102 0.13770534 -0.09958622 0.1316569 -0.22252278
-0.12515478 -0.105936356 -0.08109115 0.06291944 0.11927162 0.21994132 0.1777845 -0.17369318
-0.21172684 0.18904096 0.17989564 0.0061426805 0.14281118 0.00043409987 0.23994577 -0.07467017
0.24016781 -0.10289444 -0.13619818 -0.11427716 0.09470248 0.18322338 -0.27705425 -0.0759772
0.08259464 -0.18956251 0.044687003 0.16583006 -0.1807947 -0.1604041 0.15574358 -0.06079345
-0.14631699 -0.04910966 0.11960206 -0.059728693 0.27018365 0.23897466 0.15390785 0.27902746
0.010361564 0.2525521 0.09885055 0.2352836 -0.13965067 -0.1459621 -0.16702805 -0.16856045
-0.019334065 -0.064558536 -0.031456318 0.122523315 0.07737834 -0.0988612 0.072491586 -0.10233247
0.22465307 -0.21995088 0.050360862 -0.023537267 -0.063968346 0.22810422 0.26055795 0.045809124
0.20923513 0.20009208 0.25440782 -0.0016337693 -0.08039541 -0.18929882 0.38960356 -0.021321889
0.36377087 0.2915708 0.106368534 0.0898469 -0.27689064 -0.19850501 0.13412055 0.051161505
-0.089175604 -0.30804667 0.15588407 0.1567662 -0.14593235 0.0504429 -0.13348462 -0.09430296
0.03515969 -0.03359507 -0.11454845 0.037280146 0.15381299 -0.10677516 0.12257069 -0.35094932
0.0174021 -0.15952718 -0.15357406 0.3944116 -0.22737205 0.2508182 0.32075 0.4497169
0.026016735 0.1615927 0.26698732 -0.2792649 -0.020783097 0.1358647 0.13795915 0.06532363
-0.14242636 -0.39302096 0.07838086 0.011558032 -0.22767742 0.251052 -0.42409614 0.120198615
0.11928429 -0.19165558 -0.29053017 0.08346732 0.45444074 0.13313286 0.10186925 -0.36143342
-0.13262963 -0.12134445 -0.032810688 0.015629848 0.08909523 0.11438847 0.2714608 0.3172189
-0.2533446 -0.07658539 0.3306251 -0.14619672 0.035237845 0.06444186 0.41863865 0.34792137
-0.0999416 -0.09814709 0.4021239 0.23501298 -0.08427207 0.006635454 -0.3584174 -0.018073317
0.18133442 -0.34800658 0.20739119 0.2148471 0.33568376 0.37440228 0.4244903 -0.21311751
-0.20441169 -0.1910167 -0.25962844 0.2732275 0.24759641 -0.062499445 -0.049903013 -0.013982869
0.0026731084 0.4009681 0.22679293 -0.11970027 -0.29866824 0.014926756 0.3926555 0.32133412
-0.021352341 -0.21097542 0.28740367 0.09676427 -0.14832124 0.29852116 -0.2399551 0.2661303
0.34112135 -0.3889711 -0.23137128 0.26873454 0.1694893 0.25366843 0.29050383 -0.11493951
00000000: dc96 183e d670 47be 0d9c 1dbe 6a3a 1c3d
00000010: 503d 04bd 7ce1 113e bcb2 2fbe 586e debc
00000020: 11b0 28bd 8bf2 6dbd 9a2f bb3d 32c7 cdbd
00000030: b98d d5bd 94f6 0d3c 9562 ac3e aeca 9f3c
00000040: f8ff 82be c8d1 9dbe 95b0 553e 4b8f 143e
00000050: 52d1 b6be 0cc2 043e 9284 b63d b139 763e
00000060: 768c 32be befe 383b 3d7f 713d 70e3 393e
00000070: 882d 9d3e f523 fd39 8441 703e 763c aabe
00000080: af63 513d d3f7 023e 7ddf a1be 3687 48bc
00000090: c405 1c3e 5288 ad3e a1c7 1bbe d757 8a3e
000000a0: 2e8e 73bd 6e67 8d3e 613d 8d3e ce6c 8bbe
000000b0: f6e5 99bd 358f 203e 495d 883e db74 99bd
000000c0: c4b8 92be b0f0 a83d f42d c03e 9ac3 39bd
000000d0: 950b bfbe 200b 523e 3c14 a6be 2e4d 5e3d
000000e0: 082d a7bd b57e 4abe e607 03be e1f1 383e
000000f0: a102 0d3e dcf3 cbbd 11d1 063e 03dd 63be
00000100: 9328 00be 29f5 d8bd 1e13 a6bd e8db 803d
00000110: ae44 f43d 4c38 613e 240d 363e a0dc 31be
00000120: ecce 58be f493 413e 9036 383e 8a48 c93b
00000130: 183d 123e e697 e339 58b4 753e adec 98bd
00000140: 8dee 753e 52ba d2bd 8977 0bbe 250a eabd
00000150: 60f3 c13d e99e 3b3e 0eda 8dbe ef99 9bbd
00000160: 6127 a93d ad1c 42be b809 373d 5bcf 293e
00000170: 3f22 39be f940 24be 3f7b 1f3e 8d02 79bd
00000180: 1fd4 15be 3627 49bd edf1 f43d 13a6 74bd
00000190: 8355 8a3e c6b5 743e 059a 1d3e b0dc 8e3e
000001a0: 8dc3 293c 824e 813e 2872 ca3d 2fee 703e
000001b0: 9600 0fbe 1777 15be 6709 2bbe 1c9b 2cbe
000001c0: 7962 9ebc 4437 84bd 57d8 00bd 81ed fa3d
000001d0: 8978 9e3d be77 cabd 7876 943d b093 d1bd
000001e0: 740b 663e ce3a 61be 3147 4e3d 3ad1 c0bc
000001f0: d601 83bd 2794 693e da67 853e 59a2 3b3d
00000200: bc41 563e f0e4 4c3e be41 823e 3324 d6ba
00000210: 59a6 a4bd 8dd7 41be 1e7a c73e 3eab aebc
00000220: 2d40 ba3e c548 953e bfd7 d93d a701 b83d
00000230: 9cc4 8dbe e644 4bbe e656 093e ba8e 513d
00000240: b3a1 b6bd 4bb8 9dbe 13a0 1f3e 5287 203e
00000250: 4a6f 15be 379d 4e3d 31b0 08be e921 c1bd
00000260: 9b03 103d fc9a 09bd 6198 eabd 11b3 183d
00000270: 2781 1d3e efac dabd 5806 fb3d a1af b3be
00000280: d98e 8e3c 185b 23be 8542 1dbe 51f0 c93e
00000290: 38d4 68be 3e6b 803e 5839 a43e 4b41 e63e
000002a0: 0c21 d53c 8f78 253e 90b2 883e cffb 8ebe
000002b0: 5041 aabc 1e20 0b3e 2a45 0d3e 65c8 853d
000002c0: 37d8 11be 0b3a c9be 2586 a03d e65d 3d3c
000002d0: 4524 69be e389 803e 2123 d9be b12a f63d
000002e0: 524b f43d 5c41 44be 5fc0 94be eaf0 aa3d
000002f0: 75ac e83e fb53 083e d3a0 d03d cd0d b9be
00000300: 10d0 07be 7083 f8bd 8064 06bd 2b0a 803c
00000310: 8f77 b63d 8144 ea3d e9fc 8a3e 846a a23e
00000320: 62b6 81be cdd8 9cbd b147 a93e 98b4 15be
00000330: 8f55 103d 18fa 833d ce57 d63e c022 b23e
00000340: 2eae ccbd 5701 c9bd 2fe3 cd3e 3ea7 703e
00000350: d696 acbd 396e d93b 7c82 b7be 7e0e 94bc
00000360: bbaf 393e eb2d b2be 5b5e 543e e100 5c3e
00000370: bede ab3e a8b1 bf3e cb56 d93e 7a3b 5abe
00000380: 4c51 51be e299 43be 05ee 84be 7ae4 8b3e
00000390: ea89 7d3e 6bff 7fbd 1a67 4cbd 6718 65bc
000003a0: 512f 2f3b b14b cd3e 683c 683e 6a25 f5bd
000003b0: 0beb 98be 5a8f 743c 240a c93e e885 a43e
000003c0: 1beb aebc f109 58be 9326 933e 582c c63d
000003d0: 86e1 17be c4d7 983e cab6 75be 3b42 883e
000003e0: 75a7 ae3e 3827 c7be 98ec 6cbe 9397 893e
000003f0: 9a8e 2d3e d4e0 813e ebbc 943e 6865 ebbd

decoder_lstm.weight_hh_l0 f4 [64, 16]
-0.29228997 0.041345105 0.011348453 0.29361075 -0.15199363 0.18285342 0.2031825 -0.13398868
0.16869295 0.12532893 0.10271736 -0.09095258 -0.296986 -0.15496324 -0.13552243 0.30298394
-0.1942215 -0.22665168 0.06833134 -0.03150041 -0.303406 0.03289645 -0.026880983 0.037158616
0.2842775 0.14240049 -0.32508782 -0.22232565 0.07209349 -0.13377169 -0.34911928 0.056786537
-0.023850244 -0.24872524 0.09487244 0.06398668 -0.18317197 -0.031032067 -0.06530696 0.0015719362
0.07360918 0.05514233 0.124398194 -0.14147994 -0.007283626 -0.026439125 0.14471431 0.12097368
-0.06996598 0.032817584 0.010089542 0.075706445 -0.021582076 0.31598225 -0.038147807 0.157352
0.29118013 -0.07491453 -0.12890154 -0.08490945 -0.22001949 0.075282656 0.13229866 -0.011211594
0.09773797 -0.20250657 0.2442336 0.02624178 -0.19613203 0.23946226 -0.06934559 0.34473538
0.0443431 0.04801294 0.111966036 0.13818248 -0.2286227 0.15205567 0.15706424 0.050990265
-0.14866072 -0.1820815 0.3330199 0.36529732 -0.31066412 0.2776814 0.24163803 -0.0241391
0.26721182 -0.1479469 0.062791556 -0.2590018 -0.273241 0.14309838 -0.29304475 0.2474472
-0.10508159 -0.4064512 0.0050021233 0.11506276 -0.31379423 -0.024291243 0.023708457 -0.19764084
0.10133986 0.0899363 -0.20473623 0.053913835 -0.3146453 0.17457227 -0.05126718 0.19035886
-0.36008352 -0.110543594 0.28324124 0.14441194 -0.06274399 0.050026476 -0.087279655 0.14091614
0.119223796 0.12752223 -0.1692685 -0.11004981 0.07546507 0.059717905 -0.1394417 0.10102106
-0.070194416 0.06786469 -0.14887342 0.19026376 -0.26806363 -0.18482727 0.033458617 -0.064909
0.009170322 0.2656742 -0.1496837 0.10737096 -0.099382415 0.051082637 -0.00809164 -0.025726896
-0.13133137 -0.079756945 0.40187517 0.04198283 -0.37715843 0.10444769 0.05169098 0.09955151
0.3686084 0.022001475 -0.2366762 -0.22988774 -0.1231336 -0.068385966 0.054840654 0.0037280214
-0.29371622 -0.08124485 0.12991689 0.1451479 -0.06735006 -0.07752358 -0.10282874 -0.07563073
0.35423207 0.27574232 -0.27903116 -0.13919309 -0.08436201 0.00060953305 -0.40135154 0.22491962
-0.37383065 0.01177341 0.110611126 0.14123163 -0.15525307 0.00051906693 0.094235055 0.12380128
0.11169468 -0.100017935 0.16299148 0.06452938 -0.14434238 0.037182376 -0.14131302 0.30537143
-0.23271365 0.046258744 0.3155148 0.43517017 -0.0010268247 0.15082642 0.14949422 -0.081015356
0.00091615674 0.031413518 -0.1045128 -0.14762746 -0.17261283 0.22657599 0.06774835 0.21387725
-0.3262184 -0.21281472 0.05291209 0.04574543 -0.15389878 0.4129151 0.30163646 -0.2847392
0.21733543 -0.20761983 -0.2438956 0.30192676 -0.16032235 -0.26812437 -0.38163182 0.2405461
0.14771023 -0.15819223 0.14856607 0.30199578 0.07045238 -0.09593105 0.097589746 0.2943028
0.13192765 0.1547602 0.030155769 0.18830754 0.106183365 0.08753694 0.060230497 0.20646004
-0.17144285 -0.19019152 0.40003312 0.023243189 -0.3648042 -0.08960158 0.19511895 0.20702189
0.4552012 0.03099333 -0.048307024 0.22170866 -0.248693 0.10348894 -0.44869104 0.19492815
00000000: 08a7 95be 7c59 293d ddee 393c 2654 963e
00000010: 38a4 1bbe ed3d 3b3e 130f 503e 5434 09be
00000020: d8bd 2c3e 3a56 003e 7b5d d23d 5945 babd
00000030: 8d0e 98be afae 1ebe 64c6 0abe b620 9b3e
00000040: 00e2 46be 6117 68be 4df1 8b3d 9306 01bd
00000050: 0858 9bbe 6ebe 063d 8235 dcbc a233 183d
00000060: d28c 913e 6fd1 113e e971 a6be 56a9 63be
00000070: c0a5 933d 72fb 08be c3bf b2be 0099 683d
00000080: 9661 c3bc d4b1 7ebe 7b4c c23d 730b 833d
00000090: 6f91 3bbe f636 febc a8bf 85bd 6d09 ce3a
000000a0: 69c0 963d ecdc 613d 7bc4 fe3d 1ee0 10be
000000b0: 7cab eebb dd96 d8bc fd2f 143e 0cc1 f73d
000000c0: 534a 8fbd bb6b 063d 9b4e 253c fb0b 9b3d
000000d0: e5cc b0bc 6dc8 a13e e040 1cbd e220 213e
000000e0: 9015 953e ca6c 99bd c4fe 03be 01e5 adbd
000000f0: ca4c 61be cb2d 9a3d 4d79 073e d5b0 37bc
00000100: d82a c83d e25d 4fbe 5f18 7a3e 00f9 d63c
00000110: d6d6 48be 9835 753e 1005 8ebd 2881 b03e
00000120: 1ca1 353d 37a9 443d 734e e53d b57f 0d3e
00000130: 121c 6abe 7bb4 1b3e 73d5 203e 2bdb 503d
00000140: 843a 18be 9373 3abe 9681 aa3e 4008 bb3e
00000150: 5e0f 9fbe 422c 8e3e f66f 773e 5dbf c5bc
00000160: fdcf 883e 647f 17be dc98 803d e29b 84be
00000170: 3fe6 8bbe 6288 123e f609 96be cc62 7d3e
00000180: 0435 d7bd 5f1a d0be dae8 a33b 06a6 eb3d
00000190: a3a9 a0be 6efe c6bc 3d38 c23c 5c62 4abe
000001a0: 468b cf3d 8630 b83d 60a6 51be c1d4 5c3d
000001b0: 3019 a1be 13c3 323e 89fd 51bd 6fed 423e
000001c0: de5c b8be ae64 e2bd ff04 913e b9e0 133e
000001d0: ec7f 80bd 90e8 4c3d adbf b2bd 524c 103e
000001e0: 9b2b f43d 3095 023e b954 2dbe cb61 e1bd
000001f0: 6e8d 9a3d c39a 743d cec9 0ebe 21e4 ce3d
00000200: 17c2 8fbd a5fc 8a3d 4672 18be 81d4 423e
00000210: a33f 89be 5c43 3dbe e70b 093d 03ef 84bd
00000220: 1e3f 163c 7306 883e af46 19be 4ee5 db3d
00000230: 0289 cbbd 073c 513d cc92 04bc 36c1 d2bc
00000240: bb7b 06be 9c57 a3bd 95c2 cd3e 30f6 2b3d
00000250: e91a c1be ace8 d53d ecb9 533d a9e1 cb3d
00000260: 3dba bc3e 703c b43c 3f5b 72be b167 6bbe
00000270: 782d fcbd f10d 8cbd 98a0 603d d251 743b
00000280: f961 96be b363 a6bd ef08 053e a7a1 143e
00000290: d4ee 89bd afc4 9ebd e097 d2bd 49e4 9abd
000002a0: e85d b53e 192e 8d3e 2cdd 8ebe a288 0ebe
000002b0: fdc5 acbd 12c9 1f3a f37d cdbe 5451 663e
000002c0: bb66 bfbe 43e5 403c 1688 e23d 069f 103e
000002d0: a9fa 1ebe fe11 083a 4ffe c03d 878b fd3d
000002e0: 2ec0 e43d 34d6 ccbd 3de7 263e fb27 843d
000002f0: 7dce 13be 8c4c 183d 5cb4 10be a559 9c3e
00000300: 7d4c 6ebe cf79 3d3d 288b a13e a0ce de3e
00000310: 8596 86ba 3e72 1a3e 0315 193e 61eb a5bd
00000320: 3d2a 703a 76ab 003d cf0a d6bd a72b 17be
00000330: 6bc1 30be 8903 683e a6bf 8a3d a302 5b3e
00000340: 1906 a7be 1aec 59be 59ba 583d 8f5f 3b3d
00000350: a497 1dbe 9c69 d33e 1870 9a3e 56c9 91be
00000360: 2e8d 5e3e 4b9a 54be c5bf 79be 2596 9a3e
00000370: 8b2b 24be 9947 89be 3f65 c3be b851 763e
00000380: 5a41 173e 25fd 21be b421 183e 319f 9a3e
00000390: 5649 903d 8077 c4bd 22dd c73d dbae 963e
000003a0: 0b18 073e 7579 1e3e 3b09 f73c b1d3 403e
000003b0: aa76 d93d 9146 b33d 41b4 763d 436a 533e
000003c0: b78e 2fbe 91c1 42be 24d1 cc3e 8068 be3c
000003d0: 9ec7 babe 0881 b7bd 43cd 473e 8cfd 533e
000003e0: 2210 e93e b9e5 fd3c 96dd 45bd 9807 633e
000003f0: 61a9 7ebe 02f2 d33d d5ba e5be 3f9b 473e

decoder_lstm.bias_ih_l0 f4 [64]
0.10658639 0.17152904 0.26882902 -0.0800788 0.023514943 0.16782898 0.14281963 0.20061702
0.06605661 -0.10541373 0.32984236 0.13260959 0.33212185 0.15051056 0.15811469 -0.05117232
0.0910721 0.18748398 0.24635802 0.03475614 0.11485266 -0.15197921 -0.17999972 0.19585803
-0.0019326349 0.24817708 -0.10096694 0.103259854 0.17783202 0.14437088 -0.11558853 0.050875284
-0.000787899 -0.21786469 0.20803072 -0.045340497 -0.1284955 -0.10025071 -0.23082954 0.017695602
0.1625466 0.13928731 0.26568025 0.06320412 0.009691905 0.2120274 0.07972548 0.16914234
0.3282345 0.2708716 -0.13543475 -0.1716317 -0.034039885 0.053029697 0.37031725 -0.032273047
0.22971456 -0.103608005 0.11903002 0.33905652 0.02777422 -0.00073082047 0.21432741 0.11752728
00000000: f749 da3d 4fa5 2f3e f5a3 893e 5b00 a4bd
00000010: 69a2 c03c 5cdb 2b3e 4f3f 123e 8c6e 4d3e
00000020: b048 873d 27e3 d7bd 19e1 a83e cfca 073e
00000030: e00b aa3e 711f 1a3e d1e8 213e 119a 51bd
00000040: 0284 ba3d cdfb 3f3e 4745 7c3e 745c 0e3d
00000050: df37 eb3d 70a0 1bbe d951 38be 028f 483e
00000060: 7750 fdba 2222 7e3e c1c7 cebd e779 d33d
00000070: 9919 363e f6d5 133e aeb9 ecbd 9a62 503d
00000080: 028b 4eba ec17 5fbe 0106 553e f5b6 39bd
00000090: 5394 03be 3f50 cdbd 945e 6cbe 5ef6 903c
000000a0: 9e72 263e 55a1 0e3e 3e07 883e 2971 813d
000000b0: ccca 1e3c b61d 593e 1d47 a33d a633 2d3e
000000c0: 5a0e a83e afaf 8a3e 68af 0abe 38c0 2fbe
000000d0: 686d 0bbd ab35 593d 399a bd3e be30 04bd
000000e0: 4b3a 6b3e 6f30 d4bd 03c6 f33d d198 ad3e
000000f0: c386 e33c 8894 3fba a578 5b3e 24b2 f03d

decoder_lstm.bias_hh_l0 f4 [64]
0.30262706 0.30883712 0.104237616 0.102312155 -0.014534252 0.1017386 -0.052457888 0.28193983
0.103361435 0.25140092 0.022703417 0.39622584 0.1718169 0.016805865 -0.032406177 0.12978238
0.23218775 -0.18874387 0.114044465 0.29031122 -0.20692766 -0.015668858 0.14016336 0.04682834
0.30444214 0.13961205 -0.08690161 -0.08075086 -0.07015899 -0.08906461 0.22892506 0.1962831
-0.26857316 -0.15610355 -0.05784577 0.084224805 -0.025608288 0.16288827 0.18524033 0.116644055
0.046860892 -0.12747815 -0.13284372 0.012608248 0.031393345 0.177033 -0.27008718 0.06624703
-0.017129168 -0.061772533 0.2217388 0.24286285 -0.12394279 0.1656594 0.011171281 0.20726988
-0.12560481 0.25565693 -0.0115699945 0.21850716 -0.0038504188 0.017412167 0.22558595 0.099719875
00000000: eff1 9a3e e61f 9e3e 887a d53d 0989 d13d
00000010: 1221 6ebc 545c d03d 15de 56bd 6b5a 903e
00000020: 29af d33d 9fb7 803e 84fc b93c 1dde ca3e
00000030: c5f0 2f3e 74ac 893c 57bc 04bd ace5 043e
00000040: a0c2 6d3e 1346 41be 2590 e93d aca3 943e
00000050: d8e4 53be fa5b 80bc fc86 0f3e 13cf 3f3d
00000060: d7df 9b3e 76f6 0e3e 79f9 b1bd b560 a5bd
00000070: 84af 8fbd 8267 b6bd 556b 6a3e 70fe 483e
00000080: 6c82 89be 9cd9 1fbe b0ef 6cbd 0e7e ac3d
00000090: 79c8 d1bc 2fcc 263e a4af 3d3e 14e3 ee3d
000000a0: 35f1 3f3d a289 02be 2f08 08be d392 4e3c
000000b0: 4f96 003d 2448 353e de48 8abe 86ac 873d
000000c0: 7852 8cbc 3205 7dbd 7f0f 633e 0ab1 783e
000000d0: b8d5 fdbd 9ea2 293e c007 373c 8e3e 543e
000000e0: 8c9e 00be 77e5 823e 1390 3dbc 57c0 5f3e
000000f0: 4f57 7cbb f6a3 8e3c 0100 673e ef39 cc3d

fc.weight f4 [20, 16]
-0.54065555 -0.49085206 -0.25959226 -0.0014588987 -0.49291912 0.32788387 0.18887712 0.68907726
-0.22601545 0.6055893 -0.24987178 -0.7375852 -0.5180837 -0.39046335 0.6372875 0.3516008
0.21292898 0.090638325 0.11107098 -0.19876331 0.15582412 0.08446576 -0.23621023 -0.03657222
-0.32959035 -0.0012451502 -0.25217727 0.2996072 -0.17728582 0.04218297 0.0065552583 -0.010311341
-0.3417367 0.57579273 0.22587095 0.19532122 -0.42442408 -0.44510496 0.3145669 0.2071142
0.2742703 0.45626822 -0.42900336 -0.065630175 0.58094436 0.19594549 -0.22669153 0.04997251
-0.17476895 -0.020173315 0.14143969 0.25215667 -0.25003242 -0.6702092 -0.4176803 -0.24160005
0.13243368 -0.39254877 0.22190215 0.33085164 -0.03933223 0.34900022 0.067026936 0.19549741
0.33895922 0.038560968 -0.1336412 -0.29709414 0.046242364 -0.20276773 -0.083235815 0.051321313
-0.4308505 -0.07678603 0.18575588 0.1527945 0.22863925 0.006432666 0.27552548 -0.3257545
0.14593239 0.2145914 -0.030688062 0.026844695 0.045624584 -0.08092426 -0.18854176 -0.26424927
-0.3284747 0.21962202 0.32801202 0.10997089 0.24393898 0.028604921 0.057750076 -0.28568712
0.2592712 0.14134932 -0.19379912 -0.14285775 0.058038585 -0.044330835 0.0078105573 -0.36946934
-0.20924415 0.10554601 -0.05381469 0.16281557 0.040478252 -0.20462 0.11939093 0.2364834
0.06199177 -0.23867305 0.17865455 0.16870895 0.13242802 -0.3964665 0.27468935 -0.23729922
-0.014828788 -0.23094793 0.08593286 0.26304543 0.109207794 0.47808382 -0.2288836 -0.09408477
0.20402114 -0.21850467 0.2934143 0.35820603 -0.42568994 0.5290967 0.25060666 0.37679666
0.37673214 -0.40584576 0.54677874 -0.2892637 -0.40374723 -0.504404 -0.022221208 -0.5542128
-0.17912857 0.42768264 0.2939945 0.36796555 -0.30894035 0.5972512 0.09286664 0.5694056
-0.52629364 0.20903435 -0.3373986 -0.112696774 0.48005208 0.5680026 -0.42750347 0.12968804
-0.025284227 -0.18348216 0.21667981 -0.28152686 0.1064406 0.19202271 0.23981911 -0.34104016
0.15899454 0.1802817 -0.01824143 0.115568005 -0.14296094 0.018578174 -0.2586869 0.30305243
0.13329238 -0.1956958 -0.0027889556 -0.28764248 0.3601768 0.27193505 -0.3051986 -0.16758959
-0.2585535 0.04747043 0.4613479 -0.100346155 -0.21849172 -0.014286084 0.13459063 -0.34657687
0.22482058 -0.30829686 0.0010165444 0.10931202 0.22608706 0.07939921 -0.14605768 -0.116136074
0.24043863 -0.15353326 -0.018664805 0.24856871 -0.3587642 0.0052714017 -0.029173054 0.2733203
0.29033014 0.12731034 0.07020556 0.099484324 0.28914663 -0.45061725 -0.30043006 -0.30900827
-0.16129644 0.22865349 -0.042177204 0.035400074 -0.075561754 -0.14100772 -0.2393359 0.26442325
0.009488479 0.30072913 -0.12984546 0.08930592 -0.05809172 -0.41040966 0.28811964 -0.37818235
0.20030485 0.15237068 -0.06017103 0.08008041 -0.11655698 0.11813388 0.07837915 -0.09524727
0.35456586 0.3262697 -0.34598193 -0.4207866 0.11043357 -0.107319504 -0.14215244 0.1591316
-0.33960226 -0.06416981 0.011592085 0.20946634 -0.06705357 0.1005224 0.032897957 -0.10802142
00000000: 6768 0abf f650 fbbe 47e9 84be 8438 bfba
00000010: e55f fcbe 65e0 a73e 0169 413e 5e67 303f
00000020: 9870 67be e607 1b3f 63de 7fbe 62d2 3cbf
00000030: 22a1 04bf d0ea c7be 4625 233f 0505 b43e
00000040: 0e0a 5a3e 96a0 b93d 2f79 e33d 9c88 4bbe
00000050: 5c90 1f3e 62fc ac3d 18e1 71be c1cc 15bd
00000060: 11c0 a8be 4f34 a3ba 611d 81be 1d66 993e
00000070: 6a8a 35be 0dc8 2c3d 7ecd d63b e6f0 28bc
00000080: 1df8 aebe 2767 133f b74a 673e 4902 483e
00000090: 1d4e d9be cce4 e3be ea0e a13e bf15 543e
000000a0: 286d 8c3e fd9b e93e 54a6 dbbe 1d69 86bd
000000b0: c5b8 143f efa5 483e d321 68be faaf 4c3d
000000c0: a2f6 32be 8242 a5bc 91d5 103e ae1a 813e
000000d0: 4004 80be d592 2bbf 31da d5be 0166 77be
000000e0: b29c 073e 27fc c8be 513a 633e 6365 a93e
000000f0: d51a 21bd 28b0 b23e 6b45 893d 7930 483e
00000100: 108c ad3e 1bf2 1d3d 3dd9 08be b91c 98be
00000110: a268 3d3d 58a2 4fbe 8a77 aabd 4c36 523d
00000120: 7098 dcbe fe41 9dbd ca36 3e3e 2976 1c3e
00000130: 6820 6a3e 1dc9 d23b ad11 8d3e 4bc9 a6be
00000140: 4d6f 153e d9bd 5b3e 8865 fbbc 68e9 db3c
00000150: d8e0 3a3d 9ebb a5bd 1711 41be ae4b 87be
00000160: d62d a8be 98e4 603e 31f1 a73e 6b38 e13d
00000170: 24cb 793e de54 ea3c 588b 6c3d 9545 92be
00000180: 32bf 843e e0bd 103e 4773 46be 4d49 12be
00000190: deb9 6d3d 4094 35bd b4ef ff3b 162b bdbe
000001a0: 1944 56be 8228 d83d cb6c 5cbd 20b9 263e
000001b0: 86cc 253d e887 51be 3b83 f43d b428 723e
000001c0: 15eb 7d3d b566 74be 38f1 363e 0ac2 2c3e
000001d0: 369b 073e a8fd cabe 15a4 8c3e 91fe 72be
000001e0: 72f4 72bc 9d7d 6cbe 91fd af3d e4ad 863e
000001f0: 56a8 df3d 67c7 f43e 7660 6abe 84af c0bd
00000200: ebea 503e b0bf 5fbe 663a 963e c866 b73e
00000210: 08f4 d9be e272 073f 844f 803e 7eeb c03e
00000220: 09e3 c03e 04cb cfbe b1f9 0b3f 5f1a 94be
00000230: f5b7 cebe 9f20 01bf 4009 b6bc e4e0 0dbf
00000240: 7b6d 37be 38f9 da3e 7286 963e fb65 bc3e
00000250: 6e2d 9ebe 74e5 183f dd30 be3d 91c4 113f
00000260: 2ebb 06bf 1a0d 563e 82bf acbe 91cd e6bd
00000270: 63c9 f53e 9e68 113f bce1 dabe f1cc 043e
00000280: de20 cfbc bfe2 3bbe 50e1 5d3e 4a24 90be
00000290: 87fd d93d 9aa1 443e 2493 753e d19c aebe
000002a0: 77cf 223e c49b 383e 0d6f 95bc ebae ec3d
000002b0: 5a64 12be 4131 983c 9c72 84be b029 9b3e
000002c0: cc7d 083e 7b64 48be e9c6 36bb e045 93be
000002d0: 1869 b83e 123b 8b3e fe42 9cbe 9b9c 2bbe
000002e0: 2061 84be 5b70 423d cb35 ec3e 4982 cdbd
000002f0: 4bbc 5fbe 2e10 6abc 20d2 093e 8672 b1be
00000300: 5e37 663e 16d9 9dbe 923d 853a fbde df3d
00000310: 5e83 673e 0e9c a23d 2590 15be c0d8 edbd
00000320: 8b35 763e d337 1dbe efe6 98bc cc88 7e3e
00000330: f1af b7be b9bb ac3b 54fc eebc a3f0 8b3e
00000340: 27a6 943e a45d 023e efc7 8f3d 70be cb3d
00000350: 070b 943e 4eb7 e6be f8d1 99be 5536 9ebe
00000360: e52a 25be 2424 6a3e 01c2 2cbd abff 103d
00000370: 1fc0 9abd 5464 10be 7814 75be 7c62 873e
00000380: 9175 1b3c 2bf9 993e 35f6 04be 06e6 b63d
00000390: 95f1 6dbd 3721 d2be 6b84 933e 1ea1 c1be
000003a0: b71c 4d3e 0f07 1c3e e675 76bd 3301 a43d
000003b0: 6db5 eebd 2df0 f13d 3f85 a03d 0011 c3bd
000003c0: a889 b53e d20c a73e 8b24 b1be 5771 d7be
000003d0: ff2a e23d 54ca dbbd 6990 11be 65f3 223e
000003e0: 59e0 adbe 766b 83bd baec 3d3c 587e 563e
000003f0: 6253 89bd b0de cd3d 02c0 063d 563a ddbd

fc.bias f4 [20]
-0.040357888 0.1189973 0.026929144 0.028048186 -0.135134 -0.14812648 0.1305523 -0.03548339
-0.070953526 0.26855218 0.09526997 -0.09229956 -0.1616102 -0.07544872 -0.20239133 0.02296267
-0.21064994 -0.006757942 0.30237696 -0.15310627
00000000: 504e 25bd dbb4 f33d 829a dc3c 4fc5 e53c
00000010: 9160 0abe 78ae 17be 81af 053e 0857 11bd
00000020: 1550 91bd ac7f 893e e71c c33d 8d07 bdbd
00000030: 257d 25be dc84 9abd ac3f 4fbe 361c bc3c
00000040: 9eb4 57be ba71 ddbb 27d1 9a3e e4c7 1cbe
