lstm_ckpts/lstm-epoch=01-train_loss=1.35.ckpt (torch, 336478 bytes, 33 tensors)

embedding.weight f4 [20, 128]
000000 87 73 8b bf 68 9e 89 3f d4 0a 75 3e b7 fa 4f bd
       -1.0894631 1.0751467 0.23929912 -0.05077621
000010 dd a0 dd 3e 77 da 0c bf 82 0c 81 3e ca d1 54 3f
       0.4328679 -0.5502085 0.25204855 0.8313261
000020 c1 46 b7 bd 27 27 64 be 3c f5 13 3f ed e4 87 3f
       -0.08949042 -0.2228056 0.5779607 1.0616738
000030 12 a2 fe 3e 98 8e 88 3e 7c 48 84 bf e1 8d e2 be
       0.49733025 0.2667129 -1.033462 -0.4424887
000040 c2 16 96 be cb cb 0e bf 89 c6 8e bf e8 b5 96 3f
       -0.29314238 -0.55779713 -1.1154338 1.1774263
000050 0f c0 b4 bf 4d 05 08 40 dd 9d 7d 3f 91 49 d4 bf
       -1.4121112 2.1253235 0.99069005 -1.6584951
000060 5e 77 26 40 17 8b 58 3f 14 79 1f 3f 3b c0 1f c0
       2.6010356 0.84587234 0.62294126 -2.4961078
000070 d3 35 2c bf 8c ad 66 3f 0d f5 89 3e 63 7b a8 3f
       -0.6726963 0.9010856 0.2694477 1.3162655
000080 64 bf 2f 3f 4c d2 9f bf 57 66 c3 3f 62 66 6e bc
       0.68651414 -1.2486053 1.5265607 -0.014550777
000090 fe 6e 0d 3f 7a e9 7a bf 87 bc b3 3f 17 b0 ec be
       0.55247486 -0.98012507 1.4041909 -0.46228096
0000a0 17 e7 76 bf c5 cc b4 3f 14 62 0e be 8d 77 a8 3e
       -0.96446365 1.4124991 -0.13904601 0.3290371
0000b0 da 83 f0 3e ae 91 da 3f 26 d6 91 3e 30 e0 c8 3d
       0.46975595 1.7075708 0.28483695 0.09808385
0000c0 93 3d a3 bf c5 00 d8 bf 6b 15 93 3f df b6 1b 3f
       -1.2753166 -1.6875235 1.1490911 0.60825914
0000d0 1e 4a 70 bf c1 3b b6 bf 9d ce a4 bd 01 87 51 be
       -0.93863094 -1.4236985 -0.08047221 -0.20461656
0000e0 f6 97 59 3f 20 7b eb be e1 19 5f 3e cf fe 6f 3f
       0.849975 -0.45992374 0.21787216 0.9374818
0000f0 fa 79 81 bf 79 31 96 bf dc 6b 63 3e 23 8d 35 bf
       -1.0115349 -1.1733848 0.22209114 -0.7091848
000100 a0 12 09 40 54 84 94 bf 5a 12 40 3e ea 28 95 bf
       2.1417618 -1.1602883 0.18757 -1.1653111
000110 0e fe 8d 3f 74 3a 91 3f d5 66 df bf f2 60 d5 3f
       1.1093156 1.1345963 -1.7453257 1.667021
000120 29 11 3e bf 81 92 0e bf a6 38 84 3e 35 5e 9d bf
       -0.74244934 -0.556923 0.2582447 -1.2294375
000130 95 bb 3e bf d9 78 2f bf 72 10 f4 bf d3 d9 6e 3f
       -0.7450498 -0.68543774 -1.9067519 0.93301123
000140 eb 1a ff bf 0a 82 07 be ec dc 56 3d 78 1e 9a 3f
       -1.993009 -0.132332 0.05245678 1.2040548
000150 f7 18 6a be ec 21 92 be c3 58 ab bd fa d0 b3 bf
       -0.22861086 -0.28541505 -0.08366539 -1.404815
000160 da 94 22 bf 48 64 aa 3f 59 a6 08 40 b3 a9 ef 3c
       -0.6350838 1.3311853 2.135153 0.029255724
000170 9b 65 2f 3f 11 00 a3 3f df 03 f7 bf 11 72 b8 bf
       0.6851441 1.2734395 -1.9298056 -1.440981
000180 61 ff 93 bf 03 3e 77 be aa 06 96 3f db 95 4d 3e
       -1.156231 -0.2414475 1.1720784 0.20076697
000190 e2 15 1f be 3e 67 6c 3f 3b ed af bf 4e 5c 9a bf
       -0.15535691 0.92345035 -1.3744272 -1.2059419
0001a0 ee 14 64 3e a9 ae 0b bf 1e 38 bb 3f 2e 23 d0 bf
       0.22273609 -0.54563385 1.4626501 -1.6260736
0001b0 5b 3d 8f bf d8 35 ec bf ec d0 ff bf 92 2f 75 bf
       -1.1190599 -1.8453932 -1.9985633 -0.9577571
0001c0 9c d0 c2 3e 24 17 75 3f ed a5 40 3f 72 c2 3e 3f
       0.3804978 0.95738435 0.7525318 0.7451545
0001d0 86 34 3b bf 8a d7 c6 bf b6 e2 f1 be af 3e f6 be
       -0.7312702 -1.5534527 -0.4724328 -0.480947
0001e0 e1 24 96 be f1 d3 99 be c0 63 b7 bf fa 54 83 bf
       -0.2932501 -0.3004451 -1.4327316 -1.0260308
0001f0 70 29 c3 3f ae 62 4c bf 30 0f 16 bf 04 b1 24 c0
       1.5247021 -0.79838073 -0.58616924 -2.5733042
000200 6c 36 96 bf 83 e8 f9 3f 30 cc 03 be 42 b4 db be
       -1.1735358 1.9524082 -0.1287086 -0.42910963
000210 fe 93 8a 3f 4b 90 26 be db 41 90 3c a3 87 6b 3f
       1.0826414 -0.16265981 0.017609527 0.9200384
000220 16 db 61 bf d4 76 b2 3f 15 cd 66 3e e7 10 7f 3f
       -0.88224924 1.3942513 0.2253917 0.99635166
000230 4d 71 0b c0 8e 8c 8f 3c 60 84 6a bd d4 88 6e 3f
       -2.1787903 0.017523076 -0.05725515 0.93177533
000240 24 94 48 bf 94 bf 86 bf 7c c1 ad bf eb 7c 1d 3d
       -0.78351045 -1.0527215 -1.3574672 0.03844921
000250 0e a7 85 3f 80 aa 14 be 89 e2 91 bf 63 a0 b1 3f
       1.0441606 -0.14518166 -1.1397258 1.3877071
000260 51 47 57 bf 9b a7 20 3f ab 23 6d bd 61 19 86 bf
       -0.84093195 0.62755746 -0.057895344 -1.0476495
000270 27 56 55 c0 f7 66 96 3e 22 36 29 bf 34 77 db be
       -3.3333833 0.2937543 -0.66098225 -0.42864382
000280 00 f2 8d 3f e5 ac 01 c0 0f 87 a9 bf e0 c7 8c bf
       1.1089478 -2.0261776 -1.3244342 -1.0998497
000290 b5 c0 9d 3f 9b 65 2d 3f 13 5b ad 3f 04 50 59 3e
       1.2324435 0.6773316 1.3543419 0.2122193
0002a0 68 74 0a 3d 1c b1 7e bf e7 13 08 c0 85 c2 fb be
       0.03380242 -0.99489 -2.1262147 -0.49171844
0002b0 20 1d 71 bf 1a c5 06 3f 9b 92 ab 3e 72 5c 84 bf
       -0.94185066 0.52644503 0.3351029 -1.0340712
0002c0 59 b4 64 3f 72 9a 66 3f 08 e4 25 bf 6c 9d 05 3e
       0.8933769 0.90079415 -0.64801073 0.13048333
0002d0 f0 fb ad 3d ee 1b cd 3e 08 68 c0 bf e6 d6 9b be
       0.08495319 0.4006037 -1.5031748 -0.30437392
0002e0 f3 54 6c bf 6e 7e dc be 88 45 c8 3e 28 fe 22 bf
       -0.9231712 -0.43065208 0.39115548 -0.6366906
0002f0 3f 04 0e bf 6d 9b 58 3f 30 7b 42 3e 8b 72 bb 3e
       -0.5547523 0.8461216 0.18992305 0.36610827
000300 03 45 99 3f e2 49 b7 38 7f 4d 40 3e 3b e8 ab be
       1.1974186 8.739882e-05 0.18779562 -0.33575615
000310 a4 c3 90 3e 49 b8 8c bf b0 47 14 40 1d 89 b2 3e
       0.28274262 -1.0993739 2.3168755 0.34870234
000320 e0 ab ea 3e 38 34 0f 3f 9b ee 04 c0 b6 52 f1 be
       0.45834255 0.55939054 -2.0770633 -0.47133416
000330 6d 7e 37 bf 8f af 7b 3e 36 02 9f bf c5 af a3 bf
       -0.71677285 0.24578689 -1.242255 -1.2788016
000340 12 88 fc bd 51 96 8d 3e 81 c7 e8 bc 1a 16 08 3f
       -0.12330641 0.27653745 -0.028415443 0.53158724
000350 d4 bb 36 bf b8 5a 2a bf 4d 87 4e be 7c 88 ef bf
       -0.7138035 -0.66544676 -0.201688 -1.8713527
000360 e8 03 ad be 00 f3 b2 3e 9e 36 36 c0 85 4c c3 bf
       -0.33792043 0.3495102 -2.8470836 -1.5257727
000370 47 10 f2 bd c0 5a b6 3f a5 c4 8c 3f 85 c7 d2 3e
       -0.11819511 1.4246445 1.0997511 0.41167846
000380 ad 29 14 3f 48 88 99 3f c7 f4 60 be 6a ef ed bd
       0.5787609 1.1994715 -0.21968375 -0.1161793
000390 76 32 6f bf 03 e3 01 bf a0 6e 2c bf ba 45 2e bf
       -0.9343637 -0.5073702 -0.673563 -0.68075144
0003a0 43 7b 19 be e0 30 89 3f 62 9f 95 3f 94 f4 7b bf
       -0.14988427 1.071804 1.1689265 -0.9842007
0003b0 2e 08 39 3f 86 c7 13 3f 8e 99 c8 be 33 f8 d1 bc
       0.72278106 0.57726324 -0.39179653 -0.025631046
0003c0 18 47 82 3f 60 5c 0c 40 fd 57 2f bf 75 2b 82 3f
       1.0177946 2.1931381 -0.68493634 1.0169512
0003d0 04 45 4c bf c6 2f a0 3f 19 80 75 bf 1c 0d 11 3f
       -0.7979281 1.2514579 -0.95898587 0.5666063
0003e0 62 77 07 c0 b3 be b6 be c0 ea 84 3e b5 8d 7b be
       -2.1166615 -0.35692367 0.2596035 -0.24565776
0003f0 4e fd 82 bf 78 c0 0d bf b7 a8 af 3f c0 ed 3d 3f
       -1.0233552 -0.5537181 1.3723363 0.741909

encoder_lstm.weight_ih_l0 f4 [128, 128]
000000 dc 33 59 3e f0 a6 50 bd 5e a3 09 3e 09 99 e9 3d
       0.21211189 -0.050940454 0.13441226 0.11406142
000010 4a 0e 55 bb d8 98 85 bd f4 68 c5 bd 7f 14 2f 3e
       -0.0032509738 -0.06523293 -0.09639159 0.17097662
000020 1f a9 d6 3d 05 c4 f3 bd d0 58 18 3c ed 8a af bd
       0.10481476 -0.11902622 0.009298518 -0.0857142
000030 99 ad 76 bc d3 bd 0c be b9 82 d9 3d c7 8d 45 bc
       -0.015056037 -0.13744287 0.106206365 -0.012057728
000040 53 45 84 bd b5 90 d3 ba 86 1d 51 be da 1c 02 be
       -0.06458535 -0.0016141149 -0.20421419 -0.12706318
000050 20 2b 4f be 72 25 a7 bb b9 7d d8 3d 3f 04 1a bd
       -0.20231295 -0.0051008994 0.10570855 -0.037601706
000060 4c 8b bb bd 57 9f 16 be 67 7a 62 3d 88 bc 1b 3e
       -0.09157428 -0.14709221 0.055292513 0.15208638
000070 ea d0 19 3d 34 db e5 bd e5 52 8c 3c f7 99 5d 3d
       0.03755275 -0.1122345 0.017129371 0.05410191
000080 ff c0 26 bd 05 b6 72 3e 82 f3 ad bd 75 e9 ed 3d
       -0.0407114 0.23702247 -0.08493711 0.11616794
000090 e5 b2 ba 3d ba d2 80 bd 8a 45 ef 39 dd e3 fe bc
       0.09116153 -0.06290193 0.00045637443 -0.031114513
0000a0 ff 9a 84 3d e1 35 10 be cd f1 fb bd c8 aa 2b 3e
       0.06474876 -0.14083053 -0.12301979 0.16764367
0000b0 b4 3a 4c bd b1 30 0c 3e 12 6b ba 3d 31 91 66 3d
       -0.04986067 0.1369045 0.09102453 0.05629081
0000c0 a8 1a f7 3d 0a ce b4 3c 75 9e de 3d 9c 15 23 3e
       0.12065631 0.022070903 0.10870067 0.15926212
0000d0 82 09 3d be c6 a4 04 be 51 90 b4 3d 29 a9 3d be
       -0.18460658 -0.12953481 0.08816589 -0.1852156
0000e0 6c 72 2f be 80 68 45 be fe ec 8e bd 9f eb 14 3e
       -0.17133492 -0.19278145 -0.069787964 0.14543007
0000f0 37 e1 c3 bd 3a 44 86 bc 03 cd c6 ba bf e1 cb bc
       -0.09564441 -0.016389955 -0.00151673 -0.024887918
000100 f0 fd 3a 3e 9d 6a 97 3d 4f 37 2b bd 08 6f 8e bd
       0.18260932 0.07393382 -0.041800793 -0.06954771
000110 c2 f9 05 be b2 4d 56 3d 39 3c 08 3e f5 0e 03 be
       -0.13083556 0.05232019 0.13304223 -0.12798674
000120 cf d9 cf 3d 4a 68 d4 3d 6d 4e 27 3d e2 60 19 be
       0.101489656 0.10371454 0.040846277 -0.14978364
000130 e7 bf 22 be 5e e7 4f 3c 78 86 2e bd 97 bd 61 bd
       -0.15893517 0.01268944 -0.04260871 -0.055112448
000140 f6 a5 18 3e f9 03 88 be 15 d4 08 3e 88 40 28 bd
       0.14907059 -0.2656553 0.13362153 -0.041077167
000150 5a f5 07 bd 56 ba 9c 3d 47 6e c1 3c 3f 9a af bd
       -0.03319297 0.07652728 0.023612155 -0.08574342
000160 37 57 81 3d 50 48 ec 3d 87 ef 0c 3e 83 49 91 bd
       0.06315463 0.1153723 0.13763247 -0.070940994
000170 77 45 09 3d bc 68 0d 3d 28 18 13 3e 33 d2 7a 3a
       0.033513512 0.03452371 0.14364684 0.0009568065
000180 fb bb e0 3b 1b ab 0a 3e 4a 4a 7b 3c 86 85 eb 3c
       0.0068583465 0.13541834 0.015337536 0.028750192
000190 cd 22 55 be 09 b8 0e be c7 6e 4d 3d 26 b6 d3 bd
       -0.20814057 -0.13937391 0.050154474 -0.103374764
0001a0 0a e8 18 bd 67 21 9c 3d d2 3d 2d 3e 38 dc a3 bd
       -0.037330665 0.076235585 0.16918114 -0.08000988
0001b0 10 f5 0b be a8 8e 7c bd e1 4f 34 be 6a 3e 3b 3e
       -0.13667703 -0.061659485 -0.17608596 0.18285528
0001c0 dc f2 68 3d fc 66 23 3e f7 9c 34 3e 8b e6 13 be
       0.056872234 0.15957254 0.17638002 -0.14443414
0001d0 dc c7 0e bc 31 fd e7 3d ac 26 7c 3e 2b 99 6f 3e
       -0.008714642 0.11327589 0.24624127 0.23398273
0001e0 72 60 67 be 78 db 99 bd 2c 69 41 be 9f c2 36 3e
       -0.22595385 -0.075125635 -0.18887776 0.1784768
0001f0 b5 5e 9d bc c3 65 8a bd c0 38 5f be de 92 bf 3d
       -0.019210199 -0.06757691 -0.21798992 0.093541846
000200 cd 87 43 be 3a df 67 3d d0 ca 9c bc ac fd 61 3d
       -0.19094773 0.05660937 -0.019139677 0.05517356
000210 ef af 54 bd 3a d4 82 3d 19 3f 80 be 4a 43 ca 3d
       -0.051925596 0.06388135 -0.2504814 0.098761156
000220 e0 7a b6 bd fc 79 29 bc b0 20 a5 bd 41 54 b1 3d
       -0.08910155 -0.010344025 -0.08062875 0.08658648
000230 e2 19 ba bd fa 2d 35 3e d0 ba cd 3c 42 7e a0 3c
       -0.09086968 0.1769332 0.025113493 0.019591454
000240 a2 4a 2e 3e eb da 8d 3c 35 2e 80 be 0f d1 27 be
       0.17020658 0.017316302 -0.25035253 -0.16388343
000250 5f 2f a1 3d 54 a8 58 bc 62 38 cb bc 12 46 4e be
       0.078703634 -0.013223726 -0.024807159 -0.20143917
000260 ef d8 8f 3d b4 dc 04 bd 5e 65 06 be d5 52 2a be
       0.07023799 -0.03243704 -0.13124606 -0.1663316
000270 a5 88 1b 3e 76 77 28 3c 90 72 65 3d 50 77 1f 3e
       0.15188845 0.010282388 0.05601746 0.15572858
000280 a6 40 1a 3e 6c a1 29 3d c7 75 6b 3d 7c 40 c2 bd
       0.15063724 0.04141371 0.057485368 -0.09484956
000290 c3 b6 8e 3d 70 eb c0 3d e8 ff de 3c bf c6 87 3e
       0.06968453 0.09419906 0.027221635 0.2651882
0002a0 d9 d7 d7 bd c5 4b a2 bc ed c1 23 be 31 57 ff 3d
       -0.105392165 -0.01981152 -0.15991946 0.12467802
0002b0 d5 48 cd bd 4d 4f c1 bd 63 45 9f 3d 92 b9 25 3d
       -0.10023657 -0.094389535 0.07776906 0.040460177
0002c0 da 9a 42 be 3a 2b 84 3c 80 e6 eb 3b 10 2e fe 3d
       -0.19004384 0.016133893 0.0071991086 0.124111295
0002d0 35 71 bf 3c d4 26 57 bd 8f bc 3c 3e 6a 89 dc bd
       0.023369411 -0.052527264 0.18431304 -0.10768397
0002e0 f8 36 9f bc 4f b0 bc bd 98 44 ee bb 76 cb 0e bd
       -0.01943539 -0.09213316 -0.0072713606 -0.034862004
0002f0 52 10 70 3d 14 aa ff bc 38 4e b0 bd 25 ae e9 3c
       0.058609314 -0.03120903 -0.08608669 0.028525421
000300 40 41 d0 3d c5 67 d8 bd 39 8e 93 be c6 48 3d be
       0.101686954 -0.105666675 -0.28819445 -0.18484792
000310 df 97 cd bc de e1 83 bd 74 db 0f 3d 9e ba 1d 3e
       -0.025096832 -0.06439565 0.035121396 0.1540322
000320 fa da 5d 3d 95 ff 8f bd 91 25 a7 3b 40 93 6f 3a
       0.05416391 -0.0703117 0.005100914 0.00091390684
000330 69 ea a7 3d 6b 09 a3 3c 1d fc ab bd 8f 67 1e bd
       0.08199007 0.019901952 -0.08397696 -0.03867298
000340 c5 f4 97 3d fe 8f 9b bd d5 f6 8e bd 76 3d 19 3d
       0.07419733 -0.07595824 -0.06980673 0.03741213
000350 ae c3 25 3c a2 24 30 be aa 68 26 be df c6 01 be
       0.010117454 -0.17201474 -0.16250864 -0.1267352
000360 6b 19 97 bb cf c4 1a bd 0f 58 03 3e 31 7d a7 3b
       -0.0046111844 -0.037785348 0.1282656 0.0051113595
000370 07 24 98 3b 25 9f 5b 3e c5 17 68 bc 55 99 cc bd
       0.0046429667 0.21447428 -0.014165823 -0.09990183
000380 30 d4 32 3e 18 d0 cb bd 80 28 54 3c d6 41 93 3d
       0.17463756 -0.099518 0.012949109 0.071902916
000390 ea 03 24 bd 29 b7 e8 3c 86 a8 db bd 59 62 a9 bd
       -0.040042795 0.02840765 -0.10725503 -0.082707115
0003a0 65 43 40 3d 90 db 80 bd bf 27 09 3e a0 01 89 bd
       0.046939272 -0.06291878 0.13394068 -0.06689763
0003b0 1a 38 3b be 43 b5 2a be 98 c2 53 be 20 d0 a3 bd
       -0.1828312 -0.16670708 -0.206797 -0.07998681
0003c0 c4 3e b7 3d 1f 21 6b be 88 65 68 3e b1 4b 1a bc
       0.089475185 -0.22961853 0.22694981 -0.00941746
0003d0 7e 8e dc 3d 14 92 09 3e 27 a9 3c 3d f5 4b 68 be
       0.10769366 0.1343463 0.046059754 -0.22685225
0003e0 09 71 3c 3e a3 9d 4a be 5b 29 52 bc a1 1c 02 3e
       0.18402494 -0.19786696 -0.012827243 0.12706234
0003f0 7f e9 ed bb 78 35 7d 3d c9 a6 16 3d 72 11 26 be
       -0.007260501 0.06181857 0.036780152 -0.16217592

encoder_lstm.weight_hh_l0 f4 [128, 32]
000000 94 d0 bf bd 55 49 3f 3d 4f 60 ce bd ee 32 0b bd
       -0.09365955 0.046700794 -0.10076963 -0.033984117
000010 27 d5 f6 bd d7 b0 66 be 15 4c b1 bc 39 92 cc bd
       -0.12052374 -0.22528397 -0.021642724 -0.09988827
000020 4b 97 8d be d1 72 4c be bf 82 4f be 9a 6e bc bd
       -0.2765449 -0.19965674 -0.2026472 -0.09200783
000030 75 fe 5e be cc 5b 97 3d fd fe bc bd 7a f9 22 be
       -0.21776755 0.07390556 -0.09228323 -0.1591548
000040 28 49 92 3d 60 26 69 3d e2 a9 bf 3d 68 fb 56 be
       0.0714286 0.056921363 0.093585745 -0.20994341
000050 15 2d 93 be e2 6e 01 3e ba 1c 31 be e3 0f 45 bd
       -0.28745332 0.12639955 -0.17296115 -0.048110854
000060 70 04 65 bd 0e 90 ff 3d f0 05 17 be cc 0a 8d bc
       -0.055912435 0.12478648 -0.14748359 -0.017217062
000070 51 3a e5 bd 37 6b 83 3e fd d0 12 3d a4 e7 61 be
       -0.111927636 0.25667736 0.035843838 -0.2206102
000080 10 f2 23 3d d9 17 85 3e 7f 68 ab be 7f f6 ba bd
       0.04002577 0.25994757 -0.33478162 -0.09129047
000090 ad cc 18 be 2e f1 a5 be d3 80 db bd 06 f2 b0 3d
       -0.14921828 -0.32410568 -0.10717931 0.08639912
0000a0 14 c3 84 be d2 67 bf bd 7d b1 5e 3e 23 3c 05 bf
       -0.25930083 -0.09345974 0.21747394 -0.52044886
0000b0 c5 ff c6 3e ce 7d 3a bd a7 2b 25 3e b5 9e 6a 3d
       0.38867012 -0.045530133 0.16129933 0.05728026
0000c0 ca 68 2f 3e 64 b3 28 3e 9a 00 2d be a0 bb ca 3d
       0.17129818 0.16474682 -0.1689476 0.09899068
0000d0 b7 25 94 be c9 7c c8 3e 96 4d d4 be 74 47 e8 3c
       -0.28935024 0.39157704 -0.41465443 0.028354384
0000e0 14 ff ee bd 98 eb 97 be 6d 4f d2 3c a3 23 14 bd
       -0.11669746 -0.2967193 0.025672639 -0.0361668
0000f0 cb 9b 11 3e 49 61 8a 3d 2e f8 af be d5 bf 71 be
       0.14219587 0.06756837 -0.34369034 -0.23608334
000100 2e ab 22 be e9 ca 2b 3e 44 f1 87 be 22 c9 40 be
       -0.15885612 0.16776623 -0.2655126 -0.18826726
000110 22 c6 78 bb 30 0a a8 bc 51 78 80 3d 8c 87 0f 3c
       -0.0037959893 -0.02051267 0.062729485 0.008760344
000120 1b 7d e0 bc 69 aa 11 be 00 8c fc bb 4f dc a8 be
       -0.027403405 -0.14225163 -0.007707119 -0.32980582
000130 d0 e3 d4 3d 57 6d b5 3d 67 6e 18 3d e5 a9 c5 bd
       0.10395014 0.088587455 0.037214663 -0.096515454
000140 5e 0c ea 3c f5 71 18 3e 78 a5 8e bc 92 e2 17 3d
       0.02857035 0.14887221 -0.017412886 0.03708131
000150 73 0e ce bd 4a 07 d5 3d a7 01 0a bb a1 b5 89 3d
       -0.1006135 0.10401781 -0.0021058114 0.06724096
000160 89 62 1a bc 18 f1 6a 3d e8 8c b5 bd 57 00 b8 3d
       -0.009422907 0.05735883 -0.08864766 0.0898444
000170 a0 aa 3a 3c 7c 82 f1 3d d3 6c 27 be c1 8c 34 be
       0.011393219 0.11792466 -0.16350107 -0.17631818
000180 2e 62 a8 3d ea 3c 92 bd 88 89 0d 3e c7 6d 64 bd
       0.08221851 -0.07140525 0.13821995 -0.055768754
000190 c7 86 09 3d 75 4f d8 bd 25 cb 11 be 92 41 da 3c
       0.0335758 -0.1056203 -0.1423765 0.026642594
0001a0 c6 5c 94 3e 86 ac d5 3c 43 64 f6 3c 88 72 48 bd
       0.2897703 0.026083242 0.030077105 -0.04893735
0001b0 9c 16 8f bd f9 5c 17 be c8 c5 ce 3c d3 c4 9a 3e
       -0.06986734 -0.1478156 0.025240794 0.3022829
0001c0 ff b1 41 3e 02 b1 0c bd 83 ab 00 3e a2 35 53 3e
       0.18915556 -0.034348495 0.12565427 0.20625928
0001d0 dc 93 3e 3e 15 f5 ba 3d 5b 9c 2a bd 87 e9 8b 3e
       0.18611091 0.09128777 -0.04165302 0.27326605
0001e0 84 4e c9 ba 83 63 16 be 02 98 12 3e 51 0d 8e be
       -0.0015358482 -0.14686398 0.14315799 -0.27744535
0001f0 be 5b 03 be 9f bd 15 be 89 5c bc 3c 83 15 7d be
       -0.12827966 -0.14623116 0.022993343 -0.24715237
000200 24 4d 4d be 64 da 2e 3e 75 5e 5e be d1 07 5e 3d
       -0.20048958 0.17075497 -0.2171572 0.054206673
000210 a0 a4 55 3e 92 6c b7 bd 9b 6a 2b be 5a c6 a1 bd
       0.2086358 -0.08956255 -0.16739886 -0.07899161
000220 86 6a 33 be c8 6b c0 bd 38 58 2c 3d e2 00 bc bc
       -0.17521104 -0.09395558 0.04207632 -0.02294964
000230 e5 45 90 3e fb ea 1b be 98 65 66 bd 54 7f cf bd
       0.28178325 -0.15226357 -0.05624923 -0.10131708
000240 ff 2e 37 3e ea b9 94 3e 10 6a 12 bd 09 86 52 bd
       0.17889021 0.2904809 -0.03574568 -0.051397357
000250 20 f7 15 bd bc 12 86 3c 8c f0 43 be 4f 1d 7a 3d
       -0.03661263 0.016366355 -0.1913473 0.061063107
000260 04 60 4c 3d 56 88 c4 bd 66 53 7c b9 61 64 0b 3e
       0.049896255 -0.095963165 -0.00024063661 0.1361251
000270 d2 8d d5 bd 35 3d 51 bd 37 5e 98 bd 07 ce 14 be
       -0.10427441 -0.051083762 -0.07439845 -0.14531718
000280 0e fd 3f be 07 93 2a 3e 72 1f 0a 3e 00 9b 13 bd
       -0.18748876 0.16657649 0.13488558 -0.03603649
000290 bf 85 37 3d d2 6e 23 be 94 89 29 3b 4a 6a 3b be
       0.044805285 -0.15960243 0.0025869356 -0.18302265
0002a0 ec 68 1b 3e 83 30 43 3e 3c 4d d8 bd eb b7 3f be
       0.15176743 0.19061475 -0.10561606 -0.18722503
0002b0 39 2f 09 bd 5b c6 b5 bd 20 1f 20 bd b6 68 91 3d
       -0.0334923 -0.08875724 -0.039092183 0.0710005
0002c0 f6 f7 43 3e f3 b8 59 3e 37 9b a2 3d 66 b9 9f bd
       0.19137558 0.21261959 0.07939761 -0.07799034
0002d0 d3 1b ee 3d 2c d4 1a bd 3a 0f 01 be 0b db 2d 3e
       0.11626401 -0.0378 -0.12603465 0.1697809
0002e0 11 d2 d5 3d 5c 63 f1 bd 9c 3c 71 3e 98 db d4 3b
       0.104404576 -0.117865294 0.23558277 0.006495904
0002f0 60 be 05 3e 6b ea b6 3c a6 0f 52 be 77 6a cc 3d
       0.13060904 0.022328576 -0.20513782 0.09981244
000300 03 86 20 bc 3f a1 bc bd ba 77 d7 bd aa 51 06 bd
       -0.009797576 -0.09210443 -0.10520883 -0.032792725
000310 9a c9 d7 3d e2 86 ce bc e5 46 4d 3e 0c 1a 30 3e
       0.10536499 -0.025210802 0.20046575 0.17197436
000320 45 db e4 3d 8d 5d b0 3c 7e b0 0e 3d 3f 2a d6 3d
       0.11174635 0.021528983 0.034836285 0.104572766
000330 0d a3 3b 3d e3 48 bb bd c9 7f e4 3b 75 f9 1f 3c
       0.045809794 -0.091447614 0.006973241 0.009764065
000340 31 f6 64 3e e1 34 e2 3d ed 6b 12 3d 57 bc 4e 3e
       0.2235954 0.11045242 0.035747457 0.20189033
000350 a6 5b 69 3d 56 a6 68 3e bb ea 32 be f6 fb 2f be
       0.05697217 0.22719702 -0.17472355 -0.17185959
000360 04 ec a2 bd 35 7c fa 3d 4d 82 21 bc 9f a5 23 3e
       -0.07955173 0.12230722 -0.009857726 0.15981148
000370 07 79 a1 3d 69 aa 60 be 6c 9d 69 be b6 19 a6 bd
       0.07884412 -0.21940006 -0.22813958 -0.08110373
000380 ff eb 21 bd da ba c1 bc b9 6e 0a 3d 42 29 00 be
       -0.039531704 -0.023648668 0.033797 -0.12515739
000390 e1 99 d8 3d 7b ac c4 bd a3 83 a7 3d ff 47 84 3d
       0.10576225 -0.096032105 0.081794046 0.06459045
0003a0 7a e8 85 3e fd 8c f3 bc 44 f0 0b bd 5e 4a 5d 3c
       0.26153928 -0.029730314 -0.034164682 0.0135065
0003b0 50 c4 8e 3a 89 a5 b7 be c2 8a 15 bd f9 f0 1a 3e
       0.0010892246 -0.3586848 -0.036509283 0.15130986
0003c0 02 7c 0c 3e fb 2d 04 3e 0f 64 84 3e fd 7c 0b be
       0.1371918 0.12908165 0.2585759 -0.13621898
0003d0 c9 9b 5d 3d 7a ef 37 3d 86 32 29 be 2e b0 0f 3e
       0.054103646 0.044906117 -0.1652318 0.14032051
0003e0 09 d3 f6 3c b0 44 b5 3d 9c a0 c9 3e 48 1a 3b 3e
       0.030129926 0.08850992 0.39380348 0.18271744
0003f0 73 fe 13 be b2 8e 9c 3e dc bb 06 be f4 21 26 3e
       -0.14452533 0.30577618 -0.131576 0.1622389

encoder_lstm.bias_ih_l0 f4 [128]
000000 29 6a ad bd b1 67 01 3e 1f 41 b5 bc 9d 34 53 3e
       -0.08467514 0.12637211 -0.022125779 0.20625539
000010 d1 f9 a5 3d c2 21 8b bd 3c 4f 04 3e e2 fc 13 3e
       0.08104289 -0.06793548 0.1292085 0.14451936
000020 d1 1d df 3c f7 04 d0 3d 0b e3 9a 3e 49 4c d7 3d
       0.027235897 0.10157197 0.30251345 0.10512597
000030 8d 6f c3 3c e5 65 21 3d 81 07 b8 3d 1e 13 cd bb
       0.023856902 0.039403815 0.08985806 -0.0062583825
000040 12 c6 a9 3c de dc 1c 3d 03 80 5c 3e a6 63 ae 3d
       0.02072433 0.038296573 0.21533208 0.085151
000050 63 d5 10 3e ad cd 30 3d 11 58 28 3d 3b 83 ad bd
       0.141439 0.043164898 0.04109961 -0.08472296
000060 4a e4 3b 3e 57 38 28 bd 46 63 21 3e 02 6f ec 3d
       0.18348804 -0.041069355 0.15760526 0.115446106
000070 f5 2e 19 3e d8 4d 2c 3e e7 40 bd bd b8 10 02 3e
       0.14959319 0.1682657 -0.09240895 0.1270169
000080 a5 17 35 3e e2 b3 7a be 4a ad 9d ba 9f 39 92 bb
       0.17684801 -0.24482682 -0.0012029794 -0.0044624354
000090 29 0c 26 3e a2 8a c3 3d a3 80 a9 3b 51 63 11 3e
       0.16215576 0.095479265 0.0051728054 0.14198042
0000a0 d1 bd 14 be 4b 28 cf 3d 6c f5 2d 3d 69 5a 30 bd
       -0.14525534 0.10115107 0.04247038 -0.04305497
0000b0 d7 3f 75 3e 1f 07 0f 3d 0a d7 0e 3e 29 5f 39 bc
       0.23950134 0.0349189 0.13949218 -0.011314192
0000c0 55 38 c5 bb 5f 2b 33 3e 6f 71 20 bd e6 e6 3a 3e
       -0.006018678 0.17497014 -0.03917068 0.18252143
0000d0 3e 17 b3 3d 0b 8e 3a 3e 3f a8 1e 3e 3c a3 88 3d
       0.087446675 0.18218248 0.15493868 0.066717595
0000e0 24 76 26 3e 1a 1b 83 bd 8f 0f b1 bc 3d 5b 19 3e
       0.16256005 -0.064016536 -0.021613864 0.14976211
0000f0 00 30 46 3e 68 66 d0 3d 3a 16 6a 3e 40 d7 08 bd
       0.19354248 0.101757824 0.22860041 -0.033408403
000100 22 94 8b 3d 05 2e b7 bd 6e 4f 17 be b1 21 d5 bc
       0.068153635 -0.089443244 -0.14776394 -0.026017042
000110 8c 11 29 3d c7 71 9e bd 24 da ab bd 5b 56 42 be
       0.0412765 -0.07736545 -0.083912164 -0.18978254
000120 d8 94 86 bd 66 8d a9 3d fc 8f a9 bd a7 6e a8 3d
       -0.065713584 0.08278923 -0.08279416 0.0822423
000130 8d ad 02 bd 13 47 05 be 78 e4 f1 3d fe 9a 79 bd
       -0.031903792 -0.13015394 0.11811155 -0.060938828
000140 c6 ff f1 bd f5 fb 63 3c e0 98 4d bc a4 1f 31 3e
       -0.11816363 0.013915052 -0.012548655 0.17297226
000150 da 7a 58 3d 23 8d cd bd 6b bf 93 bd 47 44 e3 3d
       0.052851535 -0.10036685 -0.072142445 0.11097007
000160 42 df 12 be ad 59 19 be f6 89 48 3e 02 ce 33 3e
       -0.14342979 -0.14975615 0.19583878 0.17559054
000170 e6 09 5a be be 1f c2 3d 14 8d 35 be 01 81 33 be
       -0.21292838 0.094787106 -0.17729598 -0.1752968
000180 a3 93 b5 bc 86 01 e7 3d 34 22 76 3d ad 11 58 bc
       -0.022165125 0.112795874 0.060091212 -0.013187808
000190 bd 9a 86 3d bb b3 09 3e e9 c3 13 3e f7 6e 9f 3e
       0.06572483 0.13447468 0.14430203 0.31139347
0001a0 96 2c 6c 3e 94 1b 00 3d 91 93 92 3e e3 fe 28 3e
       0.23063883 0.0312763 0.2862821 0.16503482
0001b0 9b 29 9d 3d 9f f7 5c 3e ff 29 71 3e dd 46 92 3e
       0.07673951 0.21578835 0.23551176 0.2856969
0001c0 f0 84 de 3d fe bf 24 bd 77 c7 85 3e aa 7c 09 bd
       0.108651996 -0.04022216 0.26128742 -0.033566155
0001d0 8a 37 14 3e 3c 3b 25 3c 5b 6c 36 3e 76 4b 87 3e
       0.14474311 0.010084923 0.17814772 0.2642476
0001e0 1f 2c 22 3e e2 a1 20 3e 7b 4c 4c 3e 45 9c 22 3e
       0.15837143 0.15686753 0.1995105 0.15879925
0001f0 28 a8 bf 3d 51 93 4c 3e 53 ef 6c 3e c2 f5 a5 3d
       0.09358245 0.19978072 0.2313817 0.08103515

encoder_lstm.bias_hh_l0 f4 [128]
000000 d6 88 0f 3e 71 a7 9a 3d d5 32 d2 bc 6a d6 d8 bc
       0.14017043 0.07551468 -0.025659004 -0.026469428
000010 05 93 08 3d 53 ad 8f 3d 0d 00 8d 3e 9f f1 67 3e
       0.033343334 0.07015481 0.275391 0.22650765
000020 b4 7c 64 3e 84 54 d2 3c 30 ae 2c bc 31 d8 8c 3d
       0.22313195 0.025675066 -0.010539576 0.06877173
000030 64 d9 bd bd c9 44 50 3e 85 26 55 3e 21 87 77 3e
       -0.092699796 0.2033874 0.20815475 0.24172641
000040 ae df 75 3e 73 78 9f 3d 58 e6 5e 3e 16 60 59 3e
       0.24011108 0.07786646 0.21767557 0.2122806
000050 c3 c8 5e 3e 5f 22 2c 3e 48 d4 dd 3c 8c 7d db 3d
       0.21756272 0.16809987 0.027078763 0.107173055
000060 a8 98 d5 3d f8 ac e2 3d b1 f0 90 3e 9d 2e af ba
       0.104295075 0.110681474 0.28308633 -0.0013365332
000070 64 02 a9 3d 6c 17 43 3c 6c 06 9c 3d 71 00 7a 3e
       0.08252409 0.01190744 0.076184124 0.24414231
000080 b1 9c 95 3e d4 23 e2 bd 4f ae 35 be 76 1b 9f 3b
       0.2922111 -0.1104199 -0.17742275 0.0048555685
000090 62 80 ad bd 9e d3 c4 3c 3c bc 1c 3d f5 17 1d ba
       -0.08471753 0.024026688 0.03826545 -0.00059926446
0000a0 de b8 11 be a2 45 0a be 80 18 68 3d 29 5e 15 be
       -0.14230677 -0.13503125 0.05666399 -0.145867
0000b0 84 87 b3 3d 74 be 25 3e ca 75 74 3d 62 e3 ae 3d
       0.08766082 0.16185933 0.059682645 0.085394636
0000c0 fb 94 eb 3d 21 17 2f bd 01 5f a9 bc b8 b0 e8 bc
       0.11503025 -0.042746667 -0.020675184 -0.028404579
0000d0 39 e9 06 bd 21 8f e3 3b 06 a4 32 3d 56 1b ba 3c
       -0.032937262 0.0069445525 0.043613456 0.022718113
0000e0 60 a9 22 be c0 ce 79 3e f7 63 1b 3d 84 5e 94 3d
       -0.15884924 0.24395275 0.03793713 0.0724459
0000f0 f8 f9 88 bd 53 e2 9f 3d 05 16 8f 3d 7f d7 d0 3d
       -0.06688303 0.0780684 0.06986622 0.101973526
000100 73 a1 88 3d bf e3 8f bd 83 a1 14 be fd fb 9f bd
       0.06671419 -0.07025861 -0.14514737 -0.07811735
000110 ee 4a b3 3c e4 c3 66 3d ed 76 e9 bd 2a 4b 8c 3d
       0.021886315 0.05633916 -0.113996364 0.06850274
000120 1c cf a9 3d e1 25 dd 3d 5c 42 1a 3d f6 81 89 bd
       0.08291456 0.107982405 0.03766094 -0.06714241
000130 1e 86 1a 3e 50 68 9c 3d 83 de 18 be 75 b9 12 3e
       0.15090224 0.076370835 -0.14928631 0.14328559
000140 e6 16 95 bd 36 05 b4 bd 5e 97 50 3e f6 31 45 bc
       -0.07279758 -0.087900564 0.20370242 -0.012035837
000150 28 0b 05 be 3d 1c 12 be 90 06 1d be a1 d3 00 3d
       -0.12992537 -0.14268585 -0.15334535 0.031451825
000160 8f 9d 1d be a7 f6 e8 3d 90 95 e6 bd 3a cc 96 bd
       -0.15392135 0.1137517 -0.112589955 -0.07363172
000170 a7 ea 01 3e a1 fa 00 3e 48 8e 9d 3d dc 75 1e bd
       0.12687169 0.12595607 0.076931536 -0.03868662
000180 c0 58 9d bd 06 e2 93 3e 82 a0 aa 3d 79 b9 59 3e
       -0.07682943 0.2888338 0.08331396 0.21262158
000190 95 fe e4 3d 59 2a e2 bc d3 0d d6 3c 9d 3a 12 3d
       0.1118137 -0.027608084 0.026129639 0.03570043
0001a0 f4 10 89 3e 25 9f 20 3e 62 eb 72 3e cc 5f 8a 3e
       0.26770747 0.15685709 0.23722604 0.27026212
0001b0 e8 fc 00 3e aa 1b 16 bd 0e ae 86 3e 21 35 47 3e
       0.12596476 -0.036647476 0.26304668 0.19453861
0001c0 e3 c6 3e 3e 2d d7 4c bd 87 3e 67 3e d4 fa 12 3e
       0.18630557 -0.050009895 0.22582446 0.14353496
0001d0 b9 c7 fb 3c 3b 1d b7 3c c3 9f 64 3e 4b 32 88 3e
       0.030734884 0.022352805 0.2232657 0.2660087
0001e0 76 41 20 3e 33 17 f8 3b e3 05 57 3e 10 92 4f 3e
       0.15649971 0.007571125 0.2099834 0.20270562
0001f0 7e de 99 3d 47 5d 41 3e e2 d6 13 3d ec 53 58 3e
       0.0751314 0.18883239 0.0360936 0.21125764

decoder_lstm.weight_ih_l0 f4 [64, 32]
000000 94 18 a6 be b0 5d f4 be d1 e9 a7 be a2 b1 64 3c
       -0.32440627 -0.47727728 -0.32795575 0.013958367
000010 d2 5e b7 be 5c cb c5 be 77 56 47 3e b2 0c 14 3e
       -0.3581453 -0.38631713 0.19466577 0.14457968
000020 27 5d 92 3c 3b ca 12 3d 05 ea 94 bd 39 cc 6d 3d
       0.017866684 0.035837393 -0.07271198 0.05805609
000030 45 ad 66 3e 6c 8c 1c be ba d7 ea 3d 54 e0 fc bd
       0.22527035 -0.15287942 0.11466928 -0.12347475
000040 d4 c7 79 3d af a0 9d 3e 4a ad 48 3e d0 87 c1 3c
       0.060981587 0.30786654 0.19597355 0.02362433
000050 07 ee 14 3e f7 41 5d 3e 29 46 04 bf f8 44 25 3e
       0.14543925 0.21607195 -0.51669556 0.1613959
000060 14 71 80 3d 5b 8b 80 be b6 9d 9b bd 99 55 ba 3e
       0.06271568 -0.2510632 -0.0759844 0.3639343
000070 41 59 9b be 73 90 5b 3c 44 93 c9 be d7 7f 61 be
       -0.30341533 0.013401139 -0.39370167 -0.22021423
000080 f0 34 d2 be 24 06 ae bd 05 08 27 3d 33 9c dc be
       -0.41056013 -0.08497265 0.040779132 -0.4308792
000090 b4 1d bb 3d bb 30 ae be ca e8 e3 bc 25 8d c7 be
       0.09136525 -0.34021553 -0.027820963 -0.38974872
0000a0 b0 d2 cd 3d d3 e1 5d be 66 14 10 be a5 dd d0 be
       0.10049951 -0.21668176 -0.14070281 -0.407941
0000b0 3f 1c 08 3d de 0e 8c ba 88 94 aa bb 91 bc 3e 3e
       0.033230063 -0.0010685583 -0.0052056946 0.1862662
0000c0 2e ea e9 3d a4 5f d2 3d 6d 2c b5 3e 30 fc 05 3e
       0.11421619 0.10272148 0.35385457 0.13084483
0000d0 39 ba 8a 3d 0b 63 3f 3e ee f6 f6 bb f5 0b 08 3d
       0.067738004 0.18690126 -0.0075367605 0.033214528
0000e0 a0 47 6b be 79 4e 84 3e d5 4e c0 3e 6b d4 f7 bc
       -0.22976542 0.2584112 0.37560144 -0.030252656
0000f0 8d 89 12 be 93 6f d2 3e 76 25 89 be ba 55 c8 be
       -0.14310284 0.4110075 -0.26786393 -0.39127904
000100 17 ed 70 be 20 59 13 be aa bb 8e 3c 3c 02 0d 3d
       -0.23527943 -0.14389467 0.01742347 0.03442596
000110 a9 4e ce bd fc 28 38 3c c7 8b 0e 3c c3 e3 5c 3e
       -0.10073597 0.01124024 0.008700318 0.21571259
000120 a2 c1 4b be 0b 82 ae 3e 25 88 cc 3d 41 9d 6b be
       -0.19898084 0.3408359 0.09986905 -0.23009206
000130 3a 8b 57 3e 17 5b e5 be b4 01 9c 3e c0 d4 36 3e
       0.21049204 -0.4479606 0.3047005 0.17854595
000140 95 f4 21 3e 0b 13 cb 3e c1 c7 08 be 76 1c 8e 3e
       0.15815957 0.39662966 -0.1335745 0.2775609
000150 b6 27 50 3e ca 04 e1 3e e4 10 0c bf c5 79 a6 bc
       0.20327649 0.43948966 -0.54713273 -0.020321736
000160 cb da 87 be 33 b7 e2 bc 30 91 a5 3e b2 18 60 3e
       -0.26534113 -0.027675247 0.32337332 0.2188442
000170 fc 7f ec be f3 34 7c 3d 80 65 f5 be b2 21 b8 be
       -0.46191394 0.061573934 -0.47929 -0.35963207
000180 d9 19 0b be b6 6c b5 3d f3 8b 24 be 53 2f 89 be
       -0.13584079 0.088586256 -0.16069011 -0.26793918
000190 39 f6 61 be ad 6f ae be 07 7a b5 bd 34 a0 83 3d
       -0.22066583 -0.34069577 -0.088611655 0.06427041
0001a0 4b 3a 9c be e5 7e a8 3b 4e 57 30 3e 0f 68 08 bf
       -0.30513224 0.00514208 0.17220804 -0.5328378
0001b0 19 3f 6d 3d cf e9 9e bd 5e 84 ad 3e 6d 68 71 be
       0.057921503 -0.07759439 0.3389005 -0.23574992
0001c0 32 d8 9d 3e b3 52 ca bd 88 2b c6 bd f1 c6 35 be
       0.30829006 -0.09879055 -0.09676272 -0.17751671
0001d0 7f a8 49 bd 41 b5 a3 3e 1b 6f c1 be e9 31 13 bc
       -0.049232956 0.31974223 -0.3778008 -0.0089840675
0001e0 e7 be 80 be 3c 6c aa be bf dd e8 bd 3f 40 48 bd
       -0.25145647 -0.332857 -0.1137042 -0.048889395
0001f0 0d af ec 3d 0c 77 c8 3d c8 60 e9 be c9 fb 41 be
       0.11556826 0.097883314 -0.4558165 -0.18943705
000200 f4 c1 1c be 15 a6 6a 3c b1 39 2e 3e 77 21 bb 3b
       -0.15308362 0.014321824 0.17014195 0.0057107764
000210 3f 44 a9 be 4e 9b 54 be de 3a 04 be 90 5d 4a 3e
       -0.3305988 -0.20762369 -0.12913081 0.19762254
000220 db fa 39 be 2f 30 b9 3e 38 23 91 3d b2 25 c2 be
       -0.181621 0.36169574 0.070867956 -0.37919384
000230 ee 1b c0 3d f5 c9 91 3d 85 f7 89 3e e5 a0 95 bd
       0.09380327 0.07118598 0.26946655 -0.07306079
000240 48 f0 59 3e bc 3d a8 3e 17 61 d6 3d ac 99 a2 3e
       0.21283066 0.328596 0.10467737 0.31757867
000250 f9 8d 78 3c ef 3d 83 3e a9 c5 de be 21 1c e1 3e
       0.015170568 0.2563319 -0.43510178 0.43966773
000260 ad fb 7a 3d 3f 7a 06 be 5b b9 4f 3e fd 1f 24 3c
       0.061275173 -0.1313257 0.20285551 0.010017392
000270 5f 4d 32 be 95 79 12 3d da a9 5c be b1 cf 9d be
       -0.17412327 0.03576048 -0.21549168 -0.30822518
000280 a1 d1 11 3e b9 c8 bb be 7e 07 14 bf 44 6e f2 be
       0.14240123 -0.36676577 -0.5782393 -0.4734975
000290 2b ed 82 be bf 36 c3 3d ec ab f3 be 30 2d 96 3e
       -0.2557157 0.09531926 -0.47592103 0.2933135
0002a0 54 3b 8c be d4 30 af 3e f1 2e 49 be 36 e0 f0 3d
       -0.27389014 0.3421694 -0.19646813 0.11761515
0002b0 58 2c 25 3d 9d 4d 13 be 80 1b 5d 3e bf 13 0f bd
       0.040325493 -0.14385076 0.21592522 -0.03493094
0002c0 35 31 6e be 8c 7b 0f 3e 3a 52 8d be 42 de 91 be
       -0.23260958 0.14011973 -0.27601796 -0.28489882
0002d0 a9 d9 c4 3e 65 db 6c 3e 5a 2f 4b 3d 3e 78 c7 3e
       0.38447312 0.23130567 0.049605705 0.38958925
0002e0 29 5c 5c be a3 4a 4b be 6b 64 a0 bd 22 7f a4 3e
       -0.21519531 -0.1985269 -0.07831653 0.32128245
0002f0 f5 b2 cc 3d f5 28 5a bd 14 b7 37 3e 5e 48 15 bf
       0.09995071 -0.053261716 0.17940933 -0.5831355
000300 8f ad 9d be 02 48 ad bd e7 c5 9f 3c 4f 75 53 bc
       -0.30796477 -0.08461 0.019503547 -0.0129063865
000310 df de 8d be f9 79 6a be a2 71 81 3e 47 fa a9 3e
       -0.277091 -0.22898091 0.25282007 0.3319876
000320 68 94 e6 bd 74 5e fc 3d 7a 6d 8a 3e c1 95 b0 be
       -0.11258775 0.12322703 0.2703665 -0.34489253
000330 94 54 c6 3e aa 80 8b be ce c3 c3 3e b0 ed 06 3e
       0.38736403 -0.272466 0.38235325 0.13176608
000340 34 b5 cd 3e 8b 46 94 3d b7 72 fe 3d fc ea af bd
       0.4017731 0.072400175 0.12424224 -0.085897416
000350 f2 14 32 3e 80 16 7b 3e ca ed f2 be fe c3 58 3e
       0.17390803 0.24520302 -0.47447044 0.21168515
000360 97 e5 45 be 43 1d eb 3a 26 bd c0 3e f2 63 c3 3e
       -0.19325863 0.0017937798 0.3764431 0.3816219
000370 0e cc a2 bd 50 9d cb 3d 2b e5 fe be 6f de ce be
       -0.079490766 0.09942114 -0.49784216 -0.40404078
000380 37 8b 32 be 60 fd c9 bd 97 93 97 bd 1c 69 98 bd
       -0.17435919 -0.098627806 -0.074011974 -0.07441923
000390 8f 8a b3 3e 32 8a e1 bd 65 7f cb 3e 22 20 17 3e
       0.3506665 -0.11012687 0.39745632 0.14758351
0003a0 51 55 6d be 08 6d 85 3d c9 27 2e be 98 4f 05 bf
       -0.23177077 0.06514937 -0.17007364 -0.52074575
0003b0 92 03 ae 3e d5 b4 b9 be 5d 94 8a 3d 63 46 2f be
       0.339871 -0.36270776 0.06766579 -0.17116694
0003c0 92 c2 6f 3d f5 7f 27 3e 89 a5 74 3c 76 17 93 be
       0.058535166 0.16357405 0.014932045 -0.28728837
0003d0 9c c9 32 be 48 22 d1 bb 90 6b d3 be f6 aa 90 3d
       -0.1745972 -0.0063822605 -0.41293 0.07063858
0003e0 33 a5 0f be 07 36 88 3e 99 9c 66 3d 1a 4f 82 3e
       -0.14027862 0.2660372 0.056301687 0.25450975
0003f0 81 37 ef bd 05 9b c5 3e ba 14 64 be 28 b7 89 be
       -0.116805084 0.38594833 -0.22273532 -0.2689755

decoder_lstm.weight_hh_l0 f4 [64, 16]
000000 76 52 78 bc b0 8f bc 3e ef 0f b4 bd 46 2b 05 3d
       -0.015156379 0.36828375 -0.087921016 0.032511972
000010 13 fe 18 3e 95 84 52 bd 08 df af 3d 1d 17 9c 3d
       0.14940672 -0.05139597 0.08587462 0.07621596
000020 7f 71 23 bd 8e 77 0d be 59 32 8f 3e 10 dd f9 3d
       -0.03990316 -0.13815138 0.279681 0.122003675
000030 0d 41 27 be 19 a3 c9 3c ce 1e 19 bd d9 10 c7 3e
       -0.16333409 0.024613904 -0.037382893 0.3888004
000040 ec ce ad be a7 c4 6f 3d 1f 5a 8d be 9b f0 b7 be
       -0.3394693 0.05853715 -0.2760782 -0.35925755
000050 85 58 74 3b 56 dc b7 bd dd 24 48 3d f0 17 a1 3e
       0.0037284207 -0.089775726 0.04886328 0.31463575
000060 e7 6c 28 39 28 56 22 bd 43 ea 95 3d 6d 97 72 3e
       0.00016062298 -0.039632946 0.073200725 0.23690577
000070 19 8f 0b be 69 11 ea bd 34 00 d9 be aa 66 dd bd
       -0.13628806 -0.11429102 -0.42382967 -0.10810597
000080 d7 c7 8c be b8 9d 3b 3e b2 8b c2 bc 79 ae 16 3e
       -0.27496216 0.18321884 -0.023748253 0.14714994
000090 5b b8 c9 3c 96 07 e5 3b ce cf c1 bd f0 c7 ff 3e
       0.02462404 0.0069894297 -0.09463464 0.49957228
0000a0 f0 51 3b 3e b1 33 90 3e e9 cc d9 3e 28 96 24 bd
       0.18292975 0.28164437 0.42539147 -0.040182263
0000b0 a0 4a 79 be 98 26 b4 bd 16 22 2c be 68 bc 98 3e
       -0.24344873 -0.08796424 -0.16809878 0.29831243
0000c0 f2 52 8c be 76 ad 34 3e 03 28 2e 3d 68 56 1d be
       -0.27407032 0.17644295 0.042518627 -0.15364993
0000d0 7d 63 00 3e 1b d5 6d bd b7 ad 8c bd 4e a3 3b 3e
       0.12537952 -0.05806456 -0.06869071 0.18324015
0000e0 25 68 e4 3d 66 83 a3 bd db 34 fa 3d 99 71 0b be
       0.111526765 -0.07984047 0.12217113 -0.13617553
0000f0 f8 19 02 bd aa 81 a4 bd d4 12 e2 be e7 aa bc 3d
       -0.031763047 -0.08032544 -0.4415499 0.092122845
000100 de 04 86 be 3e 9e 1f 3d 17 a4 a5 3d 18 d9 3a bc
       -0.26175588 0.03896927 0.08087938 -0.011404298
000110 f5 9d 94 3e a3 87 29 be e5 21 32 bd 4f 50 d0 3e
       0.29026762 -0.16555648 -0.043489356 0.4068627
000120 07 05 98 3e 32 dc 8f 3d 2a 47 ee 3e 45 5b 3a be
       0.29691336 0.07024421 0.4653867 -0.18198879
000130 4f f1 59 bd f9 a0 8e be 1e ef 96 be 77 76 9c 3e
       -0.053208645 -0.27857187 -0.29479307 0.30559132
000140 ba d1 42 3e ad 21 89 be a9 8d e5 bc b7 41 16 bc
       0.19025317 -0.26783505 -0.02802165 -0.009170941
000150 a4 06 a0 3d 1b 1e 8b 3d 5d 3e 42 be 66 83 5b be
       0.078137666 0.067928515 -0.18969102 -0.21436843
000160 0e 60 a8 bd 7a 1f 19 3c 15 13 33 bd 06 f8 6f be
       -0.08221446 0.0093458835 -0.04371937 -0.23434457
000170 88 a8 db 3d 86 61 f7 3d e0 85 47 bb 12 01 01 3f
       0.10725504 0.12079148 -0.0030444786 0.5039226
000180 b5 13 cc be 58 93 09 3e b3 8d 0b bc 66 f1 80 be
       -0.39858785 0.13435113 -0.00851767 -0.25184172
000190 95 39 9d 3d 1a 1c 10 be 8b 88 b0 be 59 58 22 3e
       0.076769985 -0.1407322 -0.34479174 0.15854014
0001a0 00 3a aa 3e 2d 40 65 3e a4 49 ac 3e 0b 9a a8 bd
       0.33247375 0.22387762 0.33649933 -0.08232506
0001b0 e1 67 83 bc a8 dc 25 bd a5 43 27 ba df d0 c1 3e
       -0.016040744 -0.040493637 -0.0006380624 0.37854668
0001c0 90 c8 89 be 30 18 1d be 51 70 a2 be 98 9b 9b be
       -0.2691083 -0.15341258 -0.31726316 -0.30392146
0001d0 96 05 95 3e ae d0 b0 be e1 04 e4 bd a5 65 11 3e
       0.29105824 -0.3453421 -0.11133743 0.1419893
0001e0 31 35 9a 3d 66 87 00 3e 71 56 d8 3c a3 91 3a 3c
       0.07529677 0.1255165 0.026408406 0.011387262
0001f0 e3 c8 26 bd 04 68 15 be b1 94 02 be f9 20 33 3e
       -0.040718924 -0.1459046 -0.12752034 0.17493047
000200 28 ab 53 be 0f bb a3 3e fc 65 83 bd 15 52 77 3d
       -0.2067076 0.31978652 -0.06415936 0.060381014
000210 64 0e ba 3e b5 07 a8 be e8 03 19 3e 14 ad 70 3e
       0.36339104 -0.3281838 0.14942896 0.23503524
000220 03 24 8c 3e 4e 5c 4a bb 3f d6 6f 3e 77 70 57 be
       0.27371225 -0.0030877772 0.23421572 -0.21038996
000230 25 4b af 3d 38 65 c0 bd 5b c5 9e bd af 52 0f 3e
       0.085592546 -0.09394306 -0.07752486 0.13996385
000240 31 ab 9e be cf fc 6c 3d 08 26 a8 be a8 67 22 be
       -0.30989984 0.057858285 -0.32841516 -0.15859854
000250 80 ad 83 3e bf 6f 91 be 5a 55 94 be d6 5a 96 3e
       0.25718307 -0.28405568 -0.28971368 0.29366177
000260 db a8 00 3d 4c a1 32 3e e6 43 89 3e dd f2 89 be
       0.031411033 0.17444342 0.26809615 -0.26943102
000270 53 81 35 be 2e 89 84 be e0 3b de be e9 46 69 3d
       -0.17725115 -0.2588591 -0.43405056 0.05695239
000280 2d 23 15 bd 21 59 5e 3e 44 b0 65 be d2 b7 90 be
       -0.0364105 0.21713687 -0.22430521 -0.28265244
000290 00 51 8e 3c 78 ed 3d be e7 23 09 be 45 72 31 bd
       0.017372608 -0.18547618 -0.13392602 -0.043321867
0002a0 35 f0 5b 3e fb 89 5f be e8 9c 57 3e d4 d5 87 3d
       0.2147835 -0.21829979 0.21055949 0.06632581
0002b0 f3 71 a2 bd 4f 1b 4e bd 0f 6d 1d 3d 83 f4 77 bc
       -0.0793189 -0.050319012 0.038434085 -0.01513398
0002c0 cc 97 b0 bc 9d 18 4b be d9 e2 98 bc 69 51 18 bd
       -0.021556757 -0.19833608 -0.018662857 -0.037187014
0002d0 b5 cf 4b 3d 2c 70 57 bd 29 19 84 be cc f6 06 be
       0.04975863 -0.05259721 -0.25800446 -0.13180083
0002e0 d8 b7 5c 3e 5a d9 d2 3e 1c 66 b8 3e f0 05 77 3e
       0.21554506 0.4118145 0.36015403 0.24123359
0002f0 03 cf 00 be c1 39 17 be 4e 27 69 bd c9 43 1f 3f
       -0.12578969 -0.14768125 -0.05692225 0.62212807
000300 bc 6c 8a bd 70 9b 12 3e be 18 de be 54 95 e9 bd
       -0.06759021 0.14317107 -0.43378252 -0.11405435
000310 80 ee 8a 3e af 41 05 bf 89 3e a3 be c4 3c ad 3e
       0.27135086 -0.5205335 -0.31883648 0.33835423
000320 c0 af 32 3d a1 62 6e 3e 43 60 a5 3e 01 24 44 3e
       0.04362464 0.23279811 0.32300004 0.1915436
000330 51 45 21 be 14 8c 87 3d f7 e7 96 be e6 75 cf 3e
       -0.15749098 0.06618515 -0.2947385 0.40519637
000340 37 ee e0 bc 2d 7f 11 be a2 f1 d4 bd 79 7e 51 be
       -0.02745734 -0.1420867 -0.1039765 -0.20458402
000350 ea ea 3c 3e 8a 9a d5 bb 0e f7 b4 bd ee 0c 9e 3e
       0.18448988 -0.0065186666 -0.088361844 0.3086924
000360 a3 78 1b 3e bb d8 cc 3d 52 2f 0a 3d 26 f0 a4 be
       0.15182738 0.100022756 0.033736534 -0.3221447
000370 ad ed b7 be 32 a2 3f 3e ff d7 e9 bc 42 0e 13 3f
       -0.3592352 0.18714216 -0.028545378 0.5744363
000380 6b f8 ad bd 99 1f ca 3d 6a de 80 3e 60 6e 15 be
       -0.084946476 0.09869308 0.25169688 -0.14592886
000390 fa 7b 96 bd 93 c3 51 bd 3e cc 34 3d 71 d3 6b 3d
       -0.073478654 -0.051211905 0.044140093 0.057574693
0003a0 86 84 d9 bb b8 aa 7d bc f5 cc 92 3e fd 2b dd be
       -0.0066381125 -0.015482597 0.28671995 -0.43197623
0003b0 02 b2 c0 3d b1 a7 7f be 30 1f 55 be 61 fd 35 3f
       0.09408952 -0.24966313 -0.20812678 0.7108975
0003c0 aa da e6 be d3 a1 51 be de b7 a2 be 93 73 a6 bd
       -0.45088702 -0.20471887 -0.31780905 -0.08127513
0003d0 d6 ae 4b 3e fa f8 5b be 43 58 a1 bd 4a 23 32 3e
       0.19890913 -0.21481696 -0.07878163 0.17396274
0003e0 2a 2a 90 3e c7 eb 98 bc 00 56 ab 3e ad 03 a6 3e
       0.2815717 -0.018667115 0.3346405 0.3242468
0003f0 fa 79 90 3d df f5 6c be 19 41 b5 be 7c bf a1 3d
       0.07054515 -0.23140667 -0.35401228 0.07897851

decoder_lstm.bias_ih_l0 f4 [64]
000000 f9 ef 96 3e 02 26 d3 3e 6e 36 75 3e a1 9e 85 3e
       0.2947996 0.41239935 0.23946545 0.26097587
000010 c4 7c 46 3e 8a 6e 4d 3e 2f 02 99 3c b3 17 c4 3e
       0.19383532 0.20061699 0.018677799 0.3829933
000020 0e 0e ef 3c f0 d4 64 3e 7d fa 6e bd d6 4a 65 3e
       0.029181506 0.22346854 -0.058344353 0.22391829
000030 60 6d 8d 3e 5a 23 50 3e 43 6b 79 3e 55 5a 0b 3f
       0.2762251 0.20325986 0.24357323 0.5443471
000040 c7 cd 5a bd 65 08 1d 3e ba 06 a4 3b 5c 8c a8 bd
       -0.0534189 0.15335234 0.0050056847 -0.082298964
000050 df 82 5a be e3 48 7d 3e 08 17 9a 3d e5 7b a8 bd
       -0.21338986 0.24734835 0.07523924 -0.08226756
000060 69 5c 76 be af 46 0d be b9 b1 17 3e 9d 82 7c 3d
       -0.24058689 -0.13796495 0.1481389 0.061648
000070 9c d0 12 bd 55 37 af bd 5f 7d 77 bd f5 b8 74 3d
       -0.035843477 -0.085554756 -0.060422298 0.0597467
000080 60 c3 7a 3b af 2e 75 bd b1 11 13 3e c0 d9 5b bd
       0.0038263425 -0.059858974 0.14362217 -0.05367446
000090 b3 24 c1 3d c4 db e4 bd 4e b9 8d 3d b8 af 85 3d
       0.09430828 -0.111747295 0.0692011 0.06527656
0000a0 d7 b3 c8 3d 13 82 67 be 1e 50 c7 3c 51 8c 7e 3e
       0.09799927 -0.22608213 0.024330195 0.24858214
0000b0 5d 29 72 be 46 de 5a bd 7d 99 1d 3d b8 ab 56 3e
       -0.23648591 -0.053434633 0.038476456 0.20963943
0000c0 08 6a e2 3c 46 29 1e 3e 48 b5 b3 3e a2 8d 12 3e
       0.02763845 0.15445432 0.35099244 0.14311841
0000d0 00 c8 aa 3e ac 02 e2 bd c9 f1 42 3e 3c 78 88 3e
       0.33355713 -0.11035666 0.19037546 0.26654232
0000e0 25 59 22 3d 04 1e 15 3e ce 87 5b be f6 27 ce 3d
       0.039635796 0.14562231 -0.21438524 0.10066216
0000f0 2e 7f ff 3e 5b 4f da 3e 5a 1a c1 3e 29 a1 b5 3e
       0.49901718 0.42638668 0.37715417 0.35474518

decoder_lstm.bias_hh_l0 f4 [64]
000000 d2 65 91 3e d6 08 95 3c 70 f8 aa 3e 7b 80 a8 3e
       0.28397995 0.01819269 0.33392668 0.32910523
000010 29 8d d3 3d 11 80 e3 3d 79 4c 60 3e 1c de d7 3e
       0.103296585 0.11108411 0.21904172 0.42161644
000020 d9 58 c0 bc 3c 65 74 3d c0 34 cc 3d 6c 10 49 bc
       -0.023479866 0.059666857 0.09970999 -0.012271982
000030 32 34 57 3e 31 72 f0 3d 4d a6 98 3e 1f fe eb 3d
       0.21016005 0.1174053 0.29814377 0.11523079
000040 19 dd fa 3d e6 3e ae 3d a9 3f a3 3c ee 45 d1 bd
       0.12249202 0.08508091 0.019927816 -0.10218416
000050 e7 19 74 3d 8d 97 b3 3d cc 43 c2 3c 04 94 28 3e
       0.059595015 0.087691404 0.023713969 0.16462713
000060 cb 46 8d bd 9f 03 c8 3d 2d 81 e9 bd 3c ec 55 3e
       -0.06898268 0.09766316 -0.114015914 0.20890898
000070 aa 43 a0 bc 80 37 8f bd a8 cc 02 3e ca f6 0e be
       -0.019563515 -0.06993008 0.12773383 -0.1396133
000080 7c bc 80 be b0 5e 89 3e 63 79 47 be ae f3 0c bd
       -0.25143802 0.26830053 -0.19479899 -0.03441208
000090 5a f9 13 3b 5c f8 82 be f7 bb 77 bd fc 95 60 be
       0.0022579045 -0.25580108 -0.06048199 -0.21932214
0000a0 ae 07 04 3e 49 65 8b be 51 16 22 3e ce 8d 63 3e
       0.12893555 -0.27225712 0.15828826 0.22222063
0000b0 e5 9b fd 3c 85 06 2f be 11 a7 8a 3b 60 76 d4 bc
       0.030958125 -0.17092331 0.0042313416 -0.025935352
0000c0 1c 51 d7 3b 1c 3a db 3e 51 50 b3 ba ee 71 b9 3e
       0.0065709483 0.4281777 -0.0013680552 0.36219734
0000d0 a2 aa 21 3e bd 05 8f 3e be d2 90 3e 69 e2 e9 3e
       0.15787748 0.27934065 0.28285784 0.4568055
0000e0 55 c5 cf 3e f5 72 19 3e f6 55 3c 3e 36 57 56 3e
       0.4058024 0.14985259 0.18392166 0.20931706
0000f0 f3 1f ed 3e dd 99 03 3e 51 8e 24 3e 20 6a a0 3e
       0.46313438 0.12851663 0.16069914 0.31330967
